diag-ssm-charlm/experiments/tiny/averaged_best5_model.pt (torch, 235976 bytes, 19 tensors)

emb.weight f4 [74, 64]
0.72324944 0.9751156 -1.3325983 -0.6219189 -0.7817769 -1.1182917 1.135735 -0.29817593
0.12615877 -0.48776317 0.7922584 2.5551617 1.0890187 -0.23772417 0.37095892 0.92261237
-0.13964249 0.08414438 -0.0209067 -0.9246852 -0.8698845 -0.63386613 0.88922864 1.4857892
0.2833608 0.5847885 -0.034260985 -1.1398747 0.17997672 0.34458375 0.22262995 1.380303
-1.0830026 -2.2689817 0.18879238 0.21130303 1.2380002 -0.7415752 -0.2547027 -0.80012983
0.29131252 -0.31963345 0.9751343 -0.41610566 -0.14120333 1.549694 -0.2976067 0.114550106
-0.30306202 1.7560247 -0.7921592 0.1587754 -0.5342032 0.40354165 0.76645875 0.7407307
0.14949869 0.6523413 0.8850493 -0.7201876 0.7261966 -0.60106534 -0.6332995 1.6405232
0.4307336 -0.4372599 0.46778724 0.08150157 -0.13911061 2.0979073 -0.42026684 -1.33709
-0.18760812 1.8122481 1.1856091 -0.3586532 -0.29384562 -0.6653714 0.6043217 -1.2376359
-0.11814945 -0.54378134 -0.59064215 0.18557762 0.5740342 1.0997895 -1.1778903 0.30157635
0.08576521 -0.38870525 -0.39562565 0.13938951 0.37718436 -0.023138644 -0.8132221 1.2999724
0.33054265 0.38216358 1.0300641 0.28447533 0.41750675 -0.6929073 0.049076356 0.636733
1.6240395 0.36328742 1.2859833 -0.64086735 0.74148095 0.102081895 1.0469551 -0.7301406
0.22811988 0.9415783 -0.3476865 1.6173775 -0.18566032 -0.35437194 -0.20654754 1.4951912
-1.6289262 0.83671963 0.68753666 -1.4841889 -1.2599179 -0.38876474 -1.6728724 0.3901066
-0.79494005 -0.1993939 0.98376316 0.06665013 1.5040475 -0.2046684 0.4274046 0.051205494
-0.15911481 -0.006267868 0.08934778 0.874469 -1.284993 0.46662018 -0.77642405 -0.41504183
0.3163669 -0.4512488 2.1765645 -0.43040013 -2.1642182 1.5027828 0.32225382 0.43062392
-1.0963105 0.00024829278 -0.9779011 0.7291449 0.3061945 -0.4136838 0.19734652 -1.4306872
-1.2765913 0.44469124 0.4960917 0.90524215 -0.7599825 -1.6869549 0.5403264 0.11028253
0.11657546 -1.1762666 -1.9807869 0.61338794 -2.1232107 0.57677233 1.1061231 -0.4098423
-1.6991621 -0.0023409082 -0.08658993 -0.6625373 -1.2604319 -1.0412682 -1.946481 -0.3365563
0.032094683 0.12140467 0.13433371 -0.84513205 0.65905756 -0.3518098 -1.7371289 -0.404905
-1.0405409 -1.6245785 0.605143 0.5285102 -0.80807143 -1.9330813 0.6329407 -0.8348727
-1.3781881 1.0288332 1.2787832 1.6401017 -0.34292608 2.2351236 -0.8392669 0.7751552
2.555682 1.3993875 0.114800036 1.8649663 -0.44420463 -1.8349253 0.9920959 0.73946327
-0.4181462 -3.149801 -0.6993298 -0.36976385 2.6429641 -1.4159797 -1.4492899 -2.6676672
1.6573333 -1.5466975 0.3893983 0.62368655 -0.062083602 0.3845053 1.9930813 2.1415138
3.0658045 -0.758587 1.6211656 2.084345 -0.335868 -2.9976337 2.2944524 -1.1558623
-0.20021868 3.6142595 -1.5714842 0.37997228 -1.0878719 1.8567393 1.2140923 -3.0323133
-0.15996924 0.0124062365 0.41338143 -1.0515878 0.8696729 -0.86350346 1.0840383 -1.8081458
00000000: e026 393f 2da1 793f 9592 aabf 1436 1fbf
00000010: 8822 48bf 2f24 8fbf c45f 913f 84aa 98be
00000020: c42f 013e 18bc f9be 72d1 4a3f c587 2340
00000030: f764 8b3f f76d 73be 54ee bd3e 5330 6c3f
00000040: 71fe 0ebe e453 ac3d 8744 abbc 2bb8 6cbf
00000050: c0b0 5ebf 0d45 22bf 7da4 633f 572e be3f
00000060: ab14 913e b3b4 153f 3f55 0cbd 6ae7 91bf
00000070: d14b 383e 486d b03e 1bf9 633e c5ad b03f
00000080: d49f 8abf ff36 11c0 ca52 413e d25f 583e
00000090: ca76 9e3f dfd7 3dbf 6468 82be 4fd5 4cbf
000000a0: ea26 953e ffa6 a3be 67a2 793f cd0b d5be
000000b0: 9b97 10be 5f5c c63f e85f 98be 3f99 ea3d
000000c0: f22a 9bbe 6bc5 e03f f2ca 4abf 0596 223e
000000d0: 8ac1 08bf 039d ce3e a436 443f 87a0 3d3f
000000e0: 2f16 193e d7ff 263f 9792 623f 375e 38bf
000000f0: 05e8 393f 6bdf 19bf eb1f 22bf aafc d13f
00000100: 1d89 dc3e 88e0 dfbe cf81 ef3e 4cea a63d
00000110: 0373 0ebe 1d44 0640 372d d7be c425 abbf
00000120: 581c 40be bff7 e73f 0ac2 973f 64a1 b7be
00000130: ef72 96be c855 2abf d4b4 1a3f da6a 9ebf
00000140: 57f8 f1bd 4135 0bbf 5334 17bf 0f08 3e3e
00000150: e8f3 123f e7c5 8c3f 1cc5 96bf 3768 9a3e
00000160: aca5 af3d 6004 c7be 728f cabe 20bc 0e3e
00000170: 4f1e c13e 418d bdbc 532f 50bf 7f65 a63f
00000180: e33c a93e f2aa c33e 24d9 833f c0a6 913e
00000190: 72c3 d53e 5f62 31bf 4a04 493d ef00 233f
000001a0: 87e0 cf3f cf00 ba3e 1a9b a43f e20f 24bf
000001b0: b2d1 3d3f 5010 d13d a002 863f 7fea 3abf
000001c0: 4298 693e 470b 713f f703 b2be 3a06 cf3f
000001d0: bd1d 3ebe 3d70 b5be 3381 53be 6d62 bf3f
000001e0: a780 d0bf 4233 563f 6702 303f e7f9 bdbf
000001f0: fd44 a1bf 2c0c c7be af20 d6bf 0dbc c73e
00000200: 3181 4bbf ea2d 4cbe e7d7 7b3f dd7f 883d
00000210: a184 c03f 9894 51be c7d4 da3e dabc 513d
00000220: feee 22be b062 cdbb f8fb b63d 33dd 5f3f
00000230: a77a a4bf d7e8 ee3e bac3 46bf 5d80 d4be
00000240: d8fa a13e 150a e7be d54c 0b40 685d dcbe
00000250: 8d82 0ac0 305b c03f 74fe a43e bd7a dc3e
00000260: e753 8cbf 4b2d 8239 ba57 7abf 3da9 3a3f
00000270: 87c5 9c3e 5dce d3be 3515 4a3e c220 b7bf
00000280: 5867 a3bf 92ae e33e bbff fd3e f3bd 673f
00000290: 378e 42bf 23ee d7bf d552 0a3f cfdb e13d
000002a0: 1dbf ee3d e78f 96bf 6d8a fdbf fe06 1d3f
000002b0: afe2 07c0 5aa7 133f 7195 8d3f dad6 d1be
000002c0: 257e d9bf ec69 19bb 1056 b1bd 0b9c 29bf
000002d0: d555 a1bf 4748 85bf 4a26 f9bf 1b51 acbe
000002e0: b775 033d 03a3 f83d c78e 093e 935a 58bf
000002f0: ffb7 283f 6a20 b4be 3d5a debf b54f cfbe
00000300: 7230 85bf 30f2 cfbf a7ea 1a3f 724c 073f
00000310: c5dd 4ebf 356f f7bf 6708 223f 38ba 55bf
00000320: 7868 b0bf ceb0 833f 2baf a33f daee d13f
00000330: 0294 afbe 440c 0f40 32da 56bf 9270 463f
00000340: 4b90 2340 211f b33f 481c eb3d 37b7 ee3f
00000350: ca6e e3be d5de eabf fff9 7d3f 774d 3d3f
00000360: 4217 d6be 5796 49c0 4707 33bf b051 bdbe
00000370: 5326 2940 d33e b5bf 5582 b9bf 0fbb 2ac0
00000380: 7f23 d43f 2ffa c5bf 375f c73e eca9 1f3f
00000390: 604b 7ebd e1dd c43e 4a1d ff3f 900e 0940
000003a0: 2436 4440 c232 42bf 5b82 cf3f e965 0540
000003b0: e4f6 abbe 3bd9 3fc0 4fd8 1240 4cf3 93bf
000003c0: 2006 4dbe 0750 6740 6526 c9bf ba8b c23e
000003d0: 633f 8bbf a2a9 ed3f 6067 9b3f 6c11 42c0
000003e0: face 23be 8743 4b3c bba6 d33e 6e9a 86bf
000003f0: e2a2 5e3f 900e 5dbf c4c1 8a3f 5271 e7bf

input_proj.weight f4 [128, 64]
0.031176502 -0.10448121 0.012317344 -0.07238134 -0.027391825 0.13103734 -0.059368152 0.10044879
0.08289694 0.06414743 0.14037588 -0.11087439 0.045568433 0.010857163 -0.099982694 -0.03196876
0.0068003177 0.02370338 -0.08619086 0.09750303 -0.0386699 -0.011786656 -0.027779082 -0.10682831
0.033236302 -0.030053187 -0.049411118 -0.03122586 0.017952139 0.039046694 -0.14927058 0.025856769
-0.11917833 -0.01434644 -0.0075592804 -0.10908832 -0.14064823 0.018014489 0.021816889 0.13266428
0.06401763 0.069742255 -0.046509363 0.05966851 0.09091401 -0.11826282 -0.045833122 -0.069700114
-0.047180213 -0.039794907 0.044242747 -0.0018225637 -0.03936975 -0.045514204 0.018548142 -0.008268542
-0.11974918 -0.15728949 0.017260619 -0.12035438 0.1186408 -0.11268091 0.07394667 -0.092838965
0.0010954841 0.019933652 -0.0007662596 0.02193424 -0.012263167 0.17271237 -0.17179321 -0.11757316
-0.056705218 0.044608023 0.02084334 -0.034696363 0.072062574 0.09410514 0.1356134 -0.12009406
0.11047359 0.014430801 -0.04578859 -0.033052344 -0.037438106 -0.04510144 0.0061925454 -0.047760494
0.056554187 0.051247876 0.024950018 -0.011187184 0.12853448 0.11881466 -0.00029597152 0.094491445
-0.022754265 -0.051605284 0.09864824 0.003956319 -0.12327957 -0.008129721 0.02659607 -0.10504426
0.0076418505 -0.015791452 0.0047795186 -0.015817186 0.010198551 -0.12737773 0.045323115 0.06984511
-0.014778696 -0.14240591 -0.07432697 0.04715688 -0.028751982 -0.07840692 0.0018881817 -0.0031897784
-0.029296914 -0.08947593 -0.035361096 -0.027891448 0.022628298 0.052641798 0.07698331 0.021194212
0.16918789 0.04852428 0.0008673682 -0.0002918568 0.12412604 -0.06935593 -0.049654 -0.009798097
-0.08894887 0.007580952 -0.035238452 -0.030585295 -0.18086277 0.100671984 -0.027503062 -0.028942322
0.15473881 -0.058097042 0.1001512 -0.031314235 -0.020072907 0.015829623 -0.072725065 0.013940074
0.057139635 0.023523193 -0.036911245 0.045231238 0.10765117 -0.02099742 -0.027422732 -0.088957645
0.012670726 -0.041535307 0.06967997 0.12743229 -0.057330575 -0.0064764903 0.052778263 0.11138268
-0.012392126 -0.035260584 0.033531636 0.036848262 0.014621808 -0.04033307 0.117353454 -0.010370659
-0.12602217 -0.029066924 0.032511126 0.017217947 -0.03716147 0.009417052 -0.04909281 0.08804049
0.014965466 0.054529835 -0.021633944 -0.03442201 0.026101125 -0.010926386 -0.06462975 -0.010505157
-0.04158789 -0.05896714 0.01346147 0.04129813 0.031624626 -0.059642352 -0.03087363 0.011038161
0.06546837 -0.028512428 0.090679646 0.036121637 -0.012733496 0.09890821 -0.021788532 0.013508144
-0.0013262208 -0.100684024 0.00024946648 -0.0025417318 -0.02351582 -0.030769808 0.021439292 -0.037361898
0.0472091 -0.03778076 -0.005422234 0.022571392 0.01387723 -0.047532383 -0.0063452907 0.012401325
-0.076622665 -0.05971821 0.045449555 0.022188157 -0.07232248 -0.0011117482 -0.013350819 -0.08039426
0.019224001 0.012696623 0.04376384 -0.07730454 -0.032581087 0.053253032 0.0515155 0.018512458
0.01971346 -0.007562292 -0.035309225 -0.022912577 -0.048621934 0.034298193 0.021826906 -0.015793128
-0.007066918 0.004692626 -0.03264292 0.02585685 -0.03913704 0.015186108 0.04332608 0.03241975
00000000: dd65 ff3c 3ffa d5bd afce 493c ab3c 94bd
00000010: d264 e0bc a72e 063e 052c 73bd 18b8 cd3d
00000020: dfc5 a93d ba5f 833d b2be 0f3e 1d12 e3bd
00000030: f7a5 3a3d 3ee2 313c bac3 ccbd adf1 02bd
00000040: 33d5 de3b 972d c23c d584 b0bd abaf c73d
00000050: 5464 1ebd d21c 41bc f590 e3bc cdc8 dabd
00000060: ca22 083d 1a32 f6bc 5063 4abd 60cd ffbc
00000070: 5d10 933c 6def 1f3d 63da 18be 93d1 d33c
00000080: c513 f4bd 550d 6bbc d7b3 f7bb b269 dfbd
00000090: 1706 10be 1f93 933c 55b9 b23c 25d9 073e
000000a0: ad1b 833d 07d5 8e3d 9a80 3ebd f866 743d
000000b0: 2031 ba3d c733 f2bd 83bb 3bbd efbe 8ebd
000000c0: 0a40 41bd fcff 22bd e237 353d 17e3 eeba
000000d0: 2d42 21bd 1a6d 3abd 46f2 973c c778 07bc
000000e0: 0f3f f5bd 7f10 21be 2466 8d3c 5b7c f6bd
000000f0: f3f9 f23d 40c5 e6bd 5a71 973d 5b22 bebd
00000100: 5996 8f3a e64b a33c d0de 48ba 6faf b33c
00000110: 73eb 48bc 83db 303e 8fea 2fbe 32ca f0bd
00000120: bb43 68bd e7b6 363d a7bf aa3c c61d 0ebd
00000130: 8b95 933d 32ba c03d 3dde 0a3e e0f3 f5bd
00000140: fa3f e23d 2b6f 6c3c d18c 3bbd e561 07bd
00000150: b358 19bd 4abc 38bd d6ea ca3b 82a0 43bd
00000160: 5da5 673d 4be9 513d fb63 cc3c 734a 37bc
00000170: 8b9e 033e 1a55 f33d a02c 9bb9 bb84 c13d
00000180: 2767 babc 1060 53bd 1708 ca3d 02a4 813b
00000190: 007a fcbd 8532 05bc 00e0 d93c 7221 d7bd
000001a0: 7d68 fa3b 135d 81bc 829d 9c3b 0b93 81bc
000001b0: d317 273c 4f6f 02be bba4 393d f40a 8f3d
000001c0: 5822 72bc dbd2 11be bd38 98bd 9327 413d
000001d0: 4789 ebbc cf93 a0bd dd7c f73a 9a0b 51bb
000001e0: 1500 f0bc 283f b7bd ccd6 10bd 9b7c e4bc
000001f0: fb5e b93c ed9e 573d 6da9 9d3d 7c9f ad3c
00000200: 973f 2d3e 65c1 463d 1860 633a 5b04 99b9
00000210: cb35 fe3d 7b0a 8ebd fe61 4bbd 3388 20bc
00000220: d32a b6bd a269 f83b 3256 10bd 038e fabc
00000230: 1734 39be 1d2d ce3d 1a4e e1bc 7318 edbc
00000240: da73 1e3e 2af7 6dbd 131c cd3d 5b43 00bd
00000250: f06f a4bc 20ad 813c e1f0 94bd e864 643c
00000260: 400b 6a3d b6b3 c03c 3f30 17bd 6444 393d
00000270: 3778 dc3d c802 acbc a3a5 e0bc 6d2f b6bd
00000280: e098 4f3c ed20 2abd 5fb4 8e3d 9c7d 023e
00000290: 77d3 6abd bd38 d4bb 052e 583d 9a1c e43d
000002a0: 5808 4bbc 676d 10bd 7858 093d 34ee 163d
000002b0: 4f90 6f3c 4a34 25bd 0257 f03d b2e9 29bc
000002c0: f50b 01be c21d eebc 632a 053d a70c 8d3c
000002d0: a036 18bd fb49 1a3c 8b15 49bd 934e b43d
000002e0: b731 753c ad5a 5f3d ab39 b1bc 18fe 0cbd
000002f0: 07d2 d53c 9604 33bc 9a5c 84bd d21d 2cbc
00000300: 1058 2abd 8787 71bd 7f8d 5c3c 3a28 293d
00000310: d388 013d 8a4b 74bd b2ea fcbc 67d9 343c
00000320: 4814 863d e592 e9bc 40b6 b93d 48f4 133d
00000330: 27a0 50bc 6390 ca3d dd7d b2bc 4351 5d3c
00000340: 96d4 adba 6d33 cebd d3ca 8239 2f93 26bb
00000350: 40a4 c0bc f710 fcbc 74a1 af3c ca08 19bd
00000360: 545e 413d 00c0 1abd ffac b1bb a4e7 b83c
00000370: 525d 633c 51b1 42bd 28ec cfbb ed2e 4b3c
00000380: 58ec 9cbd 159b 74bd 5029 3a3d f0c3 b53c
00000390: cf1d 94bd 14b8 91ba 65bd 5abc bfa5 a4bd
000003a0: a77b 9d3c 7f05 503c b641 333d d851 9ebd
000003b0: bf73 05bd da1f 5a3d eb01 533d 70a7 973c
000003c0: 1f7e a13c 1acd f7bb 68a0 10bd 28b3 bbbc
000003d0: cb27 47bd 437c 0c3d 57ce b23c 9760 81bc
000003e0: 9b91 e7bb 9ac4 993b 95b4 05bd bfd1 d33c
000003f0: 294e 20bd 27cf 783c b076 313d 92ca 043d

input_proj.bias f4 [128]
-0.04360891 0.15361276 -0.03908652 -0.013147931 0.0068819784 -0.112212114 0.01105465 0.11124978
0.0024528855 -0.031494178 -0.009747823 -0.07706513 0.04149223 0.028206304 0.10505457 0.050474238
-0.029686144 -0.017120663 0.09698983 -0.042365722 0.025165444 -0.052851815 -0.059653815 -0.008914641
-0.13305344 0.062445153 -0.044677168 -0.011086206 -0.04228975 -0.06075726 0.002987187 -0.032902516
-0.14275037 0.0496385 -0.024156226 -0.07649457 -0.14440876 0.044445116 -0.034406055 0.103603385
-0.1182897 -0.011656042 0.08564884 -0.07048608 0.07841324 -0.066626154 -0.115485445 0.09852762
0.17166328 -0.011342502 -0.09161862 -0.072472736 0.11534699 -0.0028209363 -0.22328937 0.032036494
-0.10269971 -0.085993305 0.19321077 -0.09848292 -0.09282947 -0.0662669 0.107824825 0.10548659
-0.16682535 0.05891332 -0.050926883 0.13103285 -0.03148901 0.010460535 0.021518698 0.030432645
-0.21525382 0.13441838 -0.11044305 0.050424587 0.026281489 -0.062057137 0.23338185 0.01950613
-0.08962011 -0.11185445 0.01892818 0.1591053 0.050489742 0.056671362 -0.15218303 0.05962664
0.00010581281 0.11095963 0.01776991 0.04529321 -0.06363425 -0.0877891 -0.16390681 -0.08660611
0.009139474 -0.0012405411 0.0040745763 -0.10082861 0.014126963 -0.07979611 -0.16473477 -0.02897285
0.028077578 -0.046651945 -0.10460156 -0.056523927 -0.08824202 -0.12432029 -0.010756363 0.13151737
0.031382736 -0.07854571 0.031520523 0.01274536 -0.012695729 -0.19947593 0.17537542 0.06822727
-0.05244437 -0.10029516 -0.092563525 -0.073476814 -0.101122476 -0.04282536 -0.111135654 -0.09095531
00000000: 429f 32bd aa4c 1d3e 3019 20bd 6b6a 57bc
00000010: 3882 e13b 77cf e5bd 901e 353c edd6 e33d
00000020: 97c0 203b 0a00 01bd 55b5 1fbc 53d4 9dbd
00000030: c2f3 293d e810 e73c da26 d73d 13be 4e3d
00000040: 5b30 f3bc a240 8cbc 9ba2 c63d ae87 2dbd
00000050: c327 ce3c 257b 58bd 8f57 74bd b70e 12bc
00000060: 293f 08be 7dc6 7f3d 68ff 36bd eba2 35bc
00000070: 0438 2dbd 9bdc 78bd aec4 433b cac4 06bd
00000080: 272d 12be bd51 4b3d 47e3 c5bc 2fa9 9cbd
00000090: e4df 13be 150c 363d 5ded 0cbd 032e d43d
000000a0: df41 f2bd fcf8 3ebc a968 af3d 025b 90bd
000000b0: 1f97 a03d 4b73 88bd a283 ecbd d9c8 c93d
000000c0: 80c8 2f3e e7d5 39bc 8ba2 bbbd 966c 94bd
000000d0: 0b3b ec3d 75df 38bb f8a5 64be b338 033d
000000e0: 3a54 d2bd 421d b0bd 0bd9 453e 6ab1 c9bd
000000f0: 611d bebd f1b6 87bd 43d3 dc3d 5a09 d83d
00000100: 44d4 2abe 184f 713d b598 50bd 7a2d 063e
00000110: 9ffa 00bd aa62 2b3c fb47 b03c e24d f93c
00000120: 7f6b 5cbe f9a4 093e f72f e2bd 038a 4e3d
00000130: 474c d73c a02f 7ebd a7fb 6e3e 52cb 9f3c
00000140: c08a b7bd f213 e5bd 450f 9b3c 80ec 223e
00000150: 55ce 4e3d 3b20 683d ded5 1bbe 103b 743d
00000160: d2e7 dd38 cd3e e33d 3492 913c 5f85 393d
00000170: ac52 82bd c6ca b3bd 30d7 27be 8b5e b1bd
00000180: bbbd 153c a799 a2ba 0684 853b 3b7f cebd
00000190: c774 673c 256c a3bd 3bb0 28be 7858 edbc
000001a0: f302 e63c 1c16 3fbd 5839 d6bd a285 67bd
000001b0: 3bb8 b4bd a39b febd 753b 30bc 7dac 063e
000001c0: 2f8b 003d 93dc a0bd aa1b 013d ead1 503c
000001d0: bf01 50bc 6b43 4cbe 9d95 333e bdba 8b3d
000001e0: e8cf 56bd 8d67 cdbd f291 bdbd 037b 96bd
000001f0: 4d19 cfbd a569 2fbd 179b e3bd c746 babd

layers.0.a f4 [128]
0.5630342 0.5605792 0.6136445 0.66673845 0.55823755 0.9690568 0.56681263 0.57692134
0.5846092 0.5341446 0.57253116 0.7137786 0.5817959 0.5255862 0.5785298 0.59236115
0.53899693 0.5641414 0.53017986 0.56472874 0.9369575 0.59437716 0.62255216 0.6104428
0.42149875 0.62224895 0.4797221 0.5619257 0.5424166 0.5814925 0.5625996 0.57301265
0.47134468 0.53746957 0.6119642 0.53516483 0.5614489 0.5185737 0.5801427 0.5496433
0.68992954 0.6112652 0.5743007 0.4736088 0.5595874 0.5255292 0.6236543 0.68257934
0.6748738 0.68608683 0.5494324 0.5452332 0.5586938 0.6648967 0.62180746 0.66553384
0.6162979 0.58262604 0.6000499 0.5145825 0.6125788 0.51950634 0.5315578 0.5922559
0.55302435 0.53439784 0.5637995 0.6463881 0.6056519 0.5656008 0.9856407 0.5226111
0.5642918 0.47899935 0.57138234 0.60431665 0.59971106 0.59236395 0.6276037 0.5549471
0.5445944 0.43783313 0.5745554 0.6399676 0.6425 0.6696044 0.34894106 0.5094477
0.52349794 0.5882439 0.56368124 0.46939597 0.52138394 0.5225324 0.5902507 0.59496814
0.62773484 0.57489157 0.5696834 0.4747951 0.59840626 0.62483954 0.5962133 0.5952988
0.6031127 0.5927038 0.5966885 0.5613529 0.5164428 0.5751502 0.59532005 0.5711266
0.61402255 0.5754746 0.5562416 0.54951334 0.5078371 0.5121352 0.6595065 0.5569254
0.56329983 0.49957743 0.42271253 0.52366114 0.5682073 0.56560177 0.5114967 0.56275594
00000000: 0223 103f 1e82 0f3f ce17 1d3f 5faf 2a3f
00000010: a8e8 0e3f 1b14 783f a21a 113f 1eb1 133f
00000020: f3a8 153f b3bd 083f 6791 123f 32ba 363f
00000030: 93f0 143f d18c 063f 871a 143f fba4 173f
00000040: b4fb 093f 926b 103f deb9 073f 1092 103f
00000050: 72dc 6f3f 1a29 183f 945f 1f3f fb45 1c3f
00000060: afce d73e b54b 1f3f 239e f53e 5dda 0f3f
00000070: d0db 0a3f b1dc 143f 8706 103f f5b0 123f
00000080: 1754 f13e 9b97 093f b0a9 1c3f 9000 093f
00000090: 1dbb 0f3f 3fc1 043f 3b84 143f 6cb5 0c3f
000000a0: 399f 303f e07b 1c3f 5f05 133f da7c f23e
000000b0: 1f41 0f3f 1589 063f cfa7 1f3f 85bd 2e3f
000000c0: 88c4 2c3f 63a3 2f3f 9aa7 0c3f 6794 0b3f
000000d0: 8f06 0f3f ac36 2a3f c62e 1f3f 6d60 2a3f
000000e0: b3c5 1d3f fb26 153f df9c 193f aebb 033f
000000f0: f7d1 1c3f 5efe 043f 2c14 083f 159e 173f
00000100: 0193 0d3f 4cce 083f 2a55 103f b179 253f
00000110: 010c 1b3f 37cb 103f f352 7c3f d7c9 053f
00000120: 6d75 103f 673f f53e 1d46 123f 7fb4 1a3f
00000130: aa86 193f 2aa5 173f a3aa 203f 0311 0e3f
00000140: 8a6a 0b3f aa2b e03e 1016 133f ebd4 233f
00000150: e17a 243f 326b 2b3f 67a8 b23e 2a6b 023f
00000160: f603 063f 2797 163f 6a4d 103f ab54 f03e
00000170: 6b79 053f afc4 053f ab1a 173f d54f 183f
00000180: 3bb3 203f 182c 133f c5d6 113f 5818 f33e
00000190: 2731 193f 7cf5 1f3f 6fa1 183f 8165 183f
000001a0: 9865 1a3f 70bb 173f 94c0 183f d3b4 0f3f
000001b0: 9835 043f 0b3d 133f e566 183f 5a35 123f
000001c0: 9530 1d3f 4e52 133f d965 0e3f e8ac 0c3f
000001d0: 9d01 023f 4b1b 033f 6bd5 283f aa92 0e3f
000001e0: 6b34 103f 9dc8 ff3e c76d d83e a80e 063f
000001f0: 0976 113f 47cb 103f 73f1 023f c610 103f

layers.0.b f4 [128]
0.14658056 0.27021557 0.1711344 0.13988738 0.13109158 -0.025523502 -0.12000479 0.14113335
-0.17658018 -0.11987398 -0.14127664 -0.25856456 -0.16157316 0.20422752 -0.2053202 -0.22587521
0.24277715 -0.15622465 -0.2774118 0.18014328 -0.07268387 0.17043148 -0.20503645 0.2517955
-0.339041 0.17818832 -0.17245114 0.17013088 0.13448769 -0.21642338 0.16972077 -0.14957471
0.14169247 -0.14743116 -0.32891366 -0.17978704 0.1802089 0.1482329 -0.17108165 -0.14285874
0.13099775 0.19283642 -0.31151184 0.21563737 0.12227561 -0.13226739 -0.21257721 -0.19991198
0.24903663 0.23636964 -0.14316191 0.34133676 -0.13445716 -0.2160801 -0.12422367 0.17736576
-0.124683395 -0.21044262 0.17937635 -0.15595065 0.16894996 -0.13726276 0.19565134 -0.1334693
0.14534943 0.24311188 0.10052055 0.1801428 -0.111220516 -0.19924894 0.048922062 0.15099965
-0.16008715 0.15077905 -0.20244975 -0.1613708 0.106868066 0.2515014 0.1380678 0.18923596
0.14155996 -0.13622521 -0.18468371 0.17880857 -0.20596902 0.21917756 -0.3615934 0.23127833
-0.20651674 0.20376049 0.19963036 -0.16372 -0.18032776 0.2518858 -0.21791425 -0.1641544
0.24053958 0.14409271 0.2980242 -0.27365234 -0.18885349 0.16567208 0.15007861 0.12573017
-0.23517013 0.18940674 -0.21245967 -0.23427644 -0.14712317 0.15121038 -0.18918347 0.1418627
-0.16920537 -0.17806183 0.104998745 0.17706436 -0.18341243 0.25570726 0.20070584 0.16421555
0.12680493 -0.24008285 0.16612999 0.24157119 0.14964004 0.1853526 -0.19320971 0.1475581
00000000: 3719 163e b259 8a3e db3d 2f3e a33e 0f3e
00000010: df3c 063e aa16 d1bc 12c5 f5bd 4385 103e
00000020: 6fd1 34be 7d80 f5bd d3aa 10be 9362 84be
00000030: 6f73 25be 0521 513e 753f 52be d54b 67be
00000040: 939a 783e 5bf9 1fbe eb08 8ebe 7b77 383e
00000050: 48db 94bd 9785 2e3e 13f5 51be 57eb 803e
00000060: c896 adbe 0077 363e 0897 30be ca36 2e3e
00000070: 24b7 093e 179e 5dbe 48cb 2d3e 1d2a 19be
00000080: d517 113e 32f8 16be 5f67 a8be 181a 38be
00000090: af88 383e 5eca 173e 0730 2fbe 9049 12be
000000a0: 4624 063e e976 453e 7b7e 9fbe 0bd0 5c3e
000000b0: a36b fa3d 1a71 07be d7ad 59be bab5 4cbe
000000c0: 7503 7f3e e20a 723e 0999 12be b1c3 ae3e
000000d0: 23af 09be 1a44 5dbe fb68 febd 5f9f 353e
000000e0: 025a ffbd 457e 57be 6fae 373e 87b1 1fbe
000000f0: 3801 2d3e 9c8e 0cbe d358 483e 2dac 08be
00000100: 7bd6 143e 52f2 783e b8dd cd3d 5b77 383e
00000110: 95c7 e3bd ea07 4cbe 8062 483d a79f 1a3e
00000120: e3ed 23be d365 1a3e fd4e 4fbe 633e 25be
00000130: a5dd da3d cbc4 803e a561 0d3e 12c7 413e
00000140: 18f5 103e 9f7e 0bbe ba1d 3dbe 9819 373e
00000150: 8be9 52be 1570 603e c522 b9be 3ad4 6c3e
00000160: 2079 53be 97a6 503e e76b 4c3e 37a6 27be
00000170: d7a7 38be 2df7 803e ea24 5fbe 1718 28be
00000180: 0250 763e 0a8d 133e a196 983e 291c 8cbe
00000190: cf62 41be f1a5 293e 35ae 193e 69bf 003e
000001a0: 70d0 70be d7f3 413e 078f 59be 2ae6 6fbe
000001b0: 75a7 16be e5d6 1a3e 50b9 41be 7544 113e
000001c0: 2c44 2dbe d755 36be 9509 d73d 5c50 353e
000001d0: 78d0 3bbe 10ec 823e d585 4d3e 1f28 283e
000001e0: 27d9 013e 47d8 75be fb1d 2a3e 705e 773e
000001f0: 3d3b 193e 12cd 3d3e c4d8 45be 7819 173e

layers.0.c f4 [128]
-0.20209925 0.16111507 -0.18651722 0.22966842 -0.21781221 -0.15650879 0.2384374 -0.26404014
0.16508171 0.2682393 -0.17541419 0.091914885 0.12614627 -0.13220392 -0.21075948 0.11414176
-0.1196146 -0.14957064 -0.1144609 0.11999493 -0.11459682 -0.23288839 0.14841874 0.13178062
-0.14652804 0.16027267 -0.14791375 0.17846183 -0.19626196 -0.14568533 -0.13289212 -0.19973724
0.256534 -0.20409559 0.10173004 -0.15805838 0.13367335 0.16975112 0.15686184 0.28968567
-0.17787421 -0.16034259 0.13595434 -0.15942799 -0.26197785 -0.282446 -0.1503079 0.16195264
0.11595135 0.15084973 -0.2297027 0.2133845 -0.2680157 -0.13237153 -0.14587955 -0.16907059
-0.30986664 0.13655661 0.15252583 -0.23404169 0.12594372 -0.188553 -0.13173364 -0.2101934
-0.28110453 -0.12926348 0.27320775 -0.16427338 -0.24414416 0.13881229 0.099268086 -0.1883447
0.13888155 -0.1882268 -0.12970446 0.18164413 -0.24531117 -0.096132554 -0.26437175 -0.15571128
0.18476616 -0.23412664 0.1500435 -0.29818225 0.14275698 0.19782178 0.41565534 0.10704191
-0.13927881 -0.19715905 0.14546515 0.19992422 -0.20580183 -0.12014582 -0.18313701 0.1773594
0.2226197 -0.22390345 0.09810315 -0.091067985 -0.23298946 -0.14667301 0.15604907 0.16898449
-0.11601513 0.16966726 -0.15555668 -0.19653837 -0.25329357 0.2606537 -0.16911206 0.20697351
0.19422221 -0.20223366 -0.27968547 -0.1505057 0.13928257 -0.099142484 -0.10983296 -0.1523007
-0.21887462 0.16483103 -0.17287867 0.1813159 -0.1867892 -0.14257143 0.1672175 -0.17650393
00000000: 1bf3 4ebe 59fb 243e 5ffe 3ebe 332e 6b3e
00000010: 2a0a 5fbe d743 20be ef28 743e 4530 87be
00000020: 2e0b 293e a956 893e c79f 33be df3d bc3d
00000030: 7d2c 013e 7760 07be 55d1 57be 28c3 e93d
00000040: 80f8 f4bd 0c29 19be 7a6a eabd e7bf f53d
00000050: bdb1 eabd 4b7a 6ebe 15fb 173e 80f1 063e
00000060: 720b 16be 851e 243e b476 17be b3be 363e
00000070: e5f8 48be 892e 15be df14 08be eb87 4cbe
00000080: 6d58 833e 6ffe 50be d757 d03d 0eda 21be
00000090: abe1 083e 3dd3 2d3e 64a0 203e ae51 943e
000000a0: a824 36be d930 24be 9d37 0b3e 1741 23be
000000b0: f621 86be c39c 90be 50ea 19be ead6 253e
000000c0: e777 ed3d 5a78 1a3e 2f37 6bbe 7781 5a3e
000000d0: 5b39 89be 678c 07be 7361 15be d720 2dbe
000000e0: d7a6 9ebe 7fd5 0b3e bb2f 1c3e a0a8 6fbe
000000f0: 64f7 003e 0a14 41be 2fe5 06be f03c 57be
00000100: efec 8fbe a55d 04be e3e1 8b3e 4837 28be
00000110: ed00 7abe cf24 0e3e 114d cb3d 6fdd 40be
00000120: f736 0e3e 87be 40be 3fd1 04be eb00 3a3e
00000130: da32 7bbe 25e1 c4bd bc5b 87be c772 1fbe
00000140: 5733 3d3e e5be 6fbe 01a5 193e 58ab 98be
00000150: e32e 123e cb91 4a3e c7d0 d43e ca38 db3d
00000160: 1b9f 0ebe 10e4 49be d1f4 143e efb8 4c3e
00000170: b7bd 52be 030f f6bd 4588 3bbe b49d 353e
00000180: 6bf6 633e f246 65be 4eea c83d da81 babd
00000190: ca94 6ebe 7331 16be 54cb 1f3e 450a 2d3e
000001a0: 5799 edbd 41bd 2d3e 404a 1fbe 5b41 49be
000001b0: b2af 81be 6774 853e b62b 2dbe ddf0 533e
000001c0: 30e2 463e 5716 4fbe ef32 8fbe 2b1e 1abe
000001d0: 17a0 0e3e 370b cbbd 1af0 e0bd b7f4 1bbe
000001e0: ab20 60be 77c9 283e 1b07 31be e0aa 393e
000001f0: ab45 3fbe 3ffe 11be 103b 2b3e 72bd 34be

layers.0.out_bias f4 [128]
0.0022668857 0.015427554 0.008810088 0.007835118 -0.008263101 0.008857438 0.009068118 -0.008873421
0.001854858 -0.005888647 -0.0026246584 0.003255231 0.0036157381 0.0073323674 0.00047622877 -0.00046073148
-0.0065390975 0.0046532503 -0.011642886 -0.0046815355 0.0007584886 0.005866488 0.0048361723 0.0029164252
0.014111127 -0.0029954526 0.0017394286 -0.014340385 -0.0013955996 0.013219038 -0.0029915047 -0.01125853
-0.018891037 -0.0017569524 -0.0037205045 -0.0024307582 0.005833099 -0.00030502904 -0.0029000486 0.0036239163
0.032660823 -0.0028437185 0.0076383026 -0.009939142 0.0028146387 -0.0043108743 0.0012259234 0.01769681
0.007873952 -0.013751084 -0.019494459 0.020540098 -0.0009901559 -0.021475451 0.007952522 0.012657083
0.028162662 -0.0014473138 -0.003752791 -0.0038142726 0.0037982862 0.0010226595 0.005952819 0.0030338976
0.020385366 0.002370347 0.0070129917 0.015259451 0.023598133 0.00234286 0.0057456153 -0.02363704
-0.00015512579 0.015362783 -0.007503036 -0.012311544 0.0015762777 0.008280164 -0.022558466 -0.0006923576
0.007050314 0.000485407 -0.00033207753 0.027981086 0.008570222 0.063412994 0.03858919 -0.0039302562
0.008098365 0.0051618423 0.001420817 -0.020810882 -0.0014668016 -0.015874071 0.012187603 0.018593367
0.013355726 -0.009327284 -0.0041298526 0.009549353 0.0122130755 -0.0009644933 -0.0059896708 0.00065510935
0.0035364272 0.0013021943 -0.0009855416 0.026651476 0.0012087602 -0.006756638 -0.00047804532 -0.0009715178
0.007975186 0.00044816203 -0.0036656398 -0.00214035 0.0070804977 -0.009895845 0.013078245 0.010011314
-0.0011127221 -0.0023354103 0.0075055882 -0.01398202 0.011491053 -0.0033272689 0.011314525 -0.003985561
00000000: 0890 143b dac3 7c3c 3058 103c de5e 003c
00000010: f561 07bc ca1e 113c 7292 143c d361 11bc
00000020: b51e f33a 8df5 c0bb 7602 2cbb b755 553b
00000030: 05f6 6c3b 5b44 f03b 58ae f939 558e f1b9
00000040: ed45 d6bb 4b7a 983b cec1 3ebc 9167 99bb
00000050: 4fd5 463a ab3b c03b c178 9e3b 7f21 3f3b
00000060: 5b32 673c 5b4f 44bb 8afd e33a eff3 6abc
00000070: 8dec b6ba aa94 583c 1f0d 44bb b375 38bc
00000080: 60c1 9abc 8a49 e6ba b5d3 73bb 5b4d 1fbb
00000090: 9523 bf3b 4eec 9fb9 be0e 3ebb 3a7f 6d3b
000000a0: 5bc7 053d ae5d 3abb ba4a fa3b c8d7 22bc
000000b0: cd75 383b 3c42 8dbb 2aaf a03a e7f8 903c
000000c0: c001 013c 3a4c 61bc d8b2 9fbc b543 a83c
000000d0: 1ec8 81ba 49ed afbc 4b4b 023c a75f 4f3c
000000e0: 62b5 e63c cbb3 bdba 63f1 75bb e0f8 79bb
000000f0: abec 783b c20a 863a dd0f c33b 5bd4 463b
00000100: 36ff a63c d357 1b3b 3dcd e53b c702 7a3c
00000110: df50 c13c ab8a 193b b745 bc3b 77a2 c1bc
00000120: 43a9 22b9 2fb4 7b3c 07dc f5bb 5cb6 49bc
00000130: 1a9b ce3a 86a9 073c 88cc b8bc 557f 35ba
00000140: 5206 e73b 3a7e fe39 b11a aeb9 9738 e53c
00000150: 1e6a 0c3c acde 813d b30f 1e3d 61c9 80bb
00000160: 01af 043c ac24 a93b b53a ba3a 957b aabc
00000170: b241 c0ba 570a 82bc 83ae 473c 1e51 983c
00000180: fad1 5a3c 77d1 18bc b753 87bb e474 1c3c
00000190: 5a19 483c 0dd6 7cba 0045 c4bb a5bb 2b3a
000001a0: 67c3 673b 64ae aa3a 4a2d 81ba 3254 da3c
000001b0: 436f 9e3a ca66 ddbb 28a2 fab9 75ad 7eba
000001c0: 5baa 023c 4af7 ea39 3b3b 70bb 1d45 0cbb
000001d0: 8503 e83b 2f22 22bc 2346 563c 7f06 243c
000001e0: c2d8 91ba af0d 19bb 70f1 f53b d814 65bc
000001f0: f844 3c3c 4f0e 5abb 8f60 393c 4f99 82bb

layers.0.in_proj.weight f4 [128, 128]
0.011484797 0.064890556 0.034119528 -0.06500037 0.0458343 -0.045644153 -0.09712549 0.09951047
0.021325283 -0.10776315 -0.035103217 -0.01981905 0.10848271 0.0043955627 -0.15180892 -0.16253118
0.030022914 0.057376016 0.13326131 0.008943403 -0.064270854 -0.21139589 0.09609797 0.023413302
-0.033596314 0.007290458 0.007390681 0.15631728 -0.24141066 -0.053675808 0.007224766 0.14947553
-0.07933648 -0.2098331 -0.025290787 0.024485799 -0.03198428 0.05139708 0.13920735 -0.062047016
0.019222775 0.13994573 -0.023556447 0.03965607 -0.05865969 -0.024859559 -0.03463054 -0.07536288
0.034152802 -0.1251726 -0.09205968 -0.03755687 -0.010624911 -0.0026315325 -0.028836066 -0.06779878
-0.122578695 0.032579187 -0.08935521 0.007279919 0.030285943 -0.21747227 -0.19484895 -0.03507305
-0.12835322 0.03657086 -0.011080231 0.06643452 -0.24094324 0.012136797 0.1485888 0.05656172
-0.07639028 -0.11995169 -0.01611314 -0.018990843 0.074020326 -0.046037775 -0.1839306 -0.060534727
0.035430875 0.05498414 -0.038457476 -0.04328323 -0.004439372 0.10826069 0.016331373 -0.047973055
0.066200875 0.028062958 0.01111935 0.042770166 -0.14530961 -0.16238625 -0.016056608 -0.008703757
0.055905975 0.12838627 -0.08793279 0.0881482 0.15636925 0.085908264 0.1755267 0.07041603
0.059608784 0.1987698 -0.038100824 0.016816923 0.09824624 -0.08137238 -0.00044951958 0.058902677
-0.026454303 0.09644943 -0.068545856 -0.02000384 0.14254038 -0.062392652 0.014708772 -0.13635217
0.11678572 -0.04302742 -0.036481436 0.0031843346 0.054609943 0.039651822 0.123855524 0.047806658
-0.069611 0.08806605 0.014492671 0.07260267 -0.006542399 -0.008770214 -0.18454377 -0.0444646
0.091312595 0.030671393 0.027317692 -0.10587902 -0.0997851 0.13990915 -0.0038112856 -0.102132514
0.21516517 -0.040198278 0.0055412324 0.04532979 -0.110208206 -0.00559966 0.08966621 -0.010716561
0.085123375 0.11960687 0.10718184 0.13263014 0.012491861 0.062094655 -0.032503795 -0.08360215
-0.09923915 0.044241887 -0.026540844 -0.0970279 0.017302115 0.06728692 0.013480224 0.112025276
-0.09525032 0.08906018 -0.20942724 0.017953848 0.098119 0.011617395 0.05482709 -0.014347257
-0.08741696 -0.105412416 0.038698085 0.20514421 -0.12636702 0.07375783 0.028111577 0.13412616
0.026276398 0.04533508 0.013538172 0.19525315 0.021296283 0.014141485 0.1259224 0.041837376
-0.10628271 0.00641521 0.20313092 0.012655369 0.000116328374 -0.015562042 -0.22932182 -0.08021592
0.09801242 0.06226675 -0.055478584 0.03361349 0.09235821 -0.06083429 0.021249387 0.031573694
-0.03968933 0.0693463 0.012376017 0.06791476 -0.08771998 -0.039629504 0.061899465 -0.046401538
-0.0391375 0.047930006 0.06041466 -0.082889885 -0.10135963 -0.026626486 -0.16930501 0.032617614
-0.033684567 -0.037132885 0.06253128 0.027305892 -0.08458882 -0.09747904 -0.052695114 0.02787142
0.09910359 -0.091621846 0.082914315 -0.025112743 0.11628433 -0.05571976 -0.11771325 -0.07517943
-0.06779201 0.0015590846 -0.067143165 -0.1845233 0.0008241989 0.04879465 -0.18989186 0.04459434
-0.036593545 0.099035546 -0.032877494 0.0067870202 -0.020093879 0.10174664 0.02174757 -0.06974191
00000000: bb2a 3c3c 57e5 843d ebc0 0b3d ea1e 85bd
00000010: bfbc 3b3d 5df5 3abd bbe9 c6bd 25cc cb3d
00000020: 5cb2 ae3c edb2 dcbd 64c8 0fbd 8f5b a2bc
00000030: 2f2c de3d a708 903b cc73 1bbe 936e 26be
00000040: 9df2 f53c 1d03 6b3d a775 083e 5a87 123c
00000050: 70a0 83bd 2a78 58be 03cf c43d 41cd bf3c
00000060: 4a9c 09bd cbe4 ee3b 872d f23b a311 203e
00000070: 5b34 77be 2adb 5bbd bbbd ec3b 1d10 193e
00000080: 2a7b a2bd 7dde 56be a02e cfbc 7196 c83c
00000090: f301 03bd bf85 523d 5f8c 0e3e 0325 7ebd
000000a0: 1579 9d3c ef4d 0f3e 73f9 c0bc 676e 223d
000000b0: 2545 70bd 46a6 cbbc c1d8 0dbd db57 9abd
000000c0: cfe3 0b3d 3f2d 00be c989 bcbd 3cd5 19bd
000000d0: 1b14 2ebc ca75 2cbb 9d39 ecbc 16da 8abd
000000e0: 8a0a fbbd c171 053d ddff b6bd 638c ee3b
000000f0: 3a1a f83c 0db1 5ebe 7c86 47be c2a8 0fbd
00000100: 076f 03be 53cb 153d db89 35bc d20e 883d
00000110: d3b9 76be 6bd9 463c aa27 183e 43ad 673d
00000120: 8272 9cbd 3ba9 f5bd b4ff 83bc af92 9bbc
00000130: f897 973d 1b92 3cbd 4e58 3cbe 43f3 77bd
00000140: f71f 113d 0d37 613d 9685 1dbd c249 31bd
00000150: 2778 91bb c8b7 dd3d 5fc9 853c 657f 44bd
00000160: 5394 873d 4ae4 e53c ef2d 363c c52f 2f3d
00000170: 0bcc 14be 9548 26be 2689 83bc 349a 0ebc
00000180: aafd 643d b177 033e 1b16 b4bd 0b87 b43d
00000190: 431f 203e acf0 af3d 45bd 333e 4836 903d
000001a0: 5728 743d 4f8a 4b3e 9c0f 1cbd a5c3 893c
000001b0: 5335 c93d 90a6 a6bd 7fad ebb9 ef43 713d
000001c0: b2b6 d8bc 4787 c53d c561 8cbd 18df a3bc
000001d0: 1bf6 113e 708f 7fbd 10fd 703c e79f 0bbe
000001e0: 5a2d ef3d 853d 30bd 8f6d 15bd 45b0 503b
000001f0: adae 5f3d f369 223d f7a7 fd3d ead0 433d
00000200: 3690 8ebd f95b b43d ab72 6d3c b5b0 943d
00000210: 9f61 d6bb f2b0 0fbc 0bf9 3cbe 8320 36bd
00000220: 1902 bb3d 9342 fb3c 5ac9 df3c 1ad7 d8bd
00000230: 215c ccbd 5844 0f3e c3c6 79bb da2a d1bd
00000240: 4254 5c3e f3a6 24bd 3a93 b53b bbab 393d
00000250: d7b4 e1bd 5a7d b7bb eba2 b73d 8494 2fbc
00000260: 2a55 ae3d 72f4 f43d 2782 db3d 32d0 073e
00000270: aaaa 4c3c f756 7e3d b322 05bd 9b37 abbd
00000280: e53d cbbd fb36 353d 2f6c d9bc 90b6 c6bd
00000290: 2abd 8d3c bacd 893d 28dc 5c3c 826d e53d
000002a0: 9a12 c3bd 2f65 b63d 1874 56be f313 933c
000002b0: 9df2 c83d e356 3e3c 5f92 603d c210 6bbc
000002c0: aa07 b3bd 77e2 d7bd e281 1e3d 5311 523e
000002d0: 5b66 01be 580e 973d 404a e63c 5e58 093e
000002e0: 9a41 d73c 47b1 393d 35cf 5d3c 71f0 473e
000002f0: 8b75 ae3c b0b1 673c cdf1 003e ab5d 2b3d
00000300: c0aa d9bd af36 d23b 8d01 503e 7758 4f3c
00000310: 52f5 f338 eff7 7ebc 57d3 6abe 3f48 a4bd
00000320: bcba c83d 6b0b 7f3d 833d 63bd 4dae 093d
00000330: 4d26 bd3d 602d 79bd 3213 ae3c 6b53 013d
00000340: 4791 22bd 6f05 8e3d c7c4 4a3c e516 8b3d
00000350: 88a6 b3bd 8c52 22bd 4b8a 7d3d 8a0f 3ebd
00000360: a54e 20bd 4152 443d 5d75 773d 2cc2 a9bd
00000370: a395 cfbd ca1f dabc 4b5e 2dbe 0c9a 053d
00000380: d4f8 09bd a718 18bd 6610 803d 9bb0 df3c
00000390: e73c adbd 17a3 c7bd d5d6 57bd 9b52 e43c
000003a0: d3f6 ca3d 3ca4 bbbd fbce a93d 3db9 cdbc
000003b0: 7b26 ee3d 673a 64bd a513 f1bd acf7 99bd
000003c0: 8ad6 8abd 335a cc3a 5b82 89bd adf3 3cbe
000003d0: 0d0f 583a e6dc 473d 0373 42be 8ea8 363d
000003e0: 1de3 15bd 26d3 ca3d 8daa 06bd a765 de3b
000003f0: eb9b a4bc 8b60 d03d f627 b23c d9d4 8ebd

layers.1.a f4 [128]
0.9722056 0.8272757 0.96665496 0.47962227 0.4385856 0.45584255 0.37559295 0.6602872
0.5183559 0.65465635 0.39477608 0.43332735 0.50162786 0.50606364 0.53492874 0.38132858
0.47630507 0.37761346 0.48187461 0.43965957 0.7209959 0.8183281 0.6558647 0.48707077
0.37201023 0.4567132 0.4721218 0.46518093 0.45423958 0.5625901 0.56073016 0.5093793
0.3897896 0.5884975 0.55865616 0.33457804 0.47493085 0.31542504 0.5692297 0.4940679
0.513837 0.9642504 0.5985045 0.3802792 0.51878995 0.4998707 0.49400377 0.49902573
0.6684861 0.71706194 0.5470099 0.56523097 0.6384791 0.49447796 0.68502635 0.38429132
0.51139605 0.42281967 0.5787342 0.32398692 0.37153757 0.40215626 0.43776432 0.36963198
0.45788765 0.5207421 0.46361914 0.36834055 0.64526236 0.47031638 0.5952287 0.48881897
0.21974741 0.70311135 0.47905263 0.65491635 0.5032997 0.41571942 0.7110533 0.4465521
0.5340924 0.4341711 0.5051127 0.7958617 0.5059999 0.62864846 0.3676861 0.4122553
0.53669095 0.4898739 0.52809113 0.54574645 0.39284173 0.39686722 0.41575748 0.6042625
0.5405416 0.4893055 0.54832304 0.58411026 0.62180215 0.4680458 0.3388856 0.43184242
0.47787768 0.58652705 0.52323115 0.47080752 0.42081013 0.4147377 0.47029218 0.4543212
0.59369993 0.5907338 0.48050496 -0.08076819 0.39517114 0.33187848 0.4748477 0.31984547
0.19404797 0.5456132 0.5091414 0.5262295 0.27531323 0.37280807 0.4789277 0.2663393
00000000: 77e2 783f 57c8 533f b376 773f 0d91 f53e
00000010: 4b8e e03e 3264 e93e b84d c03e 9508 293f
00000020: f9b2 043f 8f97 273f 1720 ca3e 15dd dd3e
00000030: af6a 003f 638d 013f 17f1 083f 803d c33e
00000040: 42de f33e 8d56 c13e 45b8 f63e 0f1b e13e
00000050: 3093 383f f37d 513f c0e6 273f 5761 f93e
00000060: 2078 be3e 50d6 e93e f3b9 f13e 322c ee3e
00000070: 1792 e83e e805 103f 038c 0f3f af66 023f
00000080: 8192 c73e c6a7 163f 1704 0f3f d04d ab3e
00000090: 232a f33e 647f a13e 0ab9 113f 78f6 fc3e
000000a0: d28a 033f 1dd9 763f 9737 193f f5b3 c23e
000000b0: 6bcf 043f 0def ff3e 10ee fc3e 4d80 ff3e
000000c0: e821 2b3f 5f91 373f d708 0c3f fab2 103f
000000d0: 5e73 233f 372c fd3e e35d 2f3f d5c1 c43e
000000e0: daea 023f d27b d83e ed27 143f 9de1 a53e
000000f0: 2c3a be3e 6de7 cd3e a522 e03e 6740 bd3e
00000100: 4070 ea3e 5b4f 053f 7d5f ed3e 2297 bc3e
00000110: ea2f 253f 4fcd f03e e860 183f 7b46 fa3e
00000120: 7705 613e 1bff 333f 6346 f53e 99a8 273f
00000130: 40d8 003f 2dd9 d43e 9707 363f 7aa2 e43e
00000140: 48ba 083f ad4b de3e 114f 013f 98bd 4b3f
00000150: 3689 013f 1bef 203f 5a41 bc3e 2013 d33e
00000160: 9464 093f c0d0 fa3e fb30 073f 0ab6 0b3f
00000170: 8d22 c93e 2e32 cb3e 2ade d43e f2b0 1a3f
00000180: ef60 0a3f 4086 fa3e e65e 0c3f 4088 153f
00000190: 6d2e 1f3f b3a3 ef3e 6a82 ad3e 731a dd3e
000001a0: 62ac f43e a326 163f 7af2 053f af0d f13e
000001b0: 6d74 d73e 8058 d43e 23ca f03e ca9c e83e
000001c0: b8fc 173f 553a 173f bf04 f63e cb69 a5bd
000001d0: df53 ca3e faeb a93e 3d1f f33e c9c2 a33e
000001e0: 83b4 463e 4fad 0b3f 1757 023f fab6 063f
000001f0: dbf5 8c3e b3e0 be3e 0336 f53e a05d 883e

layers.1.b f4 [128]
0.07101572 -0.1689261 0.06911806 -0.25594515 0.26508164 0.16749577 0.3006688 0.1682757
0.17632487 -0.11467504 0.24043296 0.20851004 -0.18072551 -0.2246738 0.19535922 0.17958416
-0.19577923 0.18683699 0.22879052 0.25474888 0.28147784 -0.12931272 0.1597069 -0.2254617
-0.2715741 0.19862466 0.17571019 -0.16897158 -0.20642571 0.19979374 0.23480737 0.2409774
0.18435329 0.1608722 -0.2083221 -0.26809257 0.24509747 0.1459909 -0.20636407 0.21062875
0.40645647 -0.09595362 0.1436609 0.13002905 -0.14092122 -0.17411077 0.22266617 -0.19490837
0.11303879 0.2633766 0.17677234 -0.1951817 -0.16108254 -0.19936423 0.18388043 0.20314136
-0.18719658 0.21511626 -0.15786216 0.22678594 -0.18146579 0.19827376 -0.18071203 -0.27971792
0.18761033 0.20599042 -0.20578294 0.22382765 -0.2325261 -0.22860594 -0.2033704 -0.17700882
-0.2677242 0.23119242 -0.24399018 -0.21197005 -0.21449111 -0.16440476 -0.11100276 0.26503846
0.24716197 -0.16333742 0.24467722 0.23729515 -0.22170119 -0.17755303 0.24778067 -0.16936284
0.26962134 0.25969967 0.13083981 -0.14772509 -0.18740611 0.21822608 -0.19480033 0.14875446
0.22261465 -0.3338159 -0.16752672 -0.18389478 -0.17253964 -0.15589829 0.22994033 -0.1574382
0.18486738 -0.2069036 -0.23465212 0.21560888 -0.26579133 -0.24277368 -0.20692538 -0.12586094
-0.21293502 -0.15547843 -0.33761513 0.1329243 0.2465519 0.13713405 -0.19252117 0.26553282
-0.17502974 -0.17652181 0.21898495 0.1871169 0.18565367 -0.22034319 -0.15787026 -0.14675866
00000000: b170 913d f7fa 2cbe c58d 8d3d 3e0b 83be
00000010: c8b8 873e 0384 2b3e 43f1 993e 7750 2c3e
00000020: 828e 343e bfda eabd 0f34 763e a883 553e
00000030: 1c10 39be e310 66be 3f0c 483e e9e4 373e
00000040: 5a7a 48be 3252 3f3e 1048 6a3e 726e 823e
00000050: dd1d 903e 8e6a 04be 358a 233e 6fdf 66be
00000060: c30b 8bbe 4364 4b3e 5fed 333e e306 2dbe
00000070: 4361 53be bb96 4c3e 5871 703e c8c2 763e
00000080: 1cc7 3c3e afbb 243e 6352 55be 6e43 89be
00000090: d5fa 7a3e a37e 153e 1a51 53be 10af 573e
000000a0: 101b d03e 5583 c4bd d81b 133e 5626 053e
000000b0: a74d 10be 184a 32be 9a02 643e 0f96 47be
000000c0: e280 e73d 4cd9 863e cf03 353e b6dd 47be
000000d0: d2f2 24be 2326 4cbe 274b 3c3e 4a04 503e
000000e0: 76b0 3fbe 7047 5c3e 9ea6 21be 933a 683e
000000f0: 2bd2 39be 4708 4b3e 930c 39be 3037 8fbe
00000100: ec1c 403e 27ef 523e c3b8 52be 1333 653e
00000110: 521b 6ebe ad17 6abe 5540 50be cd41 35be
00000120: 2513 89be b5bd 6c3e 90d8 79be ad0e 59be
00000130: 8fa3 5bbe b959 28be 6a55 e3bd 1fb3 873e
00000140: 0718 7d3e ed41 27be aa8c 7a3e 80fd 723e
00000150: a305 63be 76d0 35be 37ba 7d3e 746d 2dbe
00000160: cf0b 8a3e 5bf7 843e dffa 053e 3f45 17be
00000170: 63e7 3fbe a876 5f3e bd79 47be 1753 183e
00000180: 18f5 633e ebe9 aabe 208c 2bbe ea4e 3cbe
00000190: 3bae 30be cda3 1fbe 7a75 6b3e 7b37 21be
000001a0: e04d 3d3e 8ade 53be a548 70be 93c8 5c3e
000001b0: cd15 88be aa99 78be 3fe4 53be b1e1 00be
000001c0: a30b 5abe bd35 1fbe e4db acbe 4f1d 083e
000001d0: 1a78 7c3e de6c 0c3e 4524 45be ebf3 873e
000001e0: ff3a 33be 22c2 34be 973d 603e 939b 3f3e
000001f0: ff1b 3e3e a5a1 61be bea8 21be e747 16be

layers.1.c f4 [128]
-0.10655787 0.1877182 -0.15513645 -0.15692768 -0.12352742 -0.23553835 -0.13796306 -0.17198263
-0.21688755 0.2466696 0.15217367 -0.192718 0.20819764 0.17904846 0.20829614 0.18362357
-0.1881511 -0.19712779 -0.16178559 0.13846387 0.26306516 -0.15051237 0.19150583 0.15596096
0.13190949 -0.1840112 0.18721233 -0.22146149 0.22166894 0.23497055 0.13105763 0.14028096
-0.1809361 -0.15921162 0.19546115 -0.17802541 0.1610999 0.24674273 0.22986424 -0.20421448
0.31796178 0.058160216 -0.30553073 -0.30135316 0.31486434 0.20035648 0.1756643 0.28902483
-0.2690671 0.16670382 -0.19305484 0.1788935 -0.20371048 0.19723871 -0.17215495 0.2219687
-0.24171884 0.15644738 0.18934011 0.14791656 0.23116377 -0.16455287 0.2095896 0.15539387
0.17771402 -0.2404414 -0.15848437 -0.17480843 -0.12607442 0.14057063 -0.18955846 -0.18292022
0.12609269 -0.12140258 -0.13700019 0.19077721 -0.16156681 0.2007895 -0.2472742 0.14040136
0.15042849 0.24296479 0.14964834 -0.25110242 -0.16801846 -0.2199893 -0.14823101 0.19954067
-0.1488565 -0.17383645 -0.29302853 0.2135421 0.22198991 0.17332733 0.20265725 -0.257327
0.2180835 0.11769573 -0.25716922 0.17571156 -0.23019719 -0.21093383 -0.15377091 -0.23443727
0.26592335 -0.18753026 0.14923738 0.19380943 -0.12985842 -0.15320687 0.14528087 -0.3238305
0.16137902 0.21804054 -0.12248609 0.22537456 -0.18264459 0.30587855 0.17857909 0.34902188
0.17673138 -0.164272 0.15849455 0.22628458 -0.22185579 0.14765985 -0.23886435 -0.23766108
00000000: 033b dabd 3339 403e 17dc 1ebe a6b1 20be
00000010: f2fb fcbd f730 71be 3046 0dbe 371c 30be
00000020: c517 5ebe f596 7c3e 6ad3 1b3e de57 45be
00000030: c331 553e 7b58 373e 954b 553e d107 3c3e
00000040: afaa 40be dedb 49be 1fab 25be 79c9 0d3e
00000050: 7ab0 863e ea1f 1abe 1b1a 443e 3bb4 1f3e
00000060: 4813 073e 6f6d 3cbe 97b4 3f3e cdc6 62be
00000070: 2ffd 623e 1f9c 703e f933 063e d0a5 0f3e
00000080: 5047 39be 5f08 23be f826 483e 4b4c 36be
00000090: 5ff7 243e 20aa 7c3e 8861 6b3e 9a1d 51be
000000a0: e3cb a23e 6839 6e3d 866e 9cbe f64a 9abe
000000b0: e635 a13e 402a 4d3e 58e1 333e 10fb 933e
000000c0: 2ac3 89be 68b4 2a3e 2bb0 45be dc2f 373e
000000d0: 7b99 50be f2f8 493e 6349 30be c34b 633e
000000e0: 2585 77be be33 203e 60e2 413e 7077 173e
000000f0: 32b6 6c3e 8c80 28be a89e 563e 921f 1f3e
00000100: aafa 353e 4536 76be ba49 22be fb00 33be
00000110: a719 01be bff1 0f3e 9d1b 42be 704f 3bbe
00000120: 711e 013e eaa1 f8bd c749 0cbe 1a5b 433e
00000130: c571 25be c39b 4d3e 7335 7dbe 60c5 0f3e
00000140: ed09 1a3e c3cb 783e 6a3d 193e 7f90 80be
00000150: 080d 2cbe e044 61be dfc9 17be 6454 4c3e
00000160: d76d 18be 2f02 32be d607 96be c8aa 5a3e
00000170: 5351 633e b87c 313e 6285 4f3e 5dc0 83be
00000180: 4851 5f3e 750a f13d afab 83be bbed 333e
00000190: d0b8 6bbe 0aff 57be 1f76 1dbe 5310 70be
000001a0: 1b27 883e ef07 40be afd1 183e fb75 463e
000001b0: 9bf9 04be 43e2 1cbe 82c4 143e 1ccd a5be
000001c0: 8b40 253e 0546 5f3e fdd9 fabd 97c8 663e
000001d0: 2f07 3bbe 1d9c 9c3e 70dd 363e ffb2 b23e
000001e0: 12f9 343e eb36 28be 654c 223e 25b7 673e
000001f0: 2a2e 63be 2534 173e db98 74be 6d5d 73be

layers.1.out_bias f4 [128]
0.017585468 -0.0018467949 0.027255878 -0.010732644 -0.0061705005 0.01706402 -0.0067090164 0.0017092876
-0.010656878 0.005932876 6.479239e-05 -0.015668008 0.0055668554 0.010578082 0.012153166 0.0029288381
-0.01244489 -0.011579072 -0.008914408 -0.015754366 0.03880722 0.010920531 0.0036502574 0.0043759374
0.015281655 0.0031929796 -0.005186905 0.0043793814 0.01841683 -0.0068096328 0.00086099067 -0.004100851
-0.003653446 0.0012131525 -0.0059476034 -0.021159846 -0.005676811 -0.0079790745 -0.012657848 0.013203924
0.067420386 0.005731518 0.026579937 0.005158484 0.008543062 -0.006318132 -0.010203862 0.020892024
0.012117169 -0.005893897 0.0045663333 0.0069678226 -0.0026103992 -0.00400574 0.0073435702 -0.012670814
0.01299879 -0.013887703 -0.003699423 0.00043823547 0.011044333 -0.0061581614 -0.00652686 -0.012103341
0.0036684216 0.0039739697 0.00027199776 0.010856616 0.006082624 0.0018165574 0.010695408 -0.011362982
-0.013351634 0.0075403946 0.00023132123 0.024458123 -0.005125898 0.00012359009 0.00626833 -0.006003051
-0.005459751 -0.0048268693 -0.00047108933 0.18232022 0.004312523 0.02770018 0.0005499191 0.0022538328
-0.006980906 0.010124763 0.0040123314 0.0040565836 0.0060860994 -0.012299812 -0.0033850812 -0.00808637
0.012575361 -0.007188249 0.0058170697 0.005393683 0.010814409 -0.008556902 -0.0032429367 0.011083666
0.014411703 -0.005689736 0.0062983367 0.006729219 -0.0123098735 -0.0017266741 -0.0026689412 0.0059738806
0.0018460666 -0.012077023 -0.016882168 0.006128719 -1.0563516e-05 -0.0095674135 -0.00012173086 0.034734633
0.016404312 -0.00069484796 -0.015051019 -0.0032640826 -0.007922106 -0.0031086348 0.0024514683 -0.0013740357
00000000: 660f 903c 2710 f2ba b847 df3c f9d7 2fbc
00000010: e931 cabb d8c9 8b3c 4fd7 dbbb 2d0a e03a
00000020: 309a 2ebc 9268 c23b 26e1 8738 325a 80bc
00000030: 2b6a b63b b14f 2d3c 131e 473c c0f1 3f3b
00000040: a7e5 4bbc 26b6 3dbc bd0d 12bc 4d0f 81bc
00000050: 52f4 1e3d 07ec 323c 2839 6f3b 0664 8f3b
00000060: e85f 7a3c 4f41 513b eaf6 a9bb ea80 8f3b
00000070: e4de 963c 5723 dfbb 1bb4 613a 6e60 86bb
00000080: a76e 6fbb a502 9f3a 1de4 c2bb 6a57 adbc
00000090: 8b04 babb aaba 02bc dd62 4fbc 4555 583c
000000a0: b313 8a3d 75cf bb3b 2bbe d93c 8008 a93b
000000b0: 33f8 0b3c 5508 cfbb 192e 27bc c025 ab3c
000000c0: 1787 463c 9721 c1bb 2ea1 953b 5552 e43b
000000d0: 3b13 2bbb 9542 83bb 55a2 f03b 3f99 4fbc
000000e0: e0f8 543c 4089 63bc 0572 72bb f8c2 e539
000000f0: 4af3 343c 67ca c9bb 45df d5bb 174d 46bc
00000100: e769 703b 1338 823b ec9a 8e39 f3df 313c
00000110: c050 c73b 8d19 ee3a cb3b 2f3c cd2b 3abc
00000120: d0c0 5abc 6a15 f73b d28e 7239 675c c83c
00000130: 26f7 a7bb f697 0139 9066 cd3b 3eb5 c4bb
00000140: b6e7 b2bb b72a 9ebb 8afc f6b9 27b2 3a3e
00000150: 1150 8d3b 7deb e23c 7228 103a 0ab5 133b
00000160: 15c0 e4bb 55e2 253c e079 833b 17ed 843b
00000170: e76d c73b 2785 49bc 3dd8 5dbb b27c 04bc
00000180: e308 4e3c 678b ebbb 1e9d be3b 7ebd b03b
00000190: eb2e 313c 4032 0cbc 7387 54bb 4498 353c
000001a0: 101f 6c3c f770 babb 4762 ce3b c880 dc3b
000001b0: 5aaf 49bc 9251 e2ba 67e9 2ebb 8bc0 c33b
000001c0: b7f7 f13a b5de 45bc 794c 8abc 6cd3 c83b
000001d0: f539 31b7 a4c0 1cbc c249 ffb8 e745 0e3d
000001e0: 5662 863c 7526 36ba 8d98 76bc 38ea 55bb
000001f0: b9cb 01bc 3dba 4bbb d0a8 203b fd18 b4ba
