diag-ssm-charlm/experiments/tiny/epoch_097_valppl_6.08_valacc_0.5067.pt (torch, 236577 bytes, 19 tensors)

emb.weight f4 [74, 64]
0	0x3f3926e0	0.72324944
1	0x3f79a12d	0.9751156
2	0xbfaa9295	-1.3325983
3	0xbf1f3614	-0.6219189
4	0xbf482288	-0.7817769
5	0xbf8f242f	-1.1182917
6	0x3f915fc4	1.135735
7	0xbe98aa84	-0.29817593
8	0x3e012fc4	0.12615877
9	0xbef9bc18	-0.48776317
10	0x3f4ad172	0.7922584
11	0x402387c5	2.5551617
12	0x3f8b64f6	1.0890186
13	0xbe736df6	-0.23772416
14	0x3ebdee54	0.37095892
15	0x3f6c3053	0.92261237
16	0xbe0efe71	-0.13964249
17	0x3dac53e4	0.08414438
18	0xbcab4486	-0.020906698
19	0xbf6cb82b	-0.9246852
20	0xbf5eb0c0	-0.8698845
21	0xbf22450d	-0.63386613
22	0x3f63a47c	0.8892286
23	0x3fbe2e57	1.4857892
24	0x3e9114ab	0.2833608
25	0x3f15b4b3	0.5847885
26	0xbd0c553e	-0.03426098
27	0xbf91e76a	-1.1398747
28	0x3e384bd1	0.17997672
29	0x3eb06d48	0.34458375
30	0x3e63f91b	0.22262995
31	0x3fb0adc5	1.380303
32	0xbf8a9fd4	-1.0830026
33	0xc01136fe	-2.2689815
34	0x3e4152ca	0.18879238
35	0x3e585fd2	0.21130303
36	0x3f9e76ca	1.2380002
37	0xbf3dd7de	-0.7415751
38	0xbe826864	-0.2547027
39	0xbf4cd54f	-0.80012983
40	0x3e9526ea	0.29131252
41	0xbea3a6fe	-0.31963342
42	0x3f79a266	0.97513425
43	0xbed50bcc	-0.41610563
44	0xbe10979b	-0.14120333
45	0x3fc65c5e	1.5496938
46	0xbe985fe8	-0.2976067
47	0x3dea993f	0.114550106
48	0xbe9b2af2	-0.30306202
49	0x3fe0c56b	1.7560247
50	0xbf4acaf2	-0.7921592
51	0x3e229605	0.1587754
52	0xbf08c18a	-0.5342032
53	0x3ece9d03	0.40354165
54	0x3f4436a4	0.76645875
55	0x3f3da087	0.7407307
56	0x3e19162f	0.14949869
57	0x3f26ffd7	0.6523413
58	0x3f629296	0.8850492
59	0xbf385e36	-0.72018754
60	0x3f39e805	0.7261966
61	0xbf19df6b	-0.60106534
62	0xbf221feb	-0.6332995
63	0x3fd1fca9	1.6405231
64	0x3edc891d	0.4307336
65	0xbedfe088	-0.4372599
66	0x3eef81cf	0.46778724
67	0x3da6ea4c	0.08150157
68	0xbe0e7303	-0.13911061
69	0x4006441d	2.0979073
70	0xbed72d36	-0.4202668
71	0xbfab25c4	-1.33709
72	0xbe401c58	-0.18760812
73	0x3fe7f7be	1.812248
74	0x3f97c20a	1.1856091
75	0xbeb7a164	-0.3586532
76	0xbe9672ee	-0.2938456
77	0xbf2a55c8	-0.6653714
78	0x3f1ab4d4	0.6043217
79	0xbf9e6ada	-1.2376359
80	0xbdf1f857	-0.11814945
81	0xbf0b3541	-0.54378134
82	0xbf173453	-0.59064215
83	0x3e3e080f	0.18557762
84	0x3f12f3e8	0.5740342
85	0x3f8cc5e6	1.0997894
86	0xbf96c51c	-1.1778903
87	0x3e9a6837	0.30157635
88	0x3dafa5ac	0.08576521
89	0xbec70460	-0.38870525
90	0xbeca8f72	-0.39562565
91	0x3e0ebc20	0.13938951
92	0x3ec11e4e	0.37718433
93	0xbcbd8d41	-0.023138644
94	0xbf502f54	-0.81322217
95	0x3fa6657e	1.2999723
96	0x3ea93ce3	0.33054265
97	0x3ec3aaf2	0.38216358
98	0x3f83d924	1.0300641
99	0x3e91a6c0	0.28447533
100	0x3ed5c372	0.41750675
101	0xbf31625f	-0.6929073
102	0x3d49044a	0.049076356
103	0x3f2300ef	0.636733
104	0x3fcfe086	1.6240394
105	0x3eba00cf	0.36328742
106	0x3fa49b1a	1.2859833
107	0xbf240fe2	-0.64086735
108	0x3f3dd1b2	0.74148095
109	0x3dd11050	0.102081895
110	0x3f8602a0	1.0469551
111	0xbf3aea7f	-0.7301406
112	0x3e699842	0.22811988
113	0x3f710b47	0.9415783
114	0xbeb203f7	-0.3476865
115	0x3fcf063a	1.6173775
116	0xbe3e1dbd	-0.18566032
117	0xbeb5703d	-0.35437194
118	0xbe538133	-0.20654754
119	0x3fbf626d	1.4951912
120	0xbfd080a6	-1.628926
121	0x3f563341	0.8367196
122	0x3f300266	0.6875366
123	0xbfbdf9e7	-1.4841889
124	0xbfa144fd	-1.2599179
125	0xbec70c2c	-0.38876474
126	0xbfd620af	-1.6728724
127	0x3ec7bc0d	0.3901066
128	0xbf4b81f1	-0.7949515
129	0xbe4c2f2c	-0.1993987
130	0x3f7bd760	0.9837551
131	0x3d887f61	0.066649206
132	0x3fc0842b	1.5040334
133	0xbe519667	-0.2046753
134	0x3edad466	0.42740172
135	0x3d51b5d5	0.0511988
136	0xbe22f22f	-0.15912698
137	0xbbcd34fa	-0.006262419
138	0x3db6fba4	0.089347154
139	0x3f5fde21	0.87448317
140	0xbfa47ab9	-1.2849952
141	0x3eeee99c	0.46662605
142	0xbf46c3f3	-0.77642745
143	0xbed48077	-0.4150426
144	0x3ea1faef	0.3163676
145	0xbee70c69	-0.45126656
146	0x400b4cc6	2.1765609
147	0xbedc5d2a	-0.4303983
148	0xc00a8269	-2.1642096
149	0x3fc05b33	1.5027832
150	0x3ea4fdc1	0.3222485
151	0x3edc7a96	0.43062276
152	0xbf8c5415	-1.096316
153	0x39753828	0.0002338594
154	0xbf7a571d	-0.97789174
155	0x3f3aaab9	0.7291675
156	0x3e9cc6e0	0.3062048
157	0xbed3ce6c	-0.41368425
158	0x3e4a14dc	0.1973452
159	0xbfb7210a	-1.4306958
160	0xbfa36790	-1.276598
161	0x3ee3adee	0.44468635
162	0x3efe0031	0.4960952
163	0x3f67bdb8	0.9052386
164	0xbf428e1d	-0.759981
165	0xbfd7ee24	-1.686955
166	0x3f0a5285	0.54032165
167	0x3de1e392	0.11029734
168	0x3deebce4	0.11657122
169	0xbf969000	-1.1762695
170	0xbffd89cc	-1.9807677
171	0x3f1d06b3	0.6133835
172	0xc007e27f	-2.1231992
173	0x3f13a733	0.57677
174	0x3f8d951f	1.1061133
175	0xbed1d75d	-0.40984622
176	0xbfd97da6	-1.699147
177	0xbb1930c8	-0.0023375023
178	0xbdb154a3	-0.08658721
179	0xbf299c58	-0.66254187
180	0xbfa15578	-1.2604208
181	0xbf8547fd	-1.0412594
182	0xbff92612	-1.9464743
183	0xbeac52b7	-0.33656856
184	0x3d037953	0.032098126
185	0x3df8a1dd	0.12140248
186	0x3e098e10	0.13433099
187	0xbf585b9b	-0.8451478
188	0x3f28b7c9	0.65905434
189	0xbeb420aa	-0.3518117
190	0xbfde5a6d	-1.7371346
191	0xbecf50bf	-0.40491292
192	0xbf853026	-1.0405319
193	0xbfcff1d0	-1.624567
194	0x3f1aebaf	0.60515875
195	0x3f074d4f	0.5285234
196	0xbf4edd38	-0.80806303
197	0xbff76fba	-1.9330971
198	0x3f220900	0.6329498
199	0xbf55b9f3	-0.8348686
200	0xbfb06896	-1.3781917
201	0x3f83b0f3	1.0288376
202	0x3fa3aed9	1.2787734
203	0x3fd1ef2a	1.6401112
204	0xbeaf94e9	-0.34293297
205	0x400f0c31	2.235119
206	0xbf56d9fc	-0.8392637
207	0x3f467020	0.7751484
208	0x40239049	2.5556815
209	0x3fb31edb	1.3993791
210	0x3deb1ab6	0.11479704
211	0x3feeb6e8	1.8649569
212	0xbee36fe8	-0.44421315
213	0xbfeaddff	-1.8348998
214	0x3f7df9fc	0.9920957
215	0x3f3d4e19	0.7394729
216	0xbed61951	-0.4181619
217	0xc0499618	-3.149786
218	0xbf33077b	-0.6993329
219	0xbebd528d	-0.36977044
220	0x40292651	2.6429636
221	0xbfb53f43	-1.4159931
222	0xbfb982d1	-1.4493047
223	0xc02abaf6	-2.6676612
224	0x3fd422eb	1.6573156
225	0xbfc5f9b1	-1.5466825
226	0x3ec75eca	0.38939506
227	0x3f1faa6e	0.6236943
228	0xbd7e416a	-0.062074102
229	0x3ec4d9af	0.3844733
230	0x3fff1cf1	1.9930707
231	0x40090e98	2.1415157
232	0x40443605	3.065797
233	0xbf423213	-0.7585766
234	0x3fcf8204	1.6211553
235	0x40056621	2.0843585
236	0xbeabf7fd	-0.33587638
237	0xc03fd92b	-2.99763
238	0x4012d839	2.2944472
239	0xbf93f3e9	-1.155881
240	0xbe4d087a	-0.20022765
241	0x40674fbf	3.6142423
242	0xbfc92616	-1.5714748
243	0x3ec28a6c	0.37996233
244	0xbf8b3fce	-1.0878847
245	0x3feda983	1.8567356
246	0x3f9b6700	1.2140808
247	0xc042114f	-3.0323064
248	0xbe23d05f	-0.15997456
249	0x3c4b5262	0.012409778
250	0x3ed3a867	0.41339418
251	0xbf869a9e	-1.0515935
252	0x3f5ea2c4	0.8696711
253	0xbf5d0e18	-0.8634963
254	0x3f8ac1c6	1.0840385
255	0xbfe771ba	-1.8081582

input_proj.weight f4 [128, 64]
0	0x3cff566a	0.031169135
1	0xbdd5fafa	-0.104482606
2	0x3c49d66c	0.012319189
3	0xbd94396d	-0.072375156
4	0xbce0624c	-0.027390622
5	0x3e063043	0.13104348
6	0xbd732e71	-0.05937046
7	0x3dcdb64b	0.10044535
8	0x3da9c275	0.08289043
9	0x3d835bec	0.06414017
10	0x3e0fc0a4	0.1403833
11	0xbde31505	-0.110879935
12	0x3d3aa56b	0.04556791
13	0x3c31c4c2	0.010850133
14	0xbdccc1a3	-0.09997871
15	0xbd02ea30	-0.03196162
16	0x3bded4f0	0.0068002865
17	0x3cc233e9	0.023706393
18	0xbdb086e1	-0.08619476
19	0x3dc7ad3f	0.09749841
20	0xbd1e67e4	-0.038673297
21	0xbc411052	-0.011783676
22	0xbce39cdd	-0.02778476
23	0xbddac9ef	-0.10683047
24	0x3d081b50	0.033229172
25	0xbcf623a7	-0.030046297
26	0xbd4a687e	-0.049416058
27	0xbcffc844	-0.031223424
28	0x3c9307a1	0.017947974
29	0x3d1fe6a6	0.039038323
30	0xbe18dabf	-0.14927195
31	0x3cd3ca28	0.025853232
32	0xbdf41642	-0.11918308
33	0xbc6b0cb7	-0.014346293
34	0xbbf77844	-0.0075521786
35	0xbddf6b56	-0.109091446
36	0xbe100614	-0.14064819
37	0x3c939371	0.018014641
38	0x3cb2b2c6	0.021813761
39	0x3e07d68a	0.13265434
40	0x3d831736	0.064009115
41	0x3d8ecf78	0.06973165
42	0xbd3e7cc5	-0.04650571
43	0x3d747043	0.059677374
44	0x3dba3374	0.09091845
45	0xbdf23675	-0.11826793
46	0xbd3bbcd7	-0.04583439
47	0xbd8ec5c0	-0.069713116
48	0xbd414b55	-0.047190983
49	0xbd22faf1	-0.039790098
50	0x3d353b78	0.044246167
51	0xbaedffc0	-0.0018157884
52	0xbd21447e	-0.03937196
53	0xbd3a7713	-0.045523714
54	0x3c97e0f0	0.018539876
55	0xbc0769b3	-0.008264947
56	0xbdf53df4	-0.11974707
57	0xbe21126b	-0.15729682
58	0x3c8d695c	0.017262153
59	0xbdf67eaf	-0.12035882
60	0x3df2fd04	0.11864665
61	0xbde6c53f	-0.112680905
62	0x3d976f68	0.07394296
63	0xbdbe1ddb	-0.09283038
64	0x3a8fd204	0.0010972624
65	0x3ca35514	0.01993803
66	0xba48da61	-0.00076619355
67	0x3cb3bab4	0.021939613
68	0xbc48db6f	-0.012259348
69	0x3e30d944	0.1727038
70	0xbe2fee3f	-0.17180727
71	0xbdf0d0d7	-0.11758583
72	0xbd6846da	-0.056708194
73	0x3d36ae8e	0.044600062
74	0x3caacb1f	0.020848809
75	0xbd0e1f47	-0.034697797
76	0x3d93913b	0.07205435
77	0x3dc0b1ae	0.0940889
78	0x3e0ade67	0.13561402
79	0xbdf5fcae	-0.120110855
80	0x3de24198	0.11047667
81	0x3c6c8d4d	0.014437986
82	0xbd3b8536	-0.045781337
83	0xbd076829	-0.03305832
84	0xbd196202	-0.037446983
85	0xbd38b4da	-0.04509435
86	0x3bcaffaa	0.0061950283
87	0xbd439d26	-0.04775729
88	0x3d67a5f2	0.056554742
89	0x3d51f858	0.05126223
90	0x3ccc6253	0.024949228
91	0xbc374308	-0.011185415
92	0x3e039a99	0.12851943
93	0x3df358d3	0.11882176
94	0xb99ae6f8	-0.00029545254
95	0x3dc1856c	0.09449276
96	0xbcba79b9	-0.02276312
97	0xbd537230	-0.05162257
98	0x3dca0b3d	0.09865425
99	0x3b81bfc3	0.0039596274
100	0xbdfc764a	-0.12327249
101	0xbc054e08	-0.00813628
102	0x3cd9d8d5	0.026592651
103	0xbdd71e47	-0.10503822
104	0x3bfa653a	0.0076414617
105	0xbc8169e7	-0.015797568
106	0x3b9bf77e	0.004759728
107	0xbc81729c	-0.01580172
108	0x3c27012b	0.01019315
109	0xbe0270f7	-0.12738405
110	0x3d39a721	0.045325402
111	0x3d8f0f82	0.0698538
112	0xbc71e37d	-0.01476371
113	0xbe11d79e	-0.14242408
114	0xbd98376f	-0.07432448
115	0x3d411f1e	0.047148816
116	0xbceb8381	-0.02874923
117	0xbda0992c	-0.07841715
118	0x3af4fa9c	0.001869041
119	0xbb504527	-0.00317795
120	0xbceff7fc	-0.029293053
121	0xbdb745d5	-0.08948866
122	0xbd10ddda	-0.035367824
123	0xbce461e2	-0.027878705
124	0x3cb9538b	0.022622844
125	0x3d579e38	0.052641124
126	0x3d9da8ff	0.07698249
127	0x3cada130	0.021195024
128	0x3e2d408e	0.16919157
129	0x3d46c01a	0.048523046
130	0x3a62e902	0.00086559367
131	0xb9a29cfd	-0.00031016013
132	0x3dfe3b5c	0.12413666
133	0xbd8e0b2c	-0.069357246
134	0xbd4b654a	-0.049657144
135	0xbc205c42	-0.009787621
136	0xbdb62ace	-0.08894883
137	0x3bf8ccea	0.007592787
138	0xbd105da5	-0.035245556
139	0xbcfaa901	-0.030598165
140	0xbe393478	-0.18086421
141	0x3dce349a	0.10068627
142	0xbce157fd	-0.027507776
143	0xbced20a9	-0.028946238
144	0x3e1e7883	0.15475659
145	0xbd6df981	-0.058099274
146	0x3dcd16c8	0.10014111
147	0xbd004c1a	-0.031322576
148	0xbca477c9	-0.02007665
149	0x3c81bae3	0.015836185
150	0xbd94f3b6	-0.07273047
151	0x3c6451ce	0.013935519
152	0x3d6a04f6	0.057133637
153	0x3cc0a937	0.023518188
154	0xbd1737ea	-0.03691856
155	0x3d39499c	0.045236215
156	0x3ddc7d62	0.107661024
157	0xbcac13bd	-0.021005506
158	0xbce0a8be	-0.027424213
159	0xbdb632f5	-0.08896438
160	0x3c4f9bcf	0.012671425
161	0xbd2a1f9b	-0.041534048
162	0x3d8eb392	0.06967844
163	0x3e027c9f	0.12742852
164	0xbd6ad534	-0.057332233
165	0xbbd43891	-0.00647647
166	0x3d582f60	0.052779555
167	0x3de41a60	0.11137843
168	0xbc4b0336	-0.012390902
169	0xbd10623c	-0.035249934
170	0x3d095c33	0.033535194
171	0x3d16e757	0.036841717
172	0x3c6f82da	0.0146186
173	0xbd253235	-0.040331084
174	0x3df059eb	0.117359005
175	0xbc2a1e04	-0.010383133
176	0xbe0111e3	-0.1260448
177	0xbcee0b01	-0.029057981
178	0x3d05270d	0.032507945
179	0x3c8d0575	0.017214516
180	0xbd1836e2	-0.037161715
181	0x3c1a6b0a	0.009424934
182	0xbd491785	-0.049094696
183	0x3db454dd	0.08805249
184	0x3c751e92	0.014960902
185	0x3d5f6255	0.054537136
186	0xbcb133a0	-0.021631062
187	0xbd0d0dc0	-0.03443694
188	0x3cd5e28c	0.026109003
189	0xbc32d3ca	-0.010914752
190	0xbd845b86	-0.06462769
191	0xbc2c468d	-0.0105148675
192	0xbd2a6210	-0.041597426
193	0xbd719323	-0.05897821
194	0x3c5c77e6	0.01345632
195	0x3d291bef	0.041286405
196	0x3d018489	0.031620536
197	0xbd744fdc	-0.059646472
198	0xbcfcfdd8	-0.03088276
199	0x3c349908	0.011022814
200	0x3d86133a	0.06546636
201	0xbce9996f	-0.028515546
202	0x3db9b21d	0.090671755
203	0x3d13fc0f	0.036129054
204	0xbc50a7b0	-0.012735292
205	0x3dca946d	0.09891591
206	0xbcb26953	-0.021778738
207	0x3c5d3146	0.013500517
208	0xbaad349d	-0.0013214533
209	0xbdce3077	-0.10067838
210	0x3982a200	0.00024916232
211	0xbb264ddc	-0.0025375998
212	0xbcc0ba6e	-0.023526397
213	0xbcfc0b7d	-0.030767197
214	0x3cafa9ef	0.021443335
215	0xbd1915d6	-0.03737434
216	0x3d415654	0.04720147
217	0xbd1ac054	-0.037781075
218	0xbbb1d92c	-0.0054275002
219	0x3cb8f194	0.02257613
220	0x3c633a4c	0.0138688795
221	0xbd42bccd	-0.047543336
222	0xbbcfb2b4	-0.0063384417
223	0x3c4b1ae0	0.012396544
224	0xbd9cf1fc	-0.07663342
225	0xbd749ddb	-0.059720855
226	0x3d3a2ab4	0.04545088
227	0x3cb5b3cb	0.022180459
228	0xbd941c49	-0.072319575
229	0xba91a13c	-0.0011110674
230	0xbc5ae539	-0.013360315
231	0xbda49fa4	-0.080382615
232	0x3c9d8358	0.019227669
233	0x3c50106f	0.012699231
234	0x3d333fb7	0.043761935
235	0xbd9e5654	-0.077313095
236	0xbd0582f0	-0.032595575
237	0x3d5a272a	0.053260006
238	0x3d53002f	0.051513847
239	0x3c97a86e	0.01851293
240	0x3ca17c03	0.019712454
241	0xbbf80aa5	-0.0075696283
242	0xbd10a9bc	-0.03531812
243	0xbcbbb779	-0.022914635
244	0xbd4729f3	-0.04862399
245	0x3d0c80b1	0.034302417
246	0x3cb2caa9	0.021825152
247	0xbc81661a	-0.015795756
248	0xbbe77900	-0.007063985
249	0x3b99cc1c	0.004693521
250	0xbd05bbd6	-0.032649837
251	0x3cd3c5f3	0.025851225
252	0xbd2041df	-0.03912532
253	0x3c78d82e	0.01518826
254	0x3d318102	0.043335922
255	0x3d04c927	0.032418396

input_proj.bias f4 [128]
0	0xbd32a5c8	-0.043615133
1	0x3e1d4e12	0.15361813
2	0xbd202392	-0.039096422
3	0xbc5740c9	-0.013138005
4	0x3be1826a	0.0068820016
5	0xbde5cf0c	-0.11221132
6	0x3c355469	0.011067488
7	0x3de3d750	0.11125052
8	0x3b213b81	0.0024602117
9	0xbd0104a3	-0.031498563
10	0xbc1fb10b	-0.0097468
11	0xbd9dde60	-0.0770843
12	0x3d29ff39	0.041503165
13	0x3ce72448	0.028215542
14	0x3dd720e7	0.105043225
15	0x3d4ead3c	0.050458178
16	0xbcf34ba0	-0.029699147
17	0xbc8c3ab2	-0.017117832
18	0x3dc6a307	0.09699064
19	0xbd2d7d68	-0.042355925
20	0x3cce1f58	0.02516143
21	0xbd587f54	-0.052855805
22	0xbd745378	-0.059649915
23	0xbc11bdf7	-0.008895389
24	0xbe084009	-0.13305677
25	0x3d7fda6c	0.062464163
26	0xbd3705d4	-0.044683293
27	0xbc359513	-0.011082905
28	0xbd2d32ba	-0.042284705
29	0xbd78cf57	-0.06074461
30	0x3b44a7a2	0.0030007144
31	0xbd06bd13	-0.03289516
32	0xbe122f44	-0.14275843
33	0x3d4b5016	0.049636923
34	0xbcc60893	-0.02417401
35	0xbd9caab6	-0.07649748
36	0xbe13dda9	-0.14440025
37	0x3d360f4d	0.044448186
38	0xbd0ce9a6	-0.034402512
39	0x3dd42c07	0.1035996
40	0xbdf241a9	-0.1182893
41	0xbc3ee947	-0.011652297
42	0x3daf6281	0.0856371
43	0xbd905df6	-0.070491716
44	0x3da097f9	0.078414865
45	0xbd887880	-0.066636086
46	0xbdec860e	-0.115490064
47	0x3dc9cb97	0.09853285
48	0x3e2fc8e2	0.17166474
49	0xbc39ac85	-0.011332636
50	0xbdbba25f	-0.09161829
51	0xbd946c3b	-0.07247206
52	0x3dec3e7b	0.11535355
53	0xbb37d883	-0.0028052635
54	0xbe64a5e0	-0.22328901
55	0x3d033514	0.03203304
56	0xbdd2522d	-0.1026958
57	0xbdb01a80	-0.085988045
58	0x3e45d78f	0.1932051
59	0xbdc9b171	-0.098482974
60	0xbdbe1fa3	-0.09283378
61	0xbd87b10e	-0.066255674
62	0x3ddcce8e	0.10781585
63	0x3dd80d7f	0.10549449
64	0xbe2ad367	-0.16682206
65	0x3d715a26	0.058923863
66	0xbd507f6d	-0.050902773
67	0x3e062d23	0.13103156
68	0xbd010990	-0.03150326
69	0x3c2b573c	0.01045781
70	0x3cb04171	0.02151558
71	0x3cf946ac	0.030429207
72	0xbe5c6c9e	-0.21525809
73	0x3e09a555	0.13441975
74	0xbde22f51	-0.11044181
75	0x3d4e891c	0.050423726
76	0x3cd73bee	0.026273694
77	0xbd7e1459	-0.062031124
78	0x3e6efd6f	0.23338865
79	0x3c9fd5a5	0.019511053
80	0xbdb78a12	-0.08961882
81	0xbde511c3	-0.111850284
82	0x3c9aff5f	0.018920599
83	0x3e22ed01	0.15910722
84	0x3d4ed43e	0.05049538
85	0x3d6827e8	0.056678683
86	0xbe1bd5fb	-0.15218346
87	0x3d7439b6	0.05962535
88	0x38e95665	0.00011126398
89	0x3de340a1	0.11096311
90	0x3c917ae3	0.017758792
91	0x3d398308	0.045290977
92	0xbd825d3f	-0.063654415
93	0xbdb3c8da	-0.08778544
94	0xbe27d740	-0.16390705
95	0xbdb15658	-0.08659047
96	0x3c15b493	0.0091372905
97	0xbaa0b99d	-0.0012262348
98	0x3b859816	0.004076968
99	0xbdce81c4	-0.100833446
100	0x3c67608f	0.014122142
101	0xbda36cb3	-0.07979717
102	0xbe28b324	-0.16474587
103	0xbced4a50	-0.028966099
104	0x3ce60650	0.028079182
105	0xbd3f26dd	-0.046667922
106	0xbdd63ad5	-0.1046044
107	0xbd67834a	-0.05652169
108	0xbdb4b130	-0.08822858
109	0xbdfe98b6	-0.12431471
110	0xbc3021dc	-0.01075026
111	0x3e06ad81	0.13152124
112	0x3d008458	0.031376213
113	0xbda0e091	-0.07855333
114	0x3d011819	0.031517122
115	0x3c50b462	0.012738319
116	0xbc50060b	-0.012696753
117	0xbe4c4245	-0.19947155
118	0x3e33951c	0.1753735
119	0x3d8bc6b1	0.06825007
120	0xbd56d34e	-0.05244761
121	0xbdcd6702	-0.10029413
122	0xbdbd881c	-0.092544764
123	0xbd967879	-0.07347197
124	0xbdcf12f1	-0.10111035
125	0xbd2f6e49	-0.042829785
126	0xbde39bcf	-0.111137025
127	0xbdba419c	-0.09094545

layers.0.a f4 [128]
0	0x3f1024ea	0.56306326
1	0x3f0f82cc	0.56058955
2	0x3f1d1725	0.6136344
3	0x3f2aaf1a	0.66673434
4	0x3f0ee7d3	0.55822486
5	0x3f78144f	0.9690599
6	0x3f111a9e	0.5668124
7	0x3f13b1d8	0.57693243
8	0x3f15a98d	0.5846184
9	0x3f08bd4c	0.53413844
10	0x3f1292bc	0.5725515
11	0x3f36baa3	0.71378535
12	0x3f14f0d8	0.5818
13	0x3f068d2e	0.52559173
14	0x3f141a47	0.57852596
15	0x3f17a475	0.59235317
16	0x3f09fad5	0.53898364
17	0x3f106b91	0.56414133
18	0x3f07b901	0.5301667
19	0x3f109244	0.56473184
20	0x3f6fdc6e	0.93695724
21	0x3f1828a7	0.5943703
22	0x3f1f5e93	0.62253684
23	0x3f1c4657	0.6104483
24	0x3ed7cfe0	0.42150784
25	0x3f1f4bdd	0.62225133
26	0x3ef5a00a	0.47973663
27	0x3f0fda23	0.56192225
28	0x3f0adbea	0.5424181
29	0x3f14dcb7	0.58149284
30	0x3f1006fd	0.56260663
31	0x3f12b122	0.57301533
32	0x3ef154f2	0.4713512
33	0x3f09978c	0.5374687
34	0x3f1caa2d	0.6119717
35	0x3f090044	0.5351603
36	0x3f0fbb01	0.5614472
37	0x3f04c08e	0.51856315
38	0x3f14830d	0.5801247
39	0x3f0cb5ad	0.54964715
40	0x3f309f87	0.6899342
41	0x3f1c7c2a	0.6112696
42	0x3f130667	0.57431644
43	0x3ef27bb8	0.47360015
44	0x3f0f3fcf	0.5595674
45	0x3f0689bb	0.5255391
46	0x3f1fa768	0.62364817
47	0x3f2ebd5c	0.6825769
48	0x3f2cc490	0.6748743
49	0x3f2fa2c7	0.68607754
50	0x3f0ca7e7	0.549437
51	0x3f0b9442	0.545231
52	0x3f0f0577	0.55867714
53	0x3f2a37a8	0.66491175
54	0x3f1f2e62	0.6218015
55	0x3f2a6200	0.66555786
56	0x3f1dc555	0.6162923
57	0x3f1526c9	0.58262306
58	0x3f199d34	0.600055
59	0x3f03bc16	0.5145887
60	0x3f1cd136	0.6125673
61	0x3f04ff29	0.51951844
62	0x3f0814c3	0.5315668
63	0x3f179dd9	0.5922523
64	0x3f0d9355	0.55302936
65	0x3f08ce43	0.5343973
66	0x3f1055f5	0.5638116
67	0x3f257af1	0.6464072
68	0x3f1b0c63	0.60565776
69	0x3f10cba4	0.5656073
70	0x3f7c5304	0.9856417
71	0x3f05ca2e	0.52261627
72	0x3f107408	0.5642705
73	0x3ef54286	0.47902316
74	0x3f124586	0.57137334
75	0x3f1ab499	0.6043182
76	0x3f198748	0.5997205
77	0x3f17a5ed	0.5923756
78	0x3f20ab05	0.62760955
79	0x3f0e109c	0.55494094
80	0x3f0b6a13	0.5445873
81	0x3ee02ba4	0.43783295
82	0x3f1315a3	0.5745489
83	0x3f23d537	0.63997215
84	0x3f247a2f	0.6424894
85	0x3f2b6b58	0.6696067
86	0x3eb2a6dd	0.34892932
87	0x3f026a3d	0.50943357
88	0x3f0604be	0.52350986
89	0x3f1697d1	0.58825403
90	0x3f104d75	0.5636819
91	0x3ef0538c	0.4693874
92	0x3f0578f8	0.5213771
93	0x3f05c4a2	0.5225316
94	0x3f171a13	0.5902416
95	0x3f184f95	0.5949643
96	0x3f20b44e	0.62775123
97	0x3f132b8e	0.57488334
98	0x3f11d717	0.56968826
99	0x3ef31ad2	0.474814
100	0x3f1931b8	0.5984149
101	0x3f1ff563	0.62483805
102	0x3f18a123	0.59620875
103	0x3f186559	0.59529644
104	0x3f1a64e9	0.60310227
105	0x3f17b9f1	0.592681
106	0x3f18c0db	0.59669274
107	0x3f0fb4e6	0.56135404
108	0x3f0435c7	0.5164456
109	0x3f133c5c	0.57513976
110	0x3f186637	0.5953097
111	0x3f123568	0.5711274
112	0x3f1d30be	0.614025
113	0x3f135282	0.5754777
114	0x3f0e66e3	0.5562574
115	0x3f0cac3f	0.54950327
116	0x3f020205	0.5078433
117	0x3f031aca	0.5121275
118	0x3f28d501	0.6595002
119	0x3f0e92e0	0.55692863
120	0x3f103579	0.5633159
121	0x3effc8de	0.49957937
122	0x3ed86fb1	0.42272714
123	0x3f060f35	0.52366954
124	0x3f117683	0.5682146
125	0x3f10cb49	0.5656019
126	0x3f02f21a	0.5115067
127	0x3f1010be	0.56275547

layers.0.b f4 [128]
0	0x3e161ae0	0.1465869
1	0x3e8a5c84	0.2702371
2	0x3e2f3cb9	0.17113008
3	0x3e0f3f69	0.13989033
4	0x3e063c53	0.1310895
5	0xbcd1202c	-0.025528036
6	0xbdf5c65a	-0.12000723
7	0x3e108674	0.1411379
8	0xbe34d363	-0.17658763
9	0xbdf57aa3	-0.11986282
10	0xbe10adbe	-0.14128777
11	0xbe8460ed	-0.25855199
12	0xbe257520	-0.16157961
13	0x3e511e34	0.20421678
14	0xbe523984	-0.20529753
15	0xbe6747b4	-0.22585946
16	0x3e789970	0.24277282
17	0xbe1ff819	-0.15621985
18	0xbe8e09d1	-0.27741864
19	0x3e3876ac	0.1801402
20	0xbd94e1ca	-0.07269628
21	0x3e2e85e0	0.17043257
22	0xbe51f1a2	-0.20502332
23	0x3e80ecc2	0.25180632
24	0xbead978a	-0.33904678
25	0x3e367754	0.17818958
26	0xbe309c0f	-0.17247032
27	0x3e2e368f	0.17013
28	0x3e09bb0b	0.13450257
29	0xbe5d9fbf	-0.2164297
30	0x3e2dca9a	0.16971818
31	0xbe192ad5	-0.14957745
32	0x3e1118eb	0.14169662
33	0xbe16f976	-0.147436
34	0xbea86778	-0.3289144
35	0xbe381919	-0.17978324
36	0x3e38879c	0.18020481
37	0x3e17ccd0	0.14824224
38	0xbe2f2ff6	-0.1710814
39	0xbe124bb7	-0.14286695
40	0x3e0623f2	0.1309965
41	0x3e4579d5	0.19284756
42	0xbe9f7eb3	-0.3115135
43	0x3e5ccdd2	0.21562889
44	0x3dfa628e	0.12225829
45	0xbe077178	-0.13226879
46	0xbe59aecf	-0.2125809
47	0xbe4cb200	-0.19989777
48	0x3e7f04a1	0.2490411
49	0x3e720c5f	0.23637532
50	0xbe129de1	-0.14318039
51	0x3eaec37c	0.34133518
52	0xbe09aae1	-0.13444091
53	0xbe5d482d	-0.21609564
54	0xbdfe6158	-0.124209106
55	0x3e359d67	0.17735825
56	0xbdff5b01	-0.124685295
57	0xbe577c8e	-0.21043608
58	0x3e37aec0	0.17937756
59	0xbe1fb418	-0.15596044
60	0x3e2d0139	0.16894998
61	0xbe0c91bc	-0.13727468
62	0x3e48559a	0.19563904
63	0xbe08ad05	-0.13347252
64	0x3e14d8c2	0.14535812
65	0x3e78f2c2	0.24311355
66	0x3dcdde11	0.100521214
67	0x3e38766f	0.18013929
68	0xbde3c96c	-0.111224025
69	0xbe4c09b0	-0.1992557
70	0x3d486018	0.048919767
71	0x3e1a9fa7	0.15099965
72	0xbe23e916	-0.16006884
73	0x3e1a66dd	0.15078302
74	0xbe4f4e6c	-0.2024476
75	0xbe253f33	-0.1613739
76	0x3ddadfb5	0.106872
77	0x3e80c4c0	0.25150108
78	0x3e0d6323	0.13807349
79	0x3e41c5bf	0.1892309
80	0x3e10f2b0	0.14155078
81	0xbe0b80f0	-0.13623405
82	0xbe3d1ab7	-0.18467222
83	0x3e371b2e	0.17881462
84	0xbe52eb83	-0.20597653
85	0x3e6076e3	0.21920352
86	0xbeb91efa	-0.36156446
87	0x3e6cd1ad	0.2312686
88	0xbe53799f	-0.20651864
89	0x3e50a618	0.2037586
90	0x3e4c6c04	0.1996308
91	0xbe27a394	-0.16370994
92	0xbe38a482	-0.18031505
93	0x3e80f8ba	0.25189763
94	0xbe5f24cb	-0.21791379
95	0xbe2810c5	-0.16412647
96	0x3e76525f	0.2405486
97	0x3e138c2c	0.1440894
98	0x3e98970e	0.29802746
99	0xbe8c1d92	-0.2736631
100	0xbe415cf1	-0.1888311
101	0x3e29a576	0.16567025
102	0x3e19b10a	0.15008941
103	0x3e00c045	0.12573345
104	0xbe70cfef	-0.2351682
105	0x3e41f1d8	0.18939912
106	0xbe598f3b	-0.21246044
107	0xbe6fe4d5	-0.23427136
108	0xbe16a8e9	-0.14712872
109	0x3e1ad815	0.15121491
110	0xbe41ba48	-0.18918717
111	0x3e114300	0.14185715
112	0xbe2d4571	-0.16921021
113	0xbe365562	-0.17806008
114	0x3dd70b30	0.10500181
115	0x3e354e18	0.17705572
116	0xbe3bd2b0	-0.1834209
117	0x3e82eb7f	0.25570294
118	0x3e4d8216	0.20069155
119	0x3e282955	0.16422017
120	0x3e01daa6	0.12681064
121	0xbe75d55a	-0.24007168
122	0x3e2a23af	0.16615175
123	0x3e775fa3	0.24157576
124	0x3e193dd2	0.14964989
125	0x3e3dce91	0.1853583
126	0xbe45d95c	-0.19321197
127	0x3e1718b0	0.14755511

layers.0.c f4 [128]
0	0xbe4ef4c5	-0.2021056
1	0x3e2500fc	0.16113657
2	0xbe3efd3d	-0.1865129
3	0x3e6b2ef8	0.22967136
4	0xbe5f099d	-0.21781011
5	0xbe204508	-0.15651333
6	0x3e742992	0.23843983
7	0xbe8730e6	-0.26404494
8	0x3e290d21	0.16508915
9	0x3e89552f	0.26822802
10	0xbe33a2b2	-0.17542532
11	0x3dbc374c	0.091902345
12	0x3e012e2d	0.12615271
13	0xbe075da6	-0.13219318
14	0xbe57cb64	-0.21073681
15	0x3de9bae9	0.114126034
16	0xbdf4f63d	-0.11961029
17	0xbe1927ca	-0.14956585
18	0xbdea6e21	-0.11446787
19	0x3df5be4d	0.119991876
20	0xbdeab83f	-0.114609234
21	0xbe6e7a95	-0.23288949
22	0x3e17f7a4	0.14840561
23	0x3e06f461	0.1317916
24	0xbe160cf6	-0.14653382
25	0x3e241ed9	0.16027392
26	0xbe177bbb	-0.14793293
27	0x3e36be78	0.17846096
28	0xbe48fccc	-0.19627684
29	0xbe153031	-0.14569165
30	0xbe081431	-0.13288952
31	0xbe4c88a4	-0.19974
32	0x3e8358f9	0.25653818
33	0xbe50ffb3	-0.20410042
34	0x3dd05835	0.10173074
35	0xbe21d910	-0.15805459
36	0x3e08e097	0.13366924
37	0x3e2dd5af	0.16976045
38	0x3e20a053	0.15686159
39	0x3e9452c8	0.28969407
40	0xbe362455	-0.17787297
41	0xbe2433c5	-0.16035374
42	0x3e0b380a	0.13595596
43	0xbe233ede	-0.1594195
44	0xbe861fb1	-0.26196054
45	0xbe909cf3	-0.28244743
46	0xbe19eb48	-0.15031159
47	0x3e25d330	0.16193843
48	0x3ded7a38	0.11595577
49	0x3e1a79d7	0.1508554
50	0xbe6b3c06	-0.22972116
51	0x3e5a8110	0.21338296
52	0xbe893734	-0.2679993
53	0xbe07907a	-0.13238707
54	0xbe155da3	-0.14586501
55	0xbe2d1ede	-0.16906306
56	0xbe9ea70f	-0.3098683
57	0x3e0bd3c8	0.13655007
58	0x3e1c300c	0.15252703
59	0xbe6fab31	-0.23405148
60	0x3e00f766	0.12594375
61	0xbe41172a	-0.18856493
62	0xbe06e1f6	-0.13172135
63	0xbe573dca	-0.21019664
64	0xbe8fee0b	-0.281113
65	0xbe045e15	-0.12926514
66	0x3e8be1fc	0.2732085
67	0xbe28365c	-0.16426986
68	0xbe7a01d2	-0.24414757
69	0x3e0e2695	0.13881905
70	0x3dcb4bdf	0.09926581
71	0xbe40dd70	-0.18834472
72	0x3e0e322b	0.13886325
73	0xbe40bf90	-0.18823075
74	0xbe04d0af	-0.12970231
75	0x3e3a01bc	0.18164724
76	0xbe7b33e5	-0.24531515
77	0xbdc4e0e7	-0.09613209
78	0xbe875c74	-0.26437724
79	0xbe1f7175	-0.15570624
80	0x3e3d30ef	0.18475698
81	0xbe6fc137	-0.2341355
82	0x3e19a1fe	0.15003201
83	0xbe98ac2c	-0.29818857
84	0x3e1230da	0.14276448
85	0x3e4a9899	0.19784774
86	0x3ed4ccfc	0.4156264
87	0x3ddb33b1	0.10703219
88	0xbe0e9f99	-0.13928069
89	0xbe49e392	-0.19715717
90	0x3e14f4ee	0.14546558
91	0x3e4cb64e	0.19991419
92	0xbe52ba62	-0.20578912
93	0xbdf6151a	-0.120157436
94	0xbe3b8828	-0.18313658
95	0x3e359662	0.17733148
96	0x3e63f8c8	0.22262871
97	0xbe654614	-0.22390014
98	0x3dc8ec02	0.0981064
99	0xbdba8777	-0.09107869
100	0xbe6e8eeb	-0.23296706
101	0xbe1630f8	-0.14667118
102	0x3e1fce29	0.15605988
103	0x3e2d0b21	0.16898777
104	0xbded985e	-0.11601327
105	0x3e2dbb42	0.16965964
106	0xbe1f4a74	-0.15555745
107	0xbe494006	-0.19653329
108	0xbe81b06e	-0.25329918
109	0x3e857501	0.2606583
110	0xbe2d2cad	-0.16911574
111	0x3e53ef69	0.20696796
112	0x3e46e375	0.19422705
113	0xbe4f15e3	-0.20223193
114	0xbe8f3355	-0.2796885
115	0xbe1a1be6	-0.15049705
116	0x3e0ea252	0.13929108
117	0xbdcb0912	-0.099138394
118	0xbde0e89f	-0.10981869
119	0xbe1bf5ee	-0.15230533
120	0xbe60222b	-0.21888034
121	0x3e28c68b	0.16481988
122	0xbe310cd0	-0.17290044
123	0x3e39ac14	0.18132049
124	0xbe3f4840	-0.18679905
125	0xbe11ffbf	-0.14257716
126	0x3e2b3ba8	0.16721976
127	0xbe34bcaa	-0.17650095

layers.0.out_bias f4 [128]
0	0x3b144158	0.0022621956
1	0x3c7cfb6c	0.015440803
2	0x3c106513	0.0088131605
3	0x3c005938	0.007833771
4	0xbc075962	-0.008261057
5	0x3c11217f	0.008858084
6	0x3c1495ed	0.009068948
7	0xbc1163d6	-0.0088739
8	0x3af433b5	0.0018631133
9	0xbbc15b69	-0.0059007895
10	0xbb2b1f49	-0.0026111177
11	0x3b541bad	0.003236513
12	0x3b6cb9b8	0.003612144
13	0x3bf01746	0.007326993
14	0x39ee6c74	0.000454757
15	0xb9f3d425	-0.00046506632
16	0xbbd6628b	-0.006542509
17	0x3b988675	0.0046547004
18	0xbc3e94e4	-0.011632178
19	0xbb99abfe	-0.0046896925
20	0x3a484ccc	0.0007640838
21	0x3bc055c7	0.0058696005
22	0x3b9e27e1	0.0048265313
23	0x3b401e69	0.0029315
24	0x3c67628b	0.014122616
25	0xbb44553c	-0.002995803
26	0x3ae5ce37	0.001753277
27	0xbc6af12b	-0.0143397255
28	0xbab509a1	-0.0013812074
29	0x3c58ab36	0.013224414
30	0xbb4460ad	-0.002996485
31	0xbc3862cd	-0.011254025
32	0xbc9abdae	-0.018889274
33	0xbae68bd1	-0.0017589276
34	0xbb742380	-0.0037252605
35	0xbb1fd0b8	-0.002438588
36	0x3bbeff0a	0.005828743
37	0xb99a5ae2	-0.00029440882
38	0xbb3d3e17	-0.002887612
39	0x3b6d3883	0.0036197014
40	0x3d05c8ab	0.032662075
41	0xbb39768f	-0.0028299426
42	0x3bfa821a	0.007644904
43	0xbc22f0c5	-0.009945099
44	0x3b37f976	0.0028072274
45	0xbb8d228a	-0.004307096
46	0x3aa1c5b2	0.0012342243
47	0x3c90e8d8	0.017689154
48	0x3c01167c	0.007878896
49	0xbc612dfe	-0.013743876
50	0xbc9f90f8	-0.019478306
51	0x3ca84b20	0.020543635
52	0xba8329d1	-0.0010006969
53	0xbcafc992	-0.02145842
54	0x3c0225de	0.007943599
55	0x3c4f1527	0.01263932
56	0x3ce6ad21	0.028158726
57	0xbabdee09	-0.0014490496
58	0xbb766f00	-0.0037602782
59	0xbb799ac2	-0.0038086628
60	0x3b796aad	0.0038057968
61	0x3a87a805	0.0010349756
62	0x3bc290db	0.0059376783
63	0x3b469544	0.0030301372
64	0x3ca6efe8	0.020378068
65	0x3b1bc155	0.0023766358
66	0x3be5a053	0.0070076375
67	0x3c79cfa3	0.015247258
68	0x3cc13cc4	0.023588546
69	0x3b19e279	0.0023480935
70	0x3bbc6646	0.0057494966
71	0xbcc1a705	-0.023639211
72	0xb928db2c	-0.00016103376
73	0x3c7b5502	0.015340092
74	0xbbf5e3fa	-0.0075039836
75	0xbc49ae8c	-0.012309682
76	0x3aced507	0.001578004
77	0x3c0781a7	0.008270658
78	0xbcb8c261	-0.022553625
79	0xba36a3fc	-0.00069671846
80	0x3be6f910	0.0070487335
81	0x39fcc3e0	0.00048211124
82	0xb9b436ec	-0.00034373195
83	0x3ce54969	0.027989106
84	0x3c0ca54f	0.0085843345
85	0x3d81e9bb	0.06343409
86	0x3d1df819	0.038566682
87	0xbb81189d	-0.0039397017
88	0x3c049eec	0.008094531
89	0x3ba8e426	0.0051541505
90	0x3ab96275	0.0014143722
91	0xbcaa8c37	-0.020818813
92	0xbac133a0	-0.0014740117
93	0xbc81f7fd	-0.01586532
94	0x3c47ca24	0.01219419
95	0x3c985fa7	0.018600298
96	0x3c5adee5	0.013358806
97	0xbc18d37d	-0.0093277665
98	0xbb8756bf	-0.004130214
99	0x3c1c8117	0.009552262
100	0x3c47ac43	0.0121870665
101	0xba7e8146	-0.00097085943
102	0xbbc40840	-0.005982429
103	0x3a2c71f9	0.00065782625
104	0x3b68219e	0.0035420428
105	0x3aa8b4e9	0.0012871298
106	0xba812a53	-0.0009854533
107	0x3cda4c80	0.026647806
108	0x3a9f132f	0.0012136454
109	0xbbdd573a	-0.006754783
110	0xb9f52376	-0.00046756462
111	0xba7fea0c	-0.0009762354
112	0x3c02b1f5	0.007976999
113	0x39e7e91b	0.0004423343
114	0xbb700dbe	-0.0036629285
115	0xbb0c9788	-0.0021452624
116	0x3be8066b	0.007080843
117	0xbc223402	-0.009900095
118	0x3c5634a5	0.013074075
119	0x3c24212d	0.010017675
120	0xba923122	-0.0011153559
121	0xbb19d306	-0.0023471727
122	0x3bf65750	0.0075177327
123	0xbc64f18c	-0.013973605
124	0x3c3c64b5	0.01149862
125	0xbb597b1b	-0.003318495
126	0x3c397371	0.011319027
127	0xbb82abce	-0.003987766

layers.0.in_proj.weight f4 [128, 128]
0	0x3c3c44c7	0.011491007
1	0x3d84ec16	0.06490342
2	0x3d0bc14c	0.03411989
3	0xbd851e4a	-0.06499918
4	0x3d3bc1bb	0.045839053
5	0xbd3aef51	-0.045638386
6	0xbdc6e12b	-0.09710916
7	0x3dcbd313	0.099523686
8	0x3caea553	0.021319067
9	0xbddcaea2	-0.10775496
10	0xbd0fc3b2	-0.03509874
11	0xbca26003	-0.019821173
12	0x3dde2dc1	0.108485706
13	0x3b903690	0.0044010356
14	0xbe1b7474	-0.15181142
15	0xbe266e76	-0.16253075
16	0x3cf5f5b0	0.03002438
17	0x3d6b0362	0.057376273
18	0x3e08764b	0.13326375
19	0x3c126c6d	0.0089369835
20	0xbd83a423	-0.06427791
21	0xbe587e57	-0.21141945
22	0x3dc4d067	0.09610062
23	0x3cbfc269	0.023408132
24	0xbd09a4eb	-0.033604544
25	0x3beeef48	0.007291708
26	0x3bf204ed	0.007385841
27	0x3e201215	0.15631898
28	0xbe773723	-0.24142127
29	0xbd5bcf1c	-0.05366431
30	0x3bec5c53	0.0072131543
31	0x3e191247	0.14948379
32	0xbda27b7c	-0.07933709
33	0xbe56dd4a	-0.20982853
34	0xbccf5134	-0.025307275
35	0x3cc894af	0.02448496
36	0xbd030708	-0.031989127
37	0x3d528452	0.05139572
38	0x3e0e8bec	0.13920563
39	0xbd7e29ec	-0.0620517
40	0x3c9d7186	0.019219171
41	0x3e0f4fdb	0.13995306
42	0xbcc10643	-0.023562556
43	0x3d226d49	0.039655004
44	0xbd703ab7	-0.058649745
45	0xbccbbb72	-0.024869654
46	0xbd0de42f	-0.03464144
47	0xbd9a5f48	-0.07537705
48	0x3d0beb23	0.03415979
49	0xbe002db6	-0.12517437
50	0xbdbc8ab7	-0.09206145
51	0xbd19d78d	-0.03755908
52	0xbc2e081b	-0.01062205
53	0xbb2bf704	-0.0026239762
54	0xbcec3363	-0.028833097
55	0xbd8adb5d	-0.067801215
56	0xbdfb0c93	-0.12258258
57	0x3d057980	0.032586575
58	0xbdb702c8	-0.08936077
59	0x3bee5f51	0.007274546
60	0x3cf80917	0.030277772
61	0xbe5eb28e	-0.217478
62	0xbe478564	-0.19484478
63	0xbd0fa541	-0.035069708
64	0xbe036feb	-0.12835662
65	0x3d15d17f	0.036576744
66	0xbc35a92b	-0.011087696
67	0x3d881369	0.06644327
68	0xbe76b901	-0.24094011
69	0x3c46df74	0.012138236
70	0x3e18282b	0.14859073
71	0x3d67b4e4	0.056568995
72	0xbd9c7538	-0.07639545
73	0xbdf5a92f	-0.1199516
74	0xbc840973	-0.016117787
75	0xbc9b924c	-0.018990658
76	0x3d979713	0.07401862
77	0xbd3c899a	-0.046029665
78	0xbe3c56b4	-0.1839245
79	0xbd77f447	-0.060535695
80	0x3d11242f	0.035434898
81	0x3d6132b7	0.054980006
82	0xbd1d919f	-0.038468953
83	0xbd3146ad	-0.043280292
84	0xbb91cfc5	-0.004449817
85	0x3dddbaae	0.10826622
86	0x3c85ce89	0.016333835
87	0xbd448b48	-0.04798439
88	0x3d878e3a	0.066189244
89	0x3ce5d364	0.0280549
90	0x3c3621be	0.011116443
91	0x3d2f2c97	0.042767134
92	0xbe14cc83	-0.1453114
93	0xbe264d53	-0.16240434
94	0xbc839698	-0.01606302
95	0xbc0eaba7	-0.008707917
96	0x3d64f147	0.055894163
97	0x3e03767b	0.12838165
98	0xbdb40ec1	-0.087918766
99	0x3db481a2	0.08813788
100	0x3e2020bc	0.15637487
101	0x3daff02b	0.0859073
102	0x3e33bc16	0.17552218
103	0x3d9039cd	0.070422746
104	0x3d742e70	0.0596146
105	0x3e4b8925	0.19876535
106	0xbd1c036c	-0.0380892
107	0x3c89c5a5	0.016817877
108	0x3dc92a77	0.09822553
109	0xbda6aeae	-0.08138786
110	0xb9e9db75	-0.0004460473
111	0x3d714c7a	0.058910824
112	0xbcd8bf8c	-0.026458524
113	0x3dc58a7c	0.096455544
114	0xbd8c6601	-0.06855393
115	0xbca3e543	-0.020006781
116	0x3e11f3df	0.14253186
117	0xbd7f8cff	-0.062390324
118	0x3c70f0b6	0.014705827
119	0xbe0b9dd2	-0.13634422
120	0x3def2f29	0.11678917
121	0xbd303e46	-0.04302814
122	0xbd157d8c	-0.036496684
123	0x3b500558	0.0031741466
124	0x3d5fa8b5	0.05460425
125	0x3d226808	0.039649993
126	0x3dfda33d	0.12384651
127	0x3d43c899	0.047798727
128	0xbd8e9303	-0.06961634
129	0x3db46343	0.08807995
130	0x3c6d4b0d	0.0144832255
131	0x3d94ab19	0.07259197
132	0xbbd6a075	-0.0065498897
133	0xbc0ff82c	-0.008787196
134	0xbe3cf976	-0.18454537
135	0xbd36198b	-0.044457953
136	0x3dbafe78	0.09130567
137	0x3cfb3bcb	0.03066816
138	0x3cdfc81c	0.0273171
139	0xbdd8e011	-0.10589612
140	0xbdcc60aa	-0.09979375
141	0x3e0f4890	0.13992524
142	0xbb7996fd	-0.003808438
143	0xbdd1251f	-0.102121584
144	0x3e5c57d2	0.21517876
145	0xbd24aa0d	-0.040201236
146	0x3bb5beb3	0.0055464148
147	0x3d39b002	0.04533387
148	0xbde1b554	-0.11020914
149	0xbbb7ce4e	-0.00560931
150	0x3db7abc3	0.08968308
151	0xbc2fc95a	-0.010729158
152	0x3dae4ce0	0.085107565
153	0x3df4f6ca	0.11961134
154	0x3ddb7c5e	0.107170805
155	0x3e07d0bc	0.1326322
156	0x3c4c8784	0.012483481
157	0x3d7e61b3	0.062104892
158	0xbd051c4e	-0.032497697
159	0xbdab3af8	-0.08360857
160	0xbdcb44b3	-0.09925213
161	0x3d35433a	0.044253565
162	0xbcd983f8	-0.026552185
163	0xbdc6bb28	-0.09703666
164	0x3c8db196	0.017296594
165	0x3d89cf10	0.06728947
166	0x3c5d0924	0.013490949
167	0x3de57426	0.11203794
168	0xbdc319a4	-0.09526375
169	0x3db66011	0.08905042
170	0xbe567214	-0.20941955
171	0x3c92fd05	0.017942915
172	0x3dc8f2ec	0.09811959
173	0x3c3e1d71	0.011603699
174	0x3d608a08	0.054819137
175	0xbc6b2d47	-0.014354057
176	0xbdb2fd87	-0.08739763
177	0xbdd7e268	-0.105412304
178	0x3d1e7ac1	0.038691286
179	0x3e5210be	0.20514199
180	0xbe01690a	-0.12637725
181	0x3d970c73	0.073754214
182	0x3ce62a4f	0.028096346
183	0x3e095758	0.13412225
184	0x3cd737f7	0.026271803
185	0x3d39b0f1	0.04533476
186	0x3c5e0965	0.0135520445
187	0x3e47ed52	0.19524124
188	0x3cae7804	0.021297462
189	0x3c675c15	0.014121075
190	0x3e00f37d	0.12592883
191	0x3d2b6751	0.041846577
192	0xbdd9aee9	-0.106290646
193	0x3bd26873	0.0064211427
194	0x3e4ffdf3	0.20311718
195	0x3c4f88bf	0.01266688
196	0x38f7040f	0.00011778634
197	0xbc7f2134	-0.015571881
198	0xbe6ad669	-0.22933353
199	0xbda449ab	-0.080218635
200	0x3dc8b49b	0.09800073
201	0x3d7f1577	0.06227633
202	0xbd634fc2	-0.055495985
203	0x3d09a942	0.033608682
204	0x3dbd2db0	0.0923723
205	0xbd792b21	-0.060832147
206	0x3cae32b1	0.021264406
207	0x3d016290	0.031588137
208	0xbd229715	-0.039694864
209	0x3d8dfd5f	0.06933092
210	0x3c4ac3fa	0.012375826
211	0x3d8b1ffd	0.06793211
212	0xbdb3a80e	-0.08772288
213	0xbd224b98	-0.039622873
214	0x3d7d8950	0.06189853
215	0xbd3e199a	-0.046411134
216	0xbd204f64	-0.039138213
217	0x3d444ec7	0.04792669
218	0x3d777a5b	0.06041942
219	0xbda9c249	-0.0828901
220	0xbdcf95dc	-0.10136005
221	0xbcda3e4b	-0.026641032
222	0xbe2d609a	-0.16931382
223	0x3d058b51	0.032603566
224	0xbd09f64f	-0.033682164
225	0xbd1824ad	-0.03714435
226	0x3d801482	0.062539116
227	0x3cdfa235	0.027299026
228	0xbdad3bee	-0.08458696
229	0xbdc7a0ce	-0.09747468
230	0xbd57e412	-0.05270774
231	0x3ce436d1	0.02785817
232	0x3dcb018f	0.09912407
233	0xbdbba5dc	-0.091624945
234	0x3da9d234	0.08292046
235	0xbccdb257	-0.025109453
236	0x3dee2878	0.116288126
237	0xbd644ec9	-0.055739198
238	0xbdf119cd	-0.11772499
239	0xbd99f3e0	-0.075172186
240	0xbd8ad159	-0.06778211
241	0x3acacadf	0.0015471837
242	0xbd89829c	-0.06714365
243	0xbe3cf568	-0.1845299
244	0x3a57caba	0.0008231808
245	0x3d47ce25	0.04878058
246	0xbe427483	-0.18989758
247	0x3d36a82d	0.04459398
248	0xbd15e877	-0.03659865
249	0x3dcace73	0.09902658
250	0xbd06b961	-0.032891635
251	0x3bde4f1a	0.006784332
252	0xbca4a9da	-0.020100523
253	0x3dd05adf	0.10173582
254	0x3cb2254c	0.0217463
255	0xbd8ed7b1	-0.069747336

layers.1.a f4 [128]
0	0x3f78e31b	0.97221535
1	0x3f53c96e	0.8272923
2	0x3f77773a	0.966663
3	0x3ef59177	0.47962543
4	0x3ee08e10	0.43858385
5	0x3ee965f2	0.4558559
6	0x3ec04d43	0.37558946
7	0x3f290848	0.6602826
8	0x3f04b2b4	0.5183518
9	0x3f2797c4	0.6546595
10	0x3eca2184	0.39478695
11	0x3edddbce	0.4333176
12	0x3f006b62	0.50163853
13	0x3f018d67	0.5060639
14	0x3f08f1fe	0.5349425
15	0x3ec33ea5	0.3813373
16	0x3ef3dc02	0.4762879
17	0x3ec15695	0.3776137
18	0x3ef6b780	0.48186874
19	0x3ee119dd	0.43965045
20	0x3f3892d0	0.7209902
21	0x3f517d11	0.8183146
22	0x3f27e7ae	0.6558789
23	0x3ef9610d	0.48706856
24	0x3ebe7875	0.37201276
25	0x3ee9d5e4	0.45670998
26	0x3ef1b95a	0.47211725
27	0x3eee2e58	0.46519732
28	0x3ee89171	0.45423463
29	0x3f10061a	0.5625931
30	0x3f0f8c46	0.56073415
31	0x3f026673	0.50937575
32	0x3ec793a2	0.38979822
33	0x3f16a758	0.58849096
34	0x3f0f03dc	0.55865264
35	0x3eab4e85	0.33458343
36	0x3ef3294d	0.47492447
37	0x3ea18031	0.31543115
38	0x3f11b893	0.5692226
39	0x3efcf755	0.4940745
40	0x3f038a4c	0.513829
41	0x3f76d86a	0.9642397
42	0x3f193802	0.59851086
43	0x3ec2b434	0.3802811
44	0x3f04cf98	0.5187926
45	0x3effeff4	0.49987757
46	0x3efceeb0	0.49400854
47	0x3eff80a6	0.49902838
48	0x3f2b21f5	0.6684869
49	0x3f3791f1	0.71707064
50	0x3f0c0925	0.54701453
51	0x3f10b397	0.5652403
52	0x3f23743f	0.6384925
53	0x3efd3016	0.4945075
54	0x3f2f5ddb	0.6850259
55	0x3ec4c226	0.38429374
56	0x3f02eb6f	0.51140493
57	0x3ed87c28	0.42282224
58	0x3f14287b	0.5787427
59	0x3ea5e0eb	0.3239816
60	0x3ebe3745	0.37151542
61	0x3ecde7dd	0.4021596
62	0x3ee0223e	0.43776125
63	0x3ebd410d	0.36963692
64	0x3eea70dd	0.45789233
65	0x3f054e56	0.52072656
66	0x3eed60b3	0.46362838
67	0x3ebc96cc	0.368338
68	0x3f253017	0.64526504
69	0x3ef0cdad	0.47031918
70	0x3f18607a	0.5952221
71	0x3efa4631	0.48881677
72	0x3e610539	0.21974649
73	0x3f33fe7d	0.70310193
74	0x3ef547e7	0.4790642
75	0x3f27a8c5	0.65491897
76	0x3f00d832	0.5032989
77	0x3ed4da7f	0.4157295
78	0x3f3607c8	0.71105623
79	0x3ee4a27e	0.44655222
80	0x3f08ba98	0.5340972
81	0x3ede4b83	0.43416986
82	0x3f014fb5	0.5051225
83	0x3f4bbd9b	0.7958619
84	0x3f018964	0.50600266
85	0x3f20ef1f	0.6286487
86	0x3ebc421c	0.36769187
87	0x3ed31479	0.41226557
88	0x3f096398	0.53667593
89	0x3efacfa3	0.4898654
90	0x3f073105	0.5280917
91	0x3f0bb670	0.5457525
92	0x3ec922c6	0.39284343
93	0x3ecb3347	0.3968756
94	0x3ed4df2f	0.41576526
95	0x3f1ab0d6	0.6042608
96	0x3f0a6089	0.5405355
97	0x3efa84d7	0.48929474
98	0x3f0c5e75	0.5483163
99	0x3f15880d	0.5841072
100	0x3f1f2f2d	0.6218136
101	0x3eefa29f	0.46803758
102	0x3ead8365	0.3388931
103	0x3edd18e4	0.43183053
104	0x3ef4ac8c	0.47787893
105	0x3f1625d6	0.58651483
106	0x3f05f291	0.5232325
107	0x3ef10db4	0.47080767
108	0x3ed774de	0.4208135
109	0x3ed45895	0.41473833
110	0x3ef0cb1f	0.4702997
111	0x3ee89c3c	0.45431697
112	0x3f17fc11	0.59369
113	0x3f1739e6	0.5907272
114	0x3ef60479	0.48050287
115	0xbda5684e	-0.08076535
116	0x3eca5354	0.395167
117	0x3ea9ed26	0.33188742
118	0x3ef32071	0.47485688
119	0x3ea3c44b	0.31985697
120	0x3e46b63a	0.19405451
121	0x3f0bad97	0.5456175
122	0x3f025735	0.5091432
123	0x3f06b782	0.5262376
124	0x3e8cf5eb	0.2753137
125	0x3ebee106	0.37281054
126	0x3ef535b2	0.4789253
127	0x3e885f3b	0.26635155

layers.1.b f4 [128]
0	0x3d917247	0.07101875
1	0xbe2cfd26	-0.16893443
2	0x3d8d9273	0.069126986
3	0xbe830b65	-0.2559463
4	0x3e87b8f6	0.26508301
5	0x3e2b83e6	0.16749534
6	0x3e99f196	0.30067128
7	0x3e2c4e44	0.16826731
8	0x3e348e87	0.17632495
9	0xbdeadf7a	-0.11468406
10	0x3e763517	0.2404369
11	0x3e558173	0.20850162
12	0xbe390f8e	-0.1807234
13	0xbe660fb5	-0.2246693
14	0x3e480cb1	0.19536091
15	0x3e37e932	0.1796005
16	0xbe48779f	-0.19576882
17	0x3e3f5265	0.18683775
18	0x3e6a4775	0.22878821
19	0x3e826c8c	0.2547344
20	0x3e901cf3	0.28147087
21	0xbe046aa3	-0.12931304
22	0x3e238967	0.15970384
23	0xbe66e15c	-0.22546905
24	0xbe8b0d4f	-0.2715859
25	0x3e4b6477	0.19862543
26	0x3e33ee3e	0.17571351
27	0xbe2d0483	-0.16896252
28	0xbe536277	-0.2064303
29	0x3e4c9600	0.19979095
30	0x3e7072a4	0.23481232
31	0x3e76bed9	0.2409624
32	0x3e3cc97f	0.1843624
33	0x3e24b855	0.16085942
34	0xbe5554a2	-0.20833066
35	0xbe894287	-0.2680857
36	0x3e7af980	0.24509239
37	0x3e158258	0.14600503
38	0xbe534ec0	-0.2063551
39	0x3e57b460	0.21064901
40	0x3ed01a8c	0.40645254
41	0xbdc47f98	-0.09594649
42	0x3e131a4d	0.14365502
43	0x3e0528e5	0.13003881
44	0xbe105259	-0.14093913
45	0xbe3249c8	-0.17410958
46	0x3e64032e	0.22266838
47	0xbe479678	-0.19490993
48	0x3de7820e	0.11304103
49	0x3e86da22	0.26338297
50	0x3e350534	0.17677766
51	0xbe47e03b	-0.19519131
52	0xbe24f275	-0.16108115
53	0xbe4c27c6	-0.19937047
54	0x3e3c4d21	0.18388797
55	0x3e50054a	0.20314518
56	0xbe3fafa1	-0.18719341
57	0x3e5c475b	0.21511595
58	0xbe21a730	-0.15786433
59	0x3e68392f	0.22678064
60	0xbe39d3b6	-0.18147168
61	0x3e4b072c	0.19826955
62	0xbe390d5f	-0.18071507
63	0xbe8f3527	-0.2797024
64	0x3e401b26	0.18760356
65	0x3e52e88f	0.20596527
66	0xbe52b9cc	-0.20578688
67	0x3e653426	0.22383174
68	0xbe6e1b52	-0.2325261
69	0xbe6a13c9	-0.2285911
70	0xbe504280	-0.20337868
71	0xbe3540c5	-0.17700489
72	0xbe89135b	-0.2677258
73	0x3e6cb919	0.23117484
74	0xbe79d9b6	-0.24399456
75	0xbe590e53	-0.2119687
76	0xbe5b9f85	-0.2144757
77	0xbe285b96	-0.16441187
78	0xbde3529e	-0.11099742
79	0x3e87b260	0.26503277
80	0x3e7d1709	0.24715818
81	0xbe274477	-0.16334711
82	0x3e7a8f9e	0.24468848
83	0x3e72fd3c	0.23729414
84	0xbe630290	-0.22168946
85	0xbe35d0a0	-0.17755365
86	0x3e7db98b	0.2477781
87	0xbe2d6ae1	-0.16935302
88	0x3e8a09c6	0.26960582
89	0x3e84f73a	0.2596987
90	0x3e05fb3a	0.13084117
91	0xbe17456b	-0.14772575
92	0xbe3fe5cd	-0.18740006
93	0x3e5f769a	0.21822587
94	0xbe477b20	-0.19480562
95	0x3e18541d	0.14875837
96	0x3e63f719	0.22262229
97	0xbeaae978	-0.33381248
98	0xbe2b9029	-0.16754211
99	0xbe3c5182	-0.18390468
100	0xbe30aeb1	-0.1725414
101	0xbe1fa3ee	-0.15589878
102	0x3e6b746e	0.22993633
103	0xbe21374e	-0.15743753
104	0x3e3d4ba5	0.18485887
105	0xbe53dc7a	-0.20689574
106	0xbe7047bd	-0.23464866
107	0x3e5cc7e8	0.21560633
108	0xbe88168a	-0.26579696
109	0xbe7898d0	-0.24277043
110	0xbe53e353	-0.20692186
111	0xbe00e10e	-0.12585852
112	0xbe5a0bde	-0.2129359
113	0xbe1f3470	-0.15547347
114	0xbeacdb6d	-0.3376116
115	0x3e081e79	0.13292874
116	0x3e7c79b5	0.24655803
117	0x3e0c6dc3	0.13713746
118	0xbe452467	-0.19252168
119	0x3e87f411	0.26553395
120	0xbe333d91	-0.17503954
121	0xbe34c003	-0.17651372
122	0x3e603b9f	0.21897744
123	0x3e3f9e5e	0.18712756
124	0x3e3e21ad	0.18567534
125	0xbe619fcd	-0.22033615
126	0xbe21a54a	-0.15785709
127	0xbe164b21	-0.14677097

layers.1.c f4 [128]
0	0xbdda3c9c	-0.106560916
1	0x3e403b62	0.18772653
2	0xbe1ede67	-0.15514527
3	0xbe20b1f9	-0.15692891
4	0xbdfcfca8	-0.12352878
5	0xbe7130d9	-0.2355379
6	0xbe0d46d0	-0.13796544
7	0xbe301a04	-0.17197424
8	0xbe5e17cb	-0.21688764
9	0x3e7c9955	0.24667867
10	0x3e1bd473	0.15217762
11	0xbe4555a8	-0.19270957
12	0x3e553135	0.20819552
13	0x3e37574d	0.17904396
14	0x3e554c07	0.20829783
15	0x3e3c0c1a	0.18363991
16	0xbe40a7f5	-0.1881407
17	0xbe49dc10	-0.19712853
18	0xbe25aa84	-0.16178328
19	0x3e0dc5ad	0.13844939
20	0x3e86af90	0.2630582
21	0xbe1a1fff	-0.15051268
22	0x3e44194b	0.19150274
23	0x3e1fb629	0.15596832
24	0x3e071653	0.1319211
25	0xbe3c6da2	-0.18401197
26	0x3e3fb575	0.18721564
27	0xbe62c46d	-0.22145243
28	0x3e62fe63	0.22167353
29	0x3e709b63	0.23496775
30	0x3e063545	0.13106258
31	0x3e0fa1e0	0.14026594
32	0xbe3949b2	-0.18094519
33	0xbe230505	-0.15919884
34	0x3e482937	0.19546972
35	0xbe364a83	-0.17801861
36	0x3e24f60b	0.16109483
37	0x3e7cadd4	0.24675685
38	0x3e6b5f2e	0.22985527
39	0xbe5122ea	-0.20423475
40	0x3ea2cb5e	0.31795782
41	0x3d6e31ed	0.05815308
42	0xbe9c6dc2	-0.3055249
43	0xbe9a4c3f	-0.30136296
44	0x3ea13842	0.31488234
45	0x3e4d29ef	0.20035528
46	0x3e33e1ec	0.17566651
47	0x3e93fb3f	0.28902623
48	0xbe89c374	-0.2690693
49	0x3e2ab609	0.16671003
50	0xbe45b18f	-0.19306014
51	0x3e373262	0.17890313
52	0xbe50991f	-0.20370911
53	0x3e49fa95	0.19724496
54	0xbe304b5c	-0.17216247
55	0x3e634cc5	0.22197254
56	0xbe778450	-0.24171567
57	0x3e2033a9	0.15644707
58	0x3e41e2f2	0.18934229
59	0x3e17760b	0.14791124
60	0x3e6cb7bc	0.23116964
61	0xbe287f71	-0.16454865
62	0x3e569f74	0.20959264
63	0x3e1f1b74	0.15537816
64	0x3e35f8e3	0.17770724
65	0xbe762fae	-0.24041626
66	0xbe224ac3	-0.15848832
67	0xbe33020f	-0.17481254
68	0xbe0119a8	-0.12607443
69	0x3e0feddb	0.14055578
70	0xbe421dc8	-0.18956673
71	0xbe3b4e69	-0.1829163
72	0x3e011ee5	0.12609442
73	0xbdf898c0	-0.1213851
74	0xbe0c4aec	-0.13700455
75	0x3e435ac0	0.19077587
76	0xbe256dbc	-0.16155142
77	0x3e4d9d9f	0.20079659
78	0xbe7d340c	-0.24726886
79	0x3e0fc3eb	0.1403958
80	0x3e1a08ef	0.1504247
81	0x3e78ce4d	0.24297448
82	0x3e19405f	0.14965962
83	0xbe80905c	-0.25110137
84	0xbe2c09f6	-0.16800675
85	0xbe61450c	-0.21998996
86	0xbe17c933	-0.14822845
87	0x3e4c51d1	0.19953085
88	0xbe1869cf	-0.14884113
89	0xbe3201f4	-0.17383558
90	0xbe960804	-0.2930299
91	0x3e5aaaf4	0.21354276
92	0x3e634fbe	0.22198388
93	0x3e317caa	0.17332712
94	0x3e4f86c5	0.20266254
95	0xbe83c0e2	-0.25733095
96	0x3e5f5348	0.21809113
97	0x3df1089a	0.11769219
98	0xbe83adb2	-0.25718457
99	0x3e33f053	0.17572145
100	0xbe6bb944	-0.23019892
101	0xbe57ff2b	-0.21093433
102	0xbe1d7514	-0.15376693
103	0xbe701027	-0.23443662
104	0x3e8825ff	0.2659149
105	0xbe4005e1	-0.18752243
106	0x3e18d0c7	0.14923392
107	0x3e467550	0.19380689
108	0xbe04fb11	-0.12986399
109	0xbe1ce169	-0.15320362
110	0x3e14c397	0.14527737
111	0xbea5ccc5	-0.3238279
112	0x3e2540c5	0.16137989
113	0x3e5f44b8	0.21803558
114	0xbdfad821	-0.122482546
115	0x3e66c9c0	0.22537899
116	0xbe3b08cb	-0.18265073
117	0x3e9c9c88	0.30588174
118	0x3e36dd91	0.17857958
119	0x3eb2b325	0.349023
120	0x3e34fba5	0.1767412
121	0xbe2834ce	-0.16426393
122	0x3e224a6f	0.15848707
123	0x3e67b9f0	0.22629523
124	0xbe6333d9	-0.22187747
125	0x3e17324e	0.14765283
126	0xbe749568	-0.23885119
127	0xbe7360a7	-0.23767339

layers.1.out_bias f4 [128]
0	0x3c9008cf	0.017582325
1	0xbaf116e2	-0.001839366
2	0x3cdf42d7	0.027253551
3	0xbc2fe513	-0.010735768
4	0xbbca280a	-0.006169324
5	0x3c8bc79d	0.017062956
6	0xbbdba663	-0.0067031845
7	0x3adf183c	0.0017020772
8	0xbc2eaa76	-0.010660758
9	0x3bc28740	0.005936533
10	0x38790a3a	5.937575e-05
11	0xbc806506	-0.015673172
12	0x3bb679f8	0.005568739
13	0x3c2d5d5e	0.0105813425
14	0x3c47248e	0.012154711
15	0x3b40b452	0.0029404354
16	0xbc4c16a9	-0.0124565745
17	0xbc3dc1ee	-0.011581881
18	0xbc121e7d	-0.008918402
19	0xbc8125d8	-0.015765116
20	0x3d1eea28	0.038797528
21	0x3c33072b	0.010927002
22	0x3b6f96a1	0.0036558288
23	0x3b8fb520	0.0043856055
24	0x3c7a3c7c	0.01527321
25	0x3b513f57	0.0031928623
26	0xbbaa190e	-0.005190975
27	0x3b8f0f50	0.004365839
28	0x3c96e6d2	0.01842061
29	0xbbdf3302	-0.0068115005
30	0x3a61dac2	0.00086156663
31	0xbb86bda1	-0.004111961
32	0xbb6e87e9	-0.0036396927
33	0x3a9c9545	0.0011946341
34	0xbbc2ac9b	-0.0059409863
35	0xbcad67d6	-0.021167677
36	0xbbba0927	-0.0056773606
37	0xbc027590	-0.007962599
38	0xbc4f99f2	-0.012670981
39	0x3c5882e6	0.013214802
40	0x3d8a1503	0.06742289
41	0x3bbbad7e	0.005727469
42	0x3cd9a3f8	0.026567444
43	0x3ba93b59	0.0051645455
44	0x3c0c00e1	0.008545131
45	0xbbcf3a5a	-0.0063240947
46	0xbc272051	-0.010200576
47	0x3cab299e	0.020893868
48	0x3c46ba72	0.012129413
49	0xbbc0a8cd	-0.0058794976
50	0x3b957c7d	0.0045619593
51	0x3be48fc3	0.0069751455
52	0xbb2aeebf	-0.0026082245
53	0xbb8311f2	-0.003999942
54	0x3bf0c0f4	0.0073472206
55	0xbc4f91dd	-0.012669054
56	0x3c54dbde	0.012991874
57	0xbc638c47	-0.013888425
58	0xbb71dfb4	-0.003690702
59	0x39e81a83	0.0004427024
60	0x3c3538e6	0.011060929
61	0xbbc9d6d0	-0.006159641
62	0xbbd5b998	-0.0065223686
63	0xbc468284	-0.012116078
64	0x3b709a81	0.0036713185
65	0x3b816d44	0.003949793
66	0x3992985c	0.00027960807
67	0x3c31ea4e	0.010859085
68	0x3bc76068	0.0060844906
69	0x3aeca0f9	0.0018053345
70	0x3c2f58ac	0.010702293
71	0xbc3a310b	-0.011364232
72	0xbc5ac1a0	-0.013351828
73	0x3bf70fd1	0.0075397273
74	0x39720b3e	0.00023083106
75	0x3cc855cb	0.024454972
76	0xbba88e81	-0.005143941
77	0x390f8794	0.0001368805
78	0x3bcd93c7	0.00627372
79	0xbbc50087	-0.0060120258
80	0xbbb2f86e	-0.005461744
81	0xbb9def0c	-0.0048197564
82	0xb9f2506d	-0.0004621776
83	0x3e3ab0fd	0.18231578
84	0x3b8cd636	0.004297997
85	0x3ce2ea9c	0.027699761
86	0x3a1025cb	0.00054987957
87	0x3b137122	0.0022497852
88	0xbbe5499a	-0.0069972994
89	0x3c25d26d	0.01012097
90	0x3b836754	0.0040101204
91	0x3b851576	0.0040613962
92	0x3bc75ab2	0.00608381
93	0xbc498572	-0.012299882
94	0xbb5d456b	-0.00337633
95	0xbc04761e	-0.008084802
96	0x3c4e4b63	0.012591216
97	0xbbeb76c8	-0.0071857907
98	0x3bbf1b7e	0.0058321347
99	0x3bb0d648	0.005396638
100	0x3c30bc29	0.010787048
101	0xbc0c2440	-0.008553565
102	0xbb54e73f	-0.0032486466
103	0x3c35d27e	0.0110975485
104	0x3c6c08ca	0.014406392
105	0xbbbab92a	-0.005698343
106	0x3bce332e	0.006292722
107	0x3bdc6080	0.006725371
108	0xbc49adca	-0.012309501
109	0xbae2fa33	-0.0017316997
110	0xbb2e1428	-0.0026562307
111	0x3bc44a8f	0.0059903334
112	0x3af156cf	0.0018412712
113	0xbc45ffe8	-0.012084939
114	0xbc8a58fe	-0.016888138
115	0x3bc84ece	0.00611291
116	0xb70fa92b	-8.562852e-06
117	0xbc1ca6f3	-0.009561288
118	0xb90151b2	-0.00012332833
119	0x3d0e39a1	0.034722928
120	0x3c864e80	0.016394854
121	0xba37215b	-0.00069858663
122	0xbc76bcf1	-0.015059696
123	0xbb557973	-0.003257361
124	0xbc0176eb	-0.007901887
125	0xbb4b8416	-0.003105407
126	0x3b208607	0.002449395
127	0xbab1d916	-0.0013568725
