diag-ssm-charlm/experiments/tiny/epoch_099_valppl_6.08_valacc_0.5066.pt (torch, 236577 bytes, 19 tensors)

emb.weight f4 [74, 64]
000000 e0 26 39 3f 2d a1 79 3f 95 92 aa bf 14 36 1f bf
       0.72324944 0.9751156 -1.3325983 -0.6219189
000010 88 22 48 bf 2f 24 8f bf c4 5f 91 3f 84 aa 98 be
       -0.7817769 -1.1182917 1.135735 -0.29817593
000020 c4 2f 01 3e 18 bc f9 be 72 d1 4a 3f c5 87 23 40
       0.12615877 -0.48776317 0.7922584 2.5551617
000030 f6 64 8b 3f f6 6d 73 be 54 ee bd 3e 53 30 6c 3f
       1.0890186 -0.23772416 0.37095892 0.92261237
000040 71 fe 0e be e4 53 ac 3d 86 44 ab bc 2b b8 6c bf
       -0.13964249 0.08414438 -0.020906698 -0.9246852
000050 c0 b0 5e bf 0d 45 22 bf 7c a4 63 3f 57 2e be 3f
       -0.8698845 -0.63386613 0.8892286 1.4857892
000060 ab 14 91 3e b3 b4 15 3f 3e 55 0c bd 6a e7 91 bf
       0.2833608 0.5847885 -0.03426098 -1.1398747
000070 d1 4b 38 3e 48 6d b0 3e 1b f9 63 3e c5 ad b0 3f
       0.17997672 0.34458375 0.22262995 1.380303
000080 d4 9f 8a bf fe 36 11 c0 ca 52 41 3e d2 5f 58 3e
       -1.0830026 -2.2689815 0.18879238 0.21130303
000090 ca 76 9e 3f de d7 3d bf 64 68 82 be 4f d5 4c bf
       1.2380002 -0.7415751 -0.2547027 -0.80012983
0000a0 ea 26 95 3e fe a6 a3 be 66 a2 79 3f cc 0b d5 be
       0.29131252 -0.31963342 0.97513425 -0.41610563
0000b0 9b 97 10 be 5e 5c c6 3f e8 5f 98 be 3f 99 ea 3d
       -0.14120333 1.5496938 -0.2976067 0.114550106
0000c0 f2 2a 9b be 6b c5 e0 3f f2 ca 4a bf 05 96 22 3e
       -0.30306202 1.7560247 -0.7921592 0.1587754
0000d0 8a c1 08 bf 03 9d ce 3e a4 36 44 3f 87 a0 3d 3f
       -0.5342032 0.40354165 0.76645875 0.7407307
0000e0 2f 16 19 3e d7 ff 26 3f 96 92 62 3f 36 5e 38 bf
       0.14949869 0.6523413 0.8850492 -0.72018754
0000f0 05 e8 39 3f 6b df 19 bf eb 1f 22 bf a9 fc d1 3f
       0.7261966 -0.60106534 -0.6332995 1.6405231
000100 1d 89 dc 3e 88 e0 df be cf 81 ef 3e 4c ea a6 3d
       0.4307336 -0.4372599 0.46778724 0.08150157
000110 03 73 0e be 1d 44 06 40 36 2d d7 be c4 25 ab bf
       -0.13911061 2.0979073 -0.4202668 -1.33709
000120 58 1c 40 be be f7 e7 3f 0a c2 97 3f 64 a1 b7 be
       -0.18760812 1.812248 1.1856091 -0.3586532
000130 ee 72 96 be c8 55 2a bf d4 b4 1a 3f da 6a 9e bf
       -0.2938456 -0.6653714 0.6043217 -1.2376359
000140 57 f8 f1 bd 41 35 0b bf 53 34 17 bf 0f 08 3e 3e
       -0.11814945 -0.54378134 -0.59064215 0.18557762
000150 e8 f3 12 3f e6 c5 8c 3f 1c c5 96 bf 37 68 9a 3e
       0.5740342 1.0997894 -1.1778903 0.30157635
000160 ac a5 af 3d 60 04 c7 be 72 8f ca be 20 bc 0e 3e
       0.08576521 -0.38870525 -0.39562565 0.13938951
000170 4e 1e c1 3e 41 8d bd bc 54 2f 50 bf 7e 65 a6 3f
       0.37718433 -0.023138644 -0.81322217 1.2999723
000180 e3 3c a9 3e f2 aa c3 3e 24 d9 83 3f c0 a6 91 3e
       0.33054265 0.38216358 1.0300641 0.28447533
000190 72 c3 d5 3e 5f 62 31 bf 4a 04 49 3d ef 00 23 3f
       0.41750675 -0.6929073 0.049076356 0.636733
0001a0 86 e0 cf 3f cf 00 ba 3e 1a 9b a4 3f e2 0f 24 bf
       1.6240394 0.36328742 1.2859833 -0.64086735
0001b0 b2 d1 3d 3f 50 10 d1 3d a0 02 86 3f 7f ea 3a bf
       0.74148095 0.102081895 1.0469551 -0.7301406
0001c0 42 98 69 3e 47 0b 71 3f f7 03 b2 be 3a 06 cf 3f
       0.22811988 0.9415783 -0.3476865 1.6173775
0001d0 bd 1d 3e be 3d 70 b5 be 33 81 53 be 6d 62 bf 3f
       -0.18566032 -0.35437194 -0.20654754 1.4951912
0001e0 a6 80 d0 bf 41 33 56 3f 66 02 30 3f e7 f9 bd bf
       -1.628926 0.8367196 0.6875366 -1.4841889
0001f0 fd 44 a1 bf 2c 0c c7 be af 20 d6 bf 0d bc c7 3e
       -1.2599179 -0.38876474 -1.6728724 0.3901066
000200 db 80 4b bf e0 2b 4c be 10 d7 7b 3f 91 7f 88 3d
       -0.7949349 -0.19938612 0.98375034 0.06664956
000210 24 85 c0 3f 90 91 51 be fe d3 da 3e 1c b9 51 3d
       1.5040631 -0.20465684 0.42739862 0.051201925
000220 1b e8 22 be 4b 56 cd bb 41 02 b7 3d 4b dc 5f 3f
       -0.15908854 -0.0062663904 0.08935977 0.87445515
000230 6a 7a a4 bf bc e6 ee 3e e5 c3 46 bf 2e 80 d4 be
       -1.2849858 0.4666041 -0.7764266 -0.41504043
000240 f1 f9 a1 3e 51 07 e7 be 2f 4d 0b 40 ea 5b dc be
       0.31636003 -0.4512277 2.176586 -0.43038875
000250 9e 82 0a c0 78 5b c0 3f 22 fe a4 3e f4 79 dc 3e
       -2.1642222 1.5027914 0.32225138 0.43061793
000260 ce 53 8c bf 4f 72 84 39 63 57 7a bf ea a7 3a 3f
       -1.0963075 0.00025262168 -0.9778959 0.72912467
000270 c2 c3 9c 3e 71 cd d3 be 52 16 4a 3e 86 20 b7 bf
       0.306181 -0.41367677 0.19735077 -1.43068
000280 a2 67 a3 bf 80 ae e3 3e 78 01 fe 3e 4f bd 67 3f
       -1.2766001 0.4446907 0.49610496 0.90523237
000290 ff 8d 42 bf 04 ee d7 bf cb 52 0a 3f 32 d0 e1 3d
       -0.7599792 -1.6869512 0.5403258 0.11026038
0002a0 11 bd ee 3d 89 8f 96 bf 6f 8b fd bf 78 06 1d 3f
       0.11657155 -1.1762553 -1.9808177 0.61337996
0002b0 fb e2 07 c0 46 a7 13 3f 4d 95 8d 3f e9 d6 d1 be
       -2.1232288 0.57677114 1.1061188 -0.40984276
0002c0 f6 7e d9 bf 6c d3 19 bb 6c 4f b1 bd 6d 9b 29 bf
       -1.699187 -0.0023471965 -0.08657727 -0.66252786
0002d0 53 56 a1 bf 0e 48 85 bf ad 26 f9 bf 74 4f ac be
       -1.2604469 -1.0412614 -1.9464928 -0.33654368
0002e0 39 7c 03 3d a5 a3 f8 3d b8 8e 09 3e 86 59 58 bf
       0.03210089 0.12140588 0.13433349 -0.845116
0002f0 19 b8 28 3f 8e 1f b4 be 4d 5a de bf e4 4e cf be
       0.6590591 -0.35180324 -1.7371308 -0.40489876
000300 cc 30 85 bf da f2 cf bf 04 ea 1a 3f 9f 4b 07 3f
       -1.0405517 -1.6245987 0.6051333 0.52849764
000310 19 de 4e bf 8a 6e f7 bf 41 07 22 3f fd b9 55 bf
       -0.80807644 -1.9330609 0.6329232 -0.8348692
000320 9d 68 b0 bf 45 b1 83 3f 0b b0 a3 3f 43 ef d1 3f
       -1.3781925 1.0288473 1.2788099 1.6401142
000330 f8 91 af be 98 0c 0f 40 bb da 56 bf 96 70 46 3f
       -0.34291053 2.2351437 -0.83927506 0.7751554
000340 52 90 23 40 47 1f b3 3f 59 1b eb 3d 3b b7 ee 3f
       2.5556836 1.399392 0.114798255 1.8649668
000350 e9 6b e3 be 56 e0 ea bf b5 f9 7d 3f 7f 4c 3d 3f
       -0.44418266 -1.8349712 0.9920915 0.7394485
000360 dc 14 d6 be b2 96 49 c0 cd 08 33 bf eb 51 bd be
       -0.4181279 -3.1498227 -0.69935304 -0.3697656
000370 89 26 29 40 33 3e b5 bf 86 81 b9 bf 39 bb 2a c0
       2.642977 -1.4159607 -1.4492652 -2.6676772
000380 fb 23 d4 3f 46 fb c5 bf ed 5d c7 3e 5a a8 1f 3f
       1.657348 -1.5467308 0.38938847 0.6236626
000390 9e 47 7e bd f2 e0 c4 3e e1 1d ff 3f 66 0e 09 40
       -0.06208002 0.3845287 1.9930993 2.1415038
0003a0 4c 36 44 40 c1 32 42 bf d3 82 cf 3f eb 65 05 40
       3.065814 -0.75858694 1.6211799 2.0843456
0003b0 78 f4 ab be 39 d9 3f c0 ea d8 12 40 38 f3 93 bf
       -0.33584952 -2.9976332 2.2944894 -1.15586
0003c0 b9 04 4d be ac 50 67 40 50 26 c9 bf 52 8d c2 3e
       -0.20021333 3.6142988 -1.5714817 0.37998444
0003d0 7e 3e 8b bf 41 aa ed 3f f3 67 9b 3f 37 11 42 c0
       -1.0878446 1.8567582 1.2141098 -3.0323007
0003e0 a8 cd 23 be 9b 0c 4b 3c 67 a3 d3 3e 5c 9a 86 bf
       -0.1599642 0.012393142 0.41335604 -1.0515857
0003f0 0c a3 5e 3f cc 0d 5d bf fa c1 8a 3f 8c 70 e7 bf
       0.8696754 -0.8634918 1.0840447 -1.8081222

input_proj.weight f4 [128, 64]
000000 f2 6a ff 3c d2 f4 d5 bd 92 e6 49 3c 37 3a 94 bd
       0.031178925 -0.104470864 0.012323039 -0.07237666
000010 a7 52 e0 bc 90 30 06 3e 3a 2e 73 bd 6d b7 cd 3d
       -0.027383162 0.13104463 -0.059370257 0.10044751
000020 31 c5 a9 3d ce 5e 83 3d a3 bf 0f 3e 79 10 e3 bd
       0.082895644 0.06414567 0.14037947 -0.11087126
000030 e9 9c 3a 3d 74 bf 31 3c 95 bf cc bd 04 fb 02 bd
       0.045559797 0.010848869 -0.09997479 -0.03197767
000040 8e b6 de 3b 02 2c c2 3c 1d 82 b0 bd a1 ac c7 3d
       0.0067966646 0.023702625 -0.08618567 0.09749723
000050 e3 6a 1e bd 45 da 40 bc 01 83 e3 bc d7 c6 da bd
       -0.038676154 -0.0117707895 -0.027772428 -0.10682457
000060 f9 23 08 3d 49 5a f6 bc 46 5d 4a bd 31 c7 ff bc
       0.03323743 -0.030072348 -0.04940536 -0.031222912
000070 3b 0f 93 3c 3a f8 1f 3d bb db 18 be 4d d4 d3 3c
       0.017951598 0.039055087 -0.1492757 0.025858069
000080 fe 0c f4 bd d9 ee 6a bc 01 dc f7 bb 4b 67 df bd
       -0.119165406 -0.014339172 -0.0075640683 -0.109083734
000090 01 08 10 be 83 98 93 3c c0 b3 b2 3c ba d6 07 3e
       -0.14065553 0.01801706 0.021814227 0.13265505
0000a0 cf 1d 83 3d 49 d1 8e 3d 57 7f 3e bd 24 4c 74 3d
       0.0640217 0.06973512 -0.04650816 0.059642926
0000b0 86 32 ba 3d 49 33 f2 bd 2e b5 3b bd a0 bb 8e bd
       0.09091668 -0.11826188 -0.045827083 -0.069693804
0000c0 87 3b 41 bd f3 fb 22 bd f3 3b 35 3d 86 9e ee ba
       -0.04717591 -0.03979106 0.044246625 -0.0018205203
0000d0 fc 3f 21 bd eb 61 3a bd 01 eb 97 3c 68 3e 07 bc
       -0.03936766 -0.045503538 0.018544676 -0.008254625
0000e0 ae 3e f5 bd 99 0e 21 be ea 71 8d 3c 02 7e f6 bd
       -0.11974846 -0.15728225 0.017266233 -0.12035753
0000f0 6c fb f2 3d d1 c3 e6 bd 07 6f 97 3d d3 21 be bd
       0.11864361 -0.11267818 0.07394224 -0.09283795
000100 2e a0 8f 3a dd 4f a3 3c 1b 85 49 ba d3 9b b3 3c
       0.0010957771 0.019935543 -0.0007687376 0.021924889
000110 6c e8 48 bc 42 dc 30 3e 71 e9 2f be c1 c6 f0 bd
       -0.012262445 0.17271522 -0.17178895 -0.11756659
000120 eb 46 68 bd a4 b3 36 3d 45 b3 aa 3c f0 19 0e bd
       -0.056708258 0.044604912 0.020837435 -0.034692705
000130 e9 94 93 3d b6 be c0 3d 39 de 0a 3e e0 f2 f5 bd
       0.07206137 0.09411375 0.13561334 -0.12009215
000140 31 3c e2 3d ab 71 6c 3c d0 8c 3b bd 8d 59 07 bd
       0.11046637 0.014431397 -0.045788586 -0.033044387
000150 31 4d 19 bd 2b c0 38 bd 92 01 cb 3b 5c a2 43 bd
       -0.03742713 -0.04510514 0.0061952556 -0.04776226
000160 d1 a1 67 3d c0 e4 51 3d 96 51 cc 3c b4 2a 37 bc
       0.056550805 0.051243544 0.024941247 -0.011179615
000170 d6 9e 03 3e 83 4f f3 3d 31 27 9a b9 e8 82 c1 3d
       0.1285356 0.118804 -0.0002940237 0.094487965
000180 0d 5f ba bc 12 4e 53 bd d2 05 ca 3d 9e b2 81 3b
       -0.022750402 -0.051588126 0.098643914 0.0039580604
000190 5f 73 fc bd 77 30 05 bc 2c d2 d9 3c 05 24 d7 bd
       -0.12326693 -0.008129231 0.026589476 -0.10504917
0001a0 a6 7e fa 3b ef 43 81 bc a5 2c 9d 3b 5a 92 81 bc
       0.007644492 -0.015779464 0.004796582 -0.015816856
0001b0 3d 1a 27 3c c6 6b 02 be 3e 9e 39 3d 22 0e 8f 3d
       0.010199127 -0.12736425 0.045316927 0.069851175
0001c0 be 35 72 bc d7 d1 11 be 19 3b 98 bd 91 29 41 3d
       -0.014783321 -0.14240204 -0.07433147 0.04715878
0001d0 c7 73 eb bc c2 91 a0 bd 2a b6 f9 3a 2f eb 51 bb
       -0.02874173 -0.07840301 0.0019051482 -0.003203105
0001e0 3d f0 ef bc 16 3d b7 bd 81 d1 10 bd 52 7b e4 bc
       -0.02928936 -0.08947198 -0.03535605 -0.027890835
0001f0 3b 76 b9 3c 85 9c 57 3d 3c a4 9d 3d b7 9c ad 3c
       0.022639384 0.052639503 0.07697341 0.021192892
000200 14 3e 2d 3e f0 b6 46 3d cd 33 65 3a 7d d3 9a b9
       0.16918212 0.048514307 0.00087433757 -0.0002953074
000210 fa 2e fe 3d b5 0b 8e bd fd 67 4b bd 49 86 20 bc
       0.12411304 -0.06935827 -0.049659718 -0.009797641
000220 f9 27 b6 bd 85 22 f8 3b c1 5d 10 bd e4 85 fa bc
       -0.08894343 0.0075724744 -0.03524566 -0.030581422
000230 26 34 39 be 09 29 ce 3d 5e 45 e1 bc be 13 ed bc
       -0.180863 0.100664206 -0.027498897 -0.028940078
000240 82 72 1e 3e ff e8 6d bd a9 1e cd 3d 71 41 00 bd
       0.15473369 -0.05808353 0.100156136 -0.03131241
000250 83 5d a4 bc b5 a7 81 3c 59 ec 94 bd a4 73 64 3c
       -0.020064121 0.01582704 -0.07271642 0.0139435865
000260 35 05 6a 3d 3b c2 c0 3c 29 2b 17 bd 4c 48 39 3d
       0.057133872 0.023530116 -0.036906395 0.045234963
000270 b7 73 dc 3d 49 01 ac bc 9b a1 e0 bc ca 31 b6 bd
       0.10764258 -0.020996707 -0.02742081 -0.08896215
000280 2d 85 4f 3c 74 18 2a bd 05 ba 8e 3d 5c 7f 02 3e
       0.012666029 -0.041527227 0.06969074 0.12743896
000290 12 de 6a bd b9 88 d4 bb 67 2f 58 3d 09 1a e4 3d
       -0.05734069 -0.006486025 0.05277958 0.11137778
0002a0 f3 0d 4b bc 6d 71 10 bd a4 4d 09 3d f4 ed 16 3d
       -0.0123934625 -0.03526442 0.03352131 0.036848024
0002b0 3c a2 6f 3c ae 30 25 bd 48 59 f0 3d 53 d5 29 bc
       0.014626082 -0.040329628 0.11735779 -0.010365802
0002c0 12 09 01 be 30 31 ee bc 1a 3a 05 3d 6a 0c 8d 3c
       -0.12601116 -0.029076189 0.032526113 0.017217834
0002d0 16 3d 18 bd 7d 3d 1a 3c 58 17 49 bd e2 45 b4 3d
       -0.03716763 0.009414074 -0.049094528 0.088023916
0002e0 b6 39 75 3c 1b 57 5f 3d 50 34 b1 bc f4 01 0d bd
       0.014967373 0.05452643 -0.02163139 -0.03442569
0002f0 54 de d5 3c ca 47 33 bc 5f 59 84 bd 38 f0 2b bc
       0.02610699 -0.010942409 -0.06462359 -0.010494284
000300 16 57 2a bd af 87 71 bd 5a 98 5c 3c 36 20 29 3d
       -0.041586958 -0.05896729 0.013464058 0.041290484
000310 bd 8e 01 3d c3 41 74 bd c2 fc fc bc 42 0b 35 3c
       0.031630266 -0.059633028 -0.030882243 0.011050047
000320 eb 0d 86 3d a5 95 e9 bc 28 ba b9 3d f9 f0 13 3d
       0.065456234 -0.028513739 0.090687096 0.03611848
000330 b1 9a 50 bc 15 8f ca 3d 22 9a b2 bc 4a 39 5d 3c
       -0.012732194 0.09890572 -0.021802012 0.013502428
000340 69 13 af ba dd 30 ce bd 8c 5a 89 39 cd 08 26 bb
       -0.0013357225 -0.10067914 0.0002619814 -0.0025334836
000350 e1 9b c0 bc bf 0a fc bc e5 a0 af 3c 1f ff 18 bd
       -0.023511829 -0.030766843 0.021439025 -0.037352677
000360 85 5e 41 3d 05 b9 1a bd e1 43 b1 bb aa f7 b8 3c
       0.04720928 -0.037774105 -0.005409703 0.022579033
000370 e6 62 63 3c 99 ac 42 bd fe ab d0 bb 97 46 4b 3c
       0.01387856 -0.047527883 -0.0063681593 0.012406967
000380 0d ee 9c bd 06 94 74 bd e8 26 3a 3d 3c c6 b5 3c
       -0.07662592 -0.05971148 0.04544726 0.022189252
000390 e6 1e 94 bd 91 4c 91 ba 5b 91 5a bc bf aa a4 bd
       -0.07232456 -0.0011085441 -0.0133403195 -0.0804038
0003a0 62 70 9d 3c 14 0c 50 3c 92 36 33 3d 72 50 9e bd
       0.019218627 0.012698192 0.043753214 -0.077301875
0003b0 1f 6f 05 bd 6b 1a 5a 3d 58 01 53 3d db a9 97 3c
       -0.032576676 0.05324785 0.051514953 0.01851361
0003c0 ce 86 a1 3c 82 dc f7 bb 39 9e 10 bd 94 b3 bb bc
       0.0197176 -0.0075641284 -0.035307143 -0.022912778
0003d0 bd 1d 47 bd 73 7c 0c 3d 88 b6 b2 3c 5f 64 81 bc
       -0.048612345 0.03429837 0.021815553 -0.015794931
0003e0 72 7c e7 bb f7 ee 99 3b 88 b0 05 bd b9 d7 d3 3c
       -0.0070643956 0.0046976763 -0.032639056 0.0258597
0003f0 13 50 20 bd eb c6 78 3c 79 6b 31 3d 9e c9 04 3d
       -0.039138865 0.0151841445 0.043315385 0.03241884

input_proj.bias f4 [128]
000000 5c a2 32 bd 31 4e 1d 3e 34 18 20 bd 5e 4c 57 bc
       -0.04361187 0.15361859 -0.039085582 -0.013140766
000010 fc 72 e1 3b 26 cf e5 bd 32 ef 34 3c f4 da e3 3d
       0.0068801623 -0.11221151 0.011043357 0.11125746
000020 b2 46 20 3b 11 ff 00 bd ee b2 1f bc bb d0 9d bd
       0.00244562 -0.03149325 -0.00974725 -0.07705828
000030 13 f3 29 3d ee 05 e7 3c 20 2b d7 3d a2 c5 4e 3d
       0.04149158 0.02820107 0.10506272 0.050481446
000040 9c 1a f3 bc 22 34 8c bc 14 a2 c6 3d 0c 7e 2d bd
       -0.029675774 -0.017114703 0.09698883 -0.042356536
000050 31 2a ce 3c 43 7f 58 bd 22 53 74 bd 22 1b 12 bc
       0.025166603 -0.05285574 -0.059649594 -0.008917602
000060 65 3d 08 be ba c7 7f 3d f3 02 37 bd 76 a4 35 bc
       -0.1330467 0.062446333 -0.044680547 -0.011086574
000070 bc 33 2d bd 0f da 78 bd 1c cb 43 3b 74 c1 06 bd
       -0.042285666 -0.060754832 0.0029875701 -0.032899335
000080 88 2b 12 be 8f 54 4b 3d 20 f5 c5 bc da a4 9c bd
       -0.14274418 0.04964119 -0.024164736 -0.076486304
000090 9f e2 13 be 3d 11 36 3d ca e8 0c bd 65 31 d4 3d
       -0.14441918 0.044450033 -0.034401692 0.10360984
0000a0 b1 3e f2 bd 06 ec 3e bc 27 6b af 3d 4a 56 90 bd
       -0.11828364 -0.011652952 0.085653596 -0.07047708
0000b0 79 95 a0 3d 68 73 88 bd 5c 85 ec bd 7d c3 c9 3d
       0.0784101 -0.06662637 -0.11548874 0.098517396
0000c0 9f c8 2f 3e 27 a7 39 bc 67 a6 bb bd fd 6a 94 bd
       0.17166375 -0.011331356 -0.09162598 -0.07246969
0000d0 e3 39 ec 3d 80 44 39 bb 34 a5 64 be 38 3a 03 3d
       0.115344785 -0.002826959 -0.22328645 0.032037944
0000e0 20 57 d2 bd 42 19 b0 bd 40 d9 45 3e 17 b0 c9 bd
       -0.10270524 -0.085985675 0.19321156 -0.098480396
0000f0 15 1f be bd 06 bb 87 bd 12 d3 dc 3d 13 09 d8 3d
       -0.09283272 -0.06627469 0.10782446 0.10548606
000100 f9 d3 2a be 73 4e 71 3d e5 aa 50 bd 44 30 06 3e
       -0.16682424 0.058912706 -0.050944228 0.1310435
000110 cb f1 00 bd 5c 5b 2b 3c 39 4e b0 3c 7e 51 f9 3c
       -0.03148059 0.0104587935 0.021521674 0.030434366
000120 1a 6b 5c be 29 a5 09 3e ef 2b e2 bd de 8e 4e 3d
       -0.21525231 0.1344191 -0.11043536 0.050429218
000130 00 4f d7 3c 05 36 7e bd 8f fa 6e 3e 09 d6 9f 3c
       0.026282787 -0.062063236 0.23337768 0.01951124
000140 23 8b b7 bd ac 12 e5 bd c6 1c 9b 3c 7e ed 22 3e
       -0.08962085 -0.11185202 0.018934619 0.15910909
000150 d3 c7 4e 3d bc 27 68 3d 87 d3 1b be 88 3b 74 3d
       0.050483536 0.05667852 -0.1521741 0.059627086
000160 5f ac d4 38 9e 3f e3 3d c5 9e 91 3c ec 85 39 3d
       0.000101410544 0.110961184 0.017775903 0.045293733
000170 53 4f 82 bd b1 cc b3 bd 07 d6 27 be c8 63 b1 bd
       -0.06362786 -0.08779276 -0.16390239 -0.0866161
000180 e4 b9 15 3c 5e 4d a2 ba a9 97 85 3b e3 7c ce bd
       0.009138558 -0.0012382676 0.004076917 -0.10082414
000190 7a 89 67 3c 77 6b a3 bd f4 af 28 be 00 5c ed bc
       0.014131898 -0.07979482 -0.16473371 -0.028974533
0001a0 d6 f9 e5 3c ab 0e 3f bd d0 3a d6 bd c2 7e 67 bd
       0.028073233 -0.046644848 -0.10460436 -0.05651737
0001b0 1d b9 b4 bd 0e 9b fe bd 19 f7 2f bc be ac 06 3e
       -0.0882437 -0.12431918 -0.010740065 0.13151833
0001c0 d7 96 00 3d cc d4 a0 bd 1f 1d 01 3d 14 d4 50 3c
       0.031393852 -0.07853088 0.031521913 0.012745876
0001d0 57 0e 50 bc 7b 43 4c be 28 97 33 3e e0 b3 8b 3d
       -0.012698731 -0.19947617 0.1753813 0.06821418
0001e0 ef c9 56 bd 2f 64 cd bd 05 98 bd bd 5a 78 96 bd
       -0.052438673 -0.10028874 -0.09257511 -0.07347174
0001f0 1f 16 cf bd 06 67 2f bd 1e 99 e3 bd 28 4b ba bd
       -0.10111641 -0.04282286 -0.11113189 -0.09096366

layers.0.a f4 [128]
000000 37 22 10 3f 46 82 0f 3f b4 17 1d 3f c3 ae 2a 3f
       0.5630221 0.56058156 0.61364293 0.66672915
000010 d8 e8 0e 3f 94 14 78 3f c9 1a 11 3f e3 b0 13 3f
       0.5582404 0.969064 0.56681496 0.5769178
000020 e3 a7 15 3f 88 bd 08 3f 41 91 12 3f 27 bb 36 3f
       0.584593 0.534142 0.5725289 0.7137932
000030 82 f0 14 3f 39 8d 06 3f ea 1a 14 3f a5 a4 17 3f
       0.58179486 0.5255924 0.5785357 0.592356
000040 c0 fb 09 3f b4 6b 10 3f 00 ba 07 3f 16 92 10 3f
       0.53899765 0.5641434 0.5301819 0.5647291
000050 50 dc 6f 3f e0 29 18 3f 7c 5f 1f 3f 6d 45 1c 3f
       0.93695545 0.59438896 0.6225507 0.61043435
000060 df ce d7 3e 41 4b 1f 3f f4 9b f5 3e ed d9 0f 3f
       0.42150018 0.62224203 0.47970545 0.56191903
000070 53 dc 0a 3f fc dc 14 3f bb 06 10 3f 0f b1 12 3f
       0.5424244 0.58149695 0.5626027 0.5730142
000080 43 54 f1 3e a7 98 09 3f 54 aa 1c 3f 13 00 09 3f
       0.471346 0.53748554 0.611974 0.5351574
000090 63 ba 0f 3f 37 c1 04 3f 98 85 14 3f b4 b5 0c 3f
       0.5614378 0.5185732 0.5801635 0.54964757
0000a0 ff 9d 30 3f 74 7b 1c 3f 35 05 13 3f e1 7d f2 3e
       0.6899108 0.61125875 0.5742982 0.47361663
0000b0 ae 41 0f 3f fe 88 06 3f 24 a8 1f 3f a2 bd 2e 3f
       0.55959594 0.52552783 0.6236594 0.68258107
0000c0 ca c4 2c 3f 49 a3 2f 3f fe a6 0c 3f f5 94 0b 3f
       0.67487776 0.6860853 0.5494231 0.54524165
0000d0 5a 06 0f 3f e8 35 2a 3f ab 2e 1f 3f a5 5f 2a 3f
       0.55869067 0.66488504 0.62180585 0.6655219
0000e0 c0 c5 1d 3f d1 26 15 3f e7 9c 19 3f 05 bb 03 3f
       0.6162987 0.58262354 0.6000504 0.51457244
0000f0 a9 d1 1c 3f c1 fd 04 3f 63 13 08 3f 30 9e 17 3f
       0.61257416 0.519497 0.5315458 0.5922575
000100 90 92 0d 3f 8d ce 08 3f 50 54 10 3f 8a 79 25 3f
       0.5530176 0.5344017 0.5637865 0.6463858
000110 00 0b 1b 3f df cb 10 3f 0b 53 7c 3f 5b c9 05 3f
       0.6056366 0.5656108 0.98564214 0.5226037
000120 70 76 10 3f cd 3e f5 3e 34 46 12 3f c9 b3 1a 3f
       0.5643072 0.47899476 0.5713837 0.6043058
000130 8c 85 19 3f a0 a4 17 3f 35 aa 20 3f 0a 11 0e 3f
       0.599694 0.5923557 0.62759715 0.5549475
000140 e0 69 0b 3f e9 2a e0 3e 1c 17 13 3f a9 d4 23 3f
       0.5445843 0.43782738 0.5745714 0.6399637
000150 be 7a 24 3f 01 6a 2b 3f 6d a7 b2 3e 56 6b 02 3f
       0.6424979 0.66958624 0.3489336 0.5094503
000160 b4 03 06 3f 26 97 16 3f 75 4d 10 3f 7d 54 f0 3e
       0.523494 0.58824384 0.5636819 0.4693946
000170 5b 79 05 3f 46 c4 05 3f a1 1a 17 3f 99 50 18 3f
       0.521383 0.52252614 0.5902501 0.5949798
000180 64 b3 20 3f 65 2c 13 3f 67 d6 11 3f 57 17 f3 3e
       0.6277373 0.57489616 0.56967777 0.47478744
000190 5d 30 19 3f b5 f5 1f 3f 78 a1 18 3f 00 65 18 3f
       0.5983942 0.62484294 0.5962138 0.59529114
0001a0 d1 65 1a 3f fd bb 17 3f 31 c1 18 3f 4f b4 0f 3f
       0.6031161 0.5927122 0.59669787 0.56134504
0001b0 da 34 04 3f ef 3c 13 3f 85 67 18 3f 58 35 12 3f
       0.51643145 0.5751485 0.5953296 0.57112646
0001c0 1d 31 1d 3f 67 52 13 3f ad 65 0e 3f 65 ad 0c 3f
       0.61403066 0.5754761 0.55623895 0.5495208
0001d0 ac 00 02 3f d1 1b 03 3f 30 d6 28 3f c7 92 0e 3f
       0.50782275 0.5121432 0.65951824 0.55692714
0001e0 8b 33 10 3f e6 c7 ff 3e db 6c d8 3e 4d 0e 06 3f
       0.5632865 0.49957198 0.4227055 0.5236557
0001f0 bb 75 11 3f c5 ca 10 3f bd f0 02 3f 0e 11 10 3f
       0.5682027 0.565594 0.5114859 0.56276023

layers.0.b f4 [128]
000000 2a 1a 16 3e f2 58 8a 3e b6 3b 2f 3e 36 3d 0f 3e
       0.14658418 0.27020985 0.17112622 0.13988194
000010 1b 3e 06 3e 31 25 d1 bc 50 c3 f5 bd dc 83 10 3e
       0.13109629 -0.02553043 -0.120001435 0.141128
000020 6a ce 34 be 69 81 f5 bd 87 a9 10 be a4 63 84 be
       -0.17656866 -0.11987574 -0.1412717 -0.2585727
000030 81 73 25 be 68 21 51 3e f0 43 52 be 30 4d 67 be
       -0.16157342 0.204229 -0.20533729 -0.22588038
000040 72 9a 78 3e 81 fa 1f be e7 08 8e be e9 76 38 3e
       0.24277666 -0.15622903 -0.27741167 0.1801411
000050 16 dc 94 bd 63 87 2e 3e 8a f7 51 be a5 ea 80 3e
       -0.072685406 0.17043833 -0.20504585 0.2517902
000060 0d 97 ad be 99 77 36 3e f3 92 30 be db 34 2e 3e
       -0.33904305 0.1781906 -0.17243557 0.1701235
000070 aa b5 09 3e 62 9b 5d be 94 cc 2d 3e 99 2a 19 be
       0.13448206 -0.21641305 0.16972572 -0.14957656
000080 1c 18 11 3e 34 fa 16 be 47 68 a8 be 92 19 38 be
       0.14169353 -0.14743882 -0.32892057 -0.17978504
000090 80 86 38 3e a8 cc 17 3e 34 31 2f be 52 49 12 be
       0.18020058 0.14824164 -0.17108613 -0.14285782
0000a0 c8 24 06 3e fc 74 45 3e 60 7e 9f be 75 d2 5c 3e
       0.13099968 0.19282907 -0.31151104 0.21564658
0000b0 81 6c fa 3d 1d 72 07 be 62 af 59 be c2 b8 4c be
       0.12227727 -0.13227125 -0.2125831 -0.19992355
0000c0 97 03 7f 3e 45 0b 72 3e 8f 95 12 be f1 c4 ae 3e
       0.24903713 0.23637111 -0.14314865 0.3413463
0000d0 52 ae 09 be e3 41 5d be 37 6b fe bd ee 9e 35 3e
       -0.13445404 -0.21607165 -0.12422793 0.17736408
0000e0 63 57 ff bd 53 7d 57 be 75 ae 37 3e 89 b0 1f be
       -0.124678396 -0.21043901 0.17937644 -0.15594687
0000f0 36 ff 2c 3e b4 8b 0c be 7c 59 48 3e c0 a9 08 be
       0.1689423 -0.13725168 0.19565386 -0.13346004
000100 e5 d4 14 3e 48 f1 78 3e b0 db cd 3d 2d 76 38 3e
       0.14534338 0.24310791 0.10051668 0.1801383
000110 27 c5 e3 bd 65 06 4c be a4 63 48 3d 9b 9d 1a 3e
       -0.11121588 -0.19924314 0.04892315 0.15099184
000120 2f ef 23 be 73 66 1a 3e e6 4d 4f be dd 3a 25 be
       -0.1600921 0.15078144 -0.2024456 -0.16135736
000130 54 da da 3d 28 c4 80 3e ae 5f 0d 3e 05 c9 41 3e
       0.10686174 0.25149655 0.1380603 0.18924339
000140 44 f2 10 3e 45 7e 0b be 9e 1d 3d be af 19 37 3e
       0.14154917 -0.13622387 -0.1846833 0.17880891
000150 f0 e8 52 be 2c 6f 60 3e 19 24 b9 be 29 d8 6c 3e
       -0.20596671 0.21917409 -0.36160353 0.23129334
000160 3a 78 53 be 8d a6 50 3e 78 6d 4c 3e fe a6 27 be
       -0.20651332 0.20376034 0.19963634 -0.16372296
000170 e0 a8 38 be 54 f6 80 3e c9 27 5f be 57 1c 28 be
       -0.1803317 0.25187933 -0.2179252 -0.16417061
000180 6b 51 76 3e 0c 8d 13 3e a3 96 98 3e c9 1b 8c be
       0.24054496 0.14409274 0.29802427 -0.27364948
000190 e1 64 41 be cf a7 29 3e e8 ad 19 3e 53 be 00 3e
       -0.18886138 0.1656792 0.15007746 0.12572603
0001a0 23 cf 70 be 78 f2 41 3e 3e 8f 59 be 92 e6 6f be
       -0.23516516 0.1894015 -0.21246049 -0.234278
0001b0 e6 a4 16 be 3c d8 1a 3e c5 bb 41 be 49 45 11 3e
       -0.14711341 0.1512155 -0.18919285 0.14186586
0001c0 69 45 2d be 19 57 36 be cd 08 d7 3d 99 52 35 3e
       -0.16921009 -0.17806663 0.104997255 0.1770729
0001d0 a2 cd 3b be 78 ec 82 3e 27 87 4d 3e 9a 28 28 3e
       -0.18340161 0.25571036 0.20071088 0.16421738
0001e0 bc d7 01 3e 87 d9 75 be 79 1a 2a 3e 3f 60 77 3e
       0.12679952 -0.24008761 0.16611661 0.24157809
0001f0 a6 38 19 3e 76 cc 3d 3e 57 d8 45 be e5 18 17 3e
       0.14963016 0.18535027 -0.19320808 0.1475559

layers.0.c f4 [128]
000000 0f f4 4e be d6 f9 24 3e 3a fc 3e be c6 2c 6b 3e
       -0.20210288 0.1611093 -0.18650904 0.22966298
000010 65 0b 5f be a4 45 20 be 14 28 74 3e 8c 2f 87 be
       -0.2178169 -0.15651566 0.23843414 -0.26403463
000020 28 08 29 3e e8 56 89 3e 7b 9e 33 be 36 42 bc 3d
       0.16507018 0.26824117 -0.17540924 0.09192316
000030 8e 2c 01 3e d9 60 07 be d0 d5 57 be d3 c5 e9 3d
       0.12614653 -0.13220538 -0.21077657 0.11414685
000040 3f f8 f4 bd 32 2a 19 be 4e 6a ea bd c5 be f5 3d
       -0.11961412 -0.14957502 -0.11446057 0.11999277
000050 8b b2 ea bd 19 7c 6e be 8c fd 17 3e 17 f0 06 3e
       -0.114598356 -0.23289527 0.14842814 0.13177525
000060 00 0c 16 be 1e 1f 24 3e a0 72 17 be c4 bc 36 3e
       -0.14653015 0.16027495 -0.1478982 0.17845446
000070 6b f7 48 be d3 2b 15 be 2b 16 08 be 68 88 4c be
       -0.19625632 -0.14567499 -0.13289706 -0.1997391
000080 91 58 83 3e 71 00 51 be 91 5b d0 3d 89 d9 21 be
       0.25653508 -0.20410325 0.10173715 -0.1580564
000090 7b df 08 3e 87 d5 2d 3e 91 a1 20 3e 8d 51 94 3e
       0.13366501 0.16975985 0.15686633 0.28968468
0000a0 2b 25 36 be ec 2e 24 be 68 37 0b 3e 81 43 23 be
       -0.17787616 -0.16033524 0.13595355 -0.1594372
0000b0 2c 22 86 be 41 9d 90 be da eb 19 be f2 d9 25 3e
       -0.26197946 -0.28244975 -0.15031376 0.16196421
0000c0 34 78 ed 3d bd 78 1a 3e b4 33 6b be eb 83 5a 3e
       0.115951926 0.1508512 -0.22968942 0.21339385
0000d0 f6 38 89 be 30 8a 07 be 91 62 15 be 65 20 2d be
       -0.2680127 -0.13236308 -0.14588381 -0.16906889
0000e0 35 a6 9e be 8d d4 0b 3e c1 2f 1c 3e a2 a7 6f be
       -0.3098618 0.136553 0.15252592 -0.2340379
0000f0 63 f5 00 3e 22 11 41 be d8 e5 06 be 85 3a 57 be
       0.12593608 -0.18854192 -0.13173616 -0.21018417
000100 2a ec 8f be 9b 5c 04 be 60 e1 8b 3e 1a 36 28 be
       -0.28109866 -0.12925951 0.27320385 -0.16426888
000110 b8 ff 79 be 4a 23 0e 3e a2 4d cb 3d 64 db 40 be
       -0.24413955 0.13880649 0.09926917 -0.18833691
000120 44 38 0e 3e 27 bf 40 be 29 d0 04 be 66 fd 39 3e
       0.13888651 -0.18822919 -0.12970032 0.1816307
000130 2b 31 7b be c2 de c4 bd c4 5a 87 be bb 74 1f be
       -0.24530475 -0.096128 -0.26436436 -0.15571873
000140 83 30 3d 3e 8b be 6f be e6 a4 19 3e 5e ab 98 be
       0.18475537 -0.2341253 0.1500431 -0.29818243
000150 47 2e 12 3e e2 90 4a 3e 1b d2 d4 3e a2 40 db 3d
       0.14275466 0.19781831 0.41566548 0.10705687
000160 34 9e 0e be 07 e4 49 be 62 f6 14 3e b8 b9 4c 3e
       -0.13927537 -0.19715892 0.14547113 0.19992721
000170 bf be 52 be b5 0b f6 bd 26 8b 3b be f4 a1 35 3e
       -0.20580576 -0.12013952 -0.183148 0.17737561
000180 d4 f7 63 3e f4 46 65 be 63 ea c8 3d 5d 80 ba bd
       0.22262508 -0.22390348 0.09810331 -0.091065146
000190 db 96 6e be 51 33 16 be 07 cb 1f 3e 2e 09 2d 3e
       -0.23299734 -0.14668013 0.15604793 0.16898033
0001a0 b2 96 ed bd e2 bb 2d 3e 77 4a 1f be c3 41 49 be
       -0.116010085 0.16966203 -0.1555575 -0.19653992
0001b0 6b ae 81 be 11 75 85 3e 2a 2e 2d be b2 f1 53 3e
       -0.25328383 0.26065877 -0.16912141 0.20697668
0001c0 6d e3 46 3e 9a 17 4f be b9 32 8f be 67 20 1a be
       0.19422694 -0.20223847 -0.27968386 -0.15051423
0001d0 3f 9d 0e 3e ac 0c cb bd be f2 e0 bd 33 f5 1b be
       0.13927172 -0.09914526 -0.109837994 -0.15230255
0001e0 42 1f 60 be b8 ca 28 3e 9a 03 31 be b0 ac 39 3e
       -0.21886924 0.16483581 -0.1728653 0.18132281
0001f0 14 43 3f be a4 fd 11 be a3 3a 2b 3e df bc 34 be
       -0.18677932 -0.14256912 0.16721587 -0.17650174

layers.0.out_bias f4 [128]
000000 c9 eb 14 3b 7c aa 7c 3c c1 2f 10 3c d2 5b 00 3c
       0.0022723547 0.015421506 0.008800448 0.007834392
000010 93 4d 07 bc 3a 13 11 3c 86 8f 14 3c a2 68 11 bc
       -0.008258241 0.008854682 0.009067422 -0.008875044
000020 8d da f1 3a 82 de c0 bb 8a f5 2b bb 62 82 55 3b
       0.0018451974 -0.0058859 -0.0026238882 0.0032578935
000030 e8 4c 6d 3b 87 07 f0 3b a2 2f 01 3a 39 52 f0 b9
       0.003620917 0.007325116 0.00049280573 -0.00045837628
000040 ae 4e d6 bb 43 90 98 3b 63 c9 3e bc 3e 52 99 bb
       -0.006540141 0.004655869 -0.011644694 -0.0046789935
000050 96 05 46 3a 74 67 c0 3b ed 07 9f 3b 85 8d 3e 3b
       0.0007553933 0.0058717076 0.0048532397 0.0029076051
000060 ae 3e 67 3c c0 5c 44 bb bd 78 e2 3a 00 0b 6b bc
       0.014114065 -0.002996251 0.0017278414 -0.014345884
000070 dd f7 b6 ba 42 69 58 3c df e3 43 bb 34 68 38 bc
       -0.0013959367 0.013208689 -0.002989046 -0.011255313
000080 78 ba 9a bc a6 f9 e4 ba 5b 84 73 bb 54 e7 1e bb
       -0.018887743 -0.001746942 -0.0037157747 -0.002424677
000090 c8 37 bf 3b fd 11 a0 b9 19 6e 3e bb 22 96 6d 3b
       0.005835507 -0.0003053098 -0.0029057323 0.0036252816
0000a0 29 ce 05 3d 7c a3 3a bb f3 4f fa 3b 67 b6 22 bc
       0.032667313 -0.0028478792 0.007638925 -0.009931183
0000b0 22 1b 38 3b 0b 3c 8d bb 66 1c a1 3a 3e f5 90 3c
       0.0028092344 -0.004310136 0.0012291789 0.017695066
0000c0 bb 0c 01 3c 4a 46 61 bc 89 c9 9f bc 37 51 a8 3c
       0.00787657 -0.013749668 -0.01950528 0.020546539
0000d0 1d 20 82 ba 4d fa af bc c9 47 02 3c 4b 62 4f 3c
       -0.0009927783 -0.021481657 0.007951685 0.012657712
0000e0 61 b0 e6 3c 81 ae be ba 85 a0 75 bb 95 fe 79 bb
       0.028160276 -0.0014547856 -0.003747971 -0.0038146127
0000f0 ce ad 78 3b 6c 50 85 3a 96 3b c3 3b 60 3c 46 3b
       0.0037945393 0.0010171062 0.005958031 0.0030248389
000100 f8 1a a7 3c b0 99 1b 3b a6 c0 e5 3b 00 fa 79 3c
       0.020398602 0.0023742728 0.007011491 0.015257359
000110 7b 66 c1 3c 60 42 19 3b 8f 3f bc 3b c8 b4 c1 bc
       0.023608437 0.002338551 0.0057448815 -0.023645774
000120 26 86 1f b9 5c c5 7b 3c ef 13 f6 bb 55 f0 49 bc
       -0.00015213396 0.015366878 -0.0075097005 -0.012325366
000130 6c 30 ce 3a ae b5 07 3c 70 d8 b8 bc 9c df 32 ba
       0.0015730984 0.008283062 -0.022564143 -0.00068234815
000140 3c da e6 3b 58 9f fd 39 68 c0 af b9 70 32 e5 3c
       0.0070450585 0.0004837464 -0.00033521955 0.027978152
000150 b1 83 0c 3c 46 e2 81 3d 28 10 1e 3d 9f 3f 80 bb
       0.00857632 0.06341986 0.038589627 -0.003913834
000160 e4 9c 04 3c 57 60 a9 3b 4d 8b ba 3a b9 76 aa bc
       0.008094046 0.0051689553 0.0014232189 -0.020808564
000170 e7 fc bf ba bf 11 82 bc 3b a4 47 3c 16 40 98 3c
       -0.0014647514 -0.015877603 0.012185152 0.018585246
000180 74 e4 5a 3c 7e df 18 bc 2e 60 87 bb 43 7d 1c 3c
       0.0133601315 -0.009330628 -0.0041313386 0.009551349
000190 26 36 48 3c a5 d0 7a ba 57 3a c4 bb ee a3 2a 3a
       0.012219941 -0.00095678336 -0.0059884 0.0006509413
0001a0 3b 64 67 3b c2 b2 aa 3a 31 3c 82 ba ed 60 da 3c
       0.0035307545 0.0013023245 -0.0009936151 0.026657546
0001b0 35 b7 9d 3a 1e 35 dd bb 20 46 f8 b9 f1 4b 7f ba
       0.0012032749 -0.006750717 -0.00047354493 -0.0009738794
0001c0 9f c9 02 3c 8d 35 ed 39 bc 5c 70 bb 7f 0e 0c bb
       0.0079826405 0.0004524406 -0.0036676368 -0.0021370945
0001d0 b8 1f e8 3b 10 11 22 bc e4 56 56 3c 6f fc 23 3c
       0.0070838593 -0.009891763 0.01308224 0.010008915
0001e0 ea e6 91 ba 19 c0 18 bb 4d bd f5 3b aa fb 64 bc
       -0.001113144 -0.0023307859 0.007499373 -0.013976017
0001f0 1e 61 3c 3c 4d 4d 5a bb f9 4a 39 3c a0 d0 82 bb
       0.011497764 -0.0033310235 0.011309379 -0.003992155

layers.0.in_proj.weight f4 [128, 128]
000000 44 43 3c 3c a7 e3 84 3d 23 bf 0b 3d e9 1d 85 bd
       0.011490647 0.06488734 0.03411783 -0.064998455
000010 16 b3 3b 3d 36 e8 3a bd db f4 c6 bd da d1 cb 3d
       0.045825087 -0.04563161 -0.09714671 0.099521354
000020 68 bd ae 3c c1 b6 dc bd e4 c8 0f bd aa 68 a2 bc
       0.02133055 -0.10777045 -0.035103694 -0.019825298
000030 f8 27 de 3d 4e c6 8f 3b 06 74 1b be 2a 6d 26 be
       0.10847467 0.0043876534 -0.15180978 -0.1625258
000040 fd ef f5 3c 7a 07 6b 3d 7e 74 08 3e 1b 7f 12 3c
       0.030021662 0.057380177 0.13325688 0.008941437
000050 0e a6 83 bd ca 74 58 be 11 cf c4 3d 9a ce bf 3c
       -0.06428157 -0.21138301 0.09609807 0.023413945
000060 bd a2 09 bd c8 ef ee 3b 85 52 f2 3b a6 11 20 3e
       -0.033602465 0.0072917677 0.007395091 0.15631732
000070 fd 35 77 be 39 e0 5b bd ae cb ec 3b 94 0c 19 3e
       -0.24141689 -0.053680632 0.007226429 0.14946204
000080 71 79 a2 bd e8 e1 56 be 58 11 cf bc fc 9d c8 3c
       -0.07933319 -0.20984614 -0.025276825 0.024489395
000090 ad f3 02 bd 5f 83 52 3d b6 8d 0e 3e f2 23 7e bd
       -0.03197067 0.051394816 0.13921246 -0.062046
0000a0 e1 70 9d 3c 3f 4c 0f 3e fe f8 c0 bc f3 6e 22 3d
       0.019218864 0.1399393 -0.023556229 0.03965659
0000b0 7c 3b 70 bd 64 9e cb bc f6 c8 0d bd 71 50 9a bd
       -0.05865048 -0.0248558 -0.03461548 -0.07534874
0000c0 89 db 0b 3d 08 2a 00 be 9a 90 bc bd b2 dd 19 bd
       0.034144912 -0.12516034 -0.09207268 -0.03756494
0000d0 20 0f 2e bc f2 0c 2d bb 3f 36 ec bc c0 dc 8a bd
       -0.010623723 -0.002640542 -0.02883446 -0.06780386
0000e0 2c 0c fb bd 2a 72 05 3d 8d 02 b7 bd 7c 4c ee 3b
       -0.12258181 0.03257958 -0.089360334 0.0072723012
0000f0 59 32 f8 3c 86 b1 5e be 6e 87 47 be 44 b4 0f bd
       0.030297445 -0.21747407 -0.19485256 -0.035084024
000100 f9 6d 03 be af c0 15 3d c1 ba 35 bc 50 0a 88 3d
       -0.1283492 0.03656071 -0.011091889 0.06642592
000110 f6 bb 76 be ec dd 46 3c 81 25 18 3e 73 af 67 3d
       -0.24095139 0.012137871 0.14858057 0.056563806
000120 73 6b 9c bd 18 ab f5 bd 6e fd 83 bc b5 a3 9b bc
       -0.07637682 -0.11995524 -0.016112056 -0.01899896
000130 cd 97 97 3d 62 8e 3c bd 57 5a 3c be 0f f0 77 bd
       0.074020006 -0.046034224 -0.18393837 -0.060531672
000140 ca 2a 11 3d 83 3a 61 3d f6 7d 1d bd 59 54 31 bd
       0.035441197 0.05498744 -0.038450204 -0.04329333
000150 ff 83 91 bb 9c b6 dd 3d 72 c4 85 3c 79 7f 44 bd
       -0.004440784 0.108258456 0.016329024 -0.04797313
000160 ae 95 87 3d be fd e5 3c b3 44 36 3c 7c 2c 2f 3d
       0.06620346 0.028075095 0.011124778 0.042767033
000170 e8 cc 14 be c0 45 26 be d2 89 83 bc 5d a8 0e bc
       -0.1453129 -0.16237545 -0.016056929 -0.008707133
000180 d2 fb 64 3d ac 77 03 3e a7 16 b4 bd cb 8f b4 3d
       0.055904217 0.1283862 -0.08793383 0.08816489
000190 57 20 20 3e da f3 af 3d 1f c0 33 3e 72 36 90 3d
       0.15637337 0.08591433 0.17553757 0.070416346
0001a0 ed 2b 74 3d ff 87 4b 3e 81 21 1c bd e9 bb 89 3c
       0.059612203 0.19876097 -0.03811789 0.016813235
0001b0 bd 3f c9 3d 1e a0 a6 bd fc 8f f0 b9 74 42 71 3d
       0.0982661 -0.08136009 -0.00045883644 0.058901265
0001c0 04 ab d8 bc bf 84 c5 3d 9e 5f 8c bd aa ea a3 bc
       -0.026448734 0.0964446 -0.06854175 -0.020009357
0001d0 28 f9 11 3e 55 95 7f bd 48 18 71 3c 49 9e 0b be
       0.14255202 -0.062398273 0.014715262 -0.136346
0001e0 14 30 ef 3d 14 3e 30 bd 8e 60 15 bd eb d8 51 3b
       0.11679092 -0.043027952 -0.036469035 0.0032020162
0001f0 e8 ac 5f 3d 33 6c 22 3d a2 aa fd 3d bd d8 43 3d
       0.054608256 0.039653968 0.12386061 0.04781412
000200 4b 90 8e bd d2 57 b4 3d 0a 54 6d 3c 59 af 94 3d
       -0.069611154 0.08805813 0.0144853685 0.072600074
000210 be 15 d6 bb 12 b3 0f bc 1d f9 3c be 4f 1e 36 bd
       -0.0065333536 -0.008770721 -0.18454404 -0.0444625
000220 41 fd ba 3d b3 4e fb 3c 4d af df 3c be d0 d8 bd
       0.091303356 0.030677175 0.02730527 -0.105866894
000230 15 55 cc bd 26 42 0f 3e 13 e5 79 bb 80 28 d1 bd
       -0.099771656 0.13990077 -0.0038130924 -0.10212803
000240 e9 53 5c 3e 8b a5 24 bd 90 87 b5 3b a7 ab 39 3d
       0.21516384 -0.040196937 0.005539842 0.045329716
000250 be b3 e1 bd 49 99 b7 bb c2 a1 b7 3d 33 92 2f bc
       -0.11020611 -0.00560299 0.089664 -0.010716009
000260 d6 57 ae 3d aa f2 f4 3d 74 80 db 3d 19 d3 07 3e
       0.08512847 0.11960347 0.1071786 0.13264121
000270 26 a9 4c 3c 39 4a 7e 3d 39 27 05 bd 04 37 ab bd
       0.0124915 0.062082503 -0.03250811 -0.08360103
000280 f0 3c cb bd d8 24 35 3d 7b 69 d9 bc b8 b4 c6 bd
       -0.09923732 0.04422459 -0.026539555 -0.09702438
000290 28 c8 8d 3c 82 cf 89 3d 18 a6 5c 3c a1 67 e5 3d
       0.017307356 0.06729032 0.013467334 0.11201406
0002a0 39 13 c3 bd 89 66 b6 3d 14 75 56 be 56 22 93 3c
       -0.09525151 0.08906276 -0.209431 0.017960709
0002b0 5a f2 c8 3d d5 70 3e 3c b3 9a 60 3d bf f4 6a bc
       0.0981185 0.011623581 0.054835033 -0.014340579
0002c0 f7 0d b3 bd b2 de d7 bd 66 7e 1e 3d 77 12 52 3e
       -0.08742898 -0.10540523 0.03869476 0.20514856
0002d0 25 65 01 be 54 09 97 3d b7 53 e6 3c 93 5a 09 3e
       -0.1263624 0.07374826 0.02811609 0.13413458
0002e0 f4 45 d7 3c 01 b3 39 3d 77 b8 5d 3c 20 f2 47 3e
       0.026278473 0.045336727 0.013532749 0.19525957
0002f0 e9 86 ae 3c b5 eb 67 3c df f1 00 3e 08 5e 2b 3d
       0.021304565 0.014155318 0.12592266 0.041837722
000300 8d a7 d9 bd f2 6a d2 3b 49 04 50 3e 44 33 4f 3c
       -0.10627661 0.0064214403 0.20314135 0.0126465
000310 1f 40 d6 38 b3 c1 7e bc c9 d3 6a be 70 48 a4 bd
       0.00010216259 -0.015549111 -0.22932352 -0.08021629
000320 c3 bc c8 3d 95 04 7f 3d ee 3a 63 bd 87 ba 09 3d
       0.098016284 0.06226023 -0.05547612 0.033625152
000330 57 1e bd 3d cd 23 79 bd 87 04 ae 3c c5 41 01 3d
       0.092343025 -0.060825158 0.021242393 0.031556863
000340 32 8c 22 bd 0b 0a 8e 3d e5 c6 4a 3c 06 0e 8b 3d
       -0.039684482 0.06935509 0.012376522 0.06789784
000350 2b a6 b3 bd 32 56 22 bd 64 91 7d 3d f8 0c 3e bd
       -0.087719284 -0.039632984 0.061906233 -0.046399087
000360 fb 4b 20 bd 0f 52 44 3d e4 71 77 3d db bd a9 bd
       -0.03913496 0.04792982 0.06041135 -0.08288165
000370 6f 92 cf bd 52 24 da bc b8 5c 2d be dd a7 05 3d
       -0.10135352 -0.026628647 -0.169299 0.03263079
000380 c3 fe 09 bd b3 14 18 bd d0 15 80 3d 1c b0 df 3c
       -0.033690225 -0.037129115 0.062541604 0.027305655
000390 60 3d ad bd 72 a3 c7 bd b8 da 57 bd b4 43 e4 3c
       -0.08458972 -0.097479716 -0.05269882 0.027864315
0003a0 65 f2 ca 3d 97 a7 bb bd 36 ce a9 3d 75 c4 cd bc
       0.09909514 -0.091628246 0.08291285 -0.025118092
0003b0 fa 26 ee 3d 52 32 64 bd 6c 11 f1 bd 37 f4 99 bd
       0.11628528 -0.05571205 -0.11770901 -0.075172834
0003c0 33 d6 8a bd 45 34 cd 3a 87 80 89 bd 96 f3 3c be
       -0.067791365 0.0015655836 -0.06713968 -0.18452296
0003d0 50 3b 5b 3a f6 e7 47 3d 4f 75 42 be 6c b7 36 3d
       0.0008363025 0.0488052 -0.18990062 0.04460852
0003e0 55 f1 15 bd e5 d5 ca 3d 92 a4 06 bd c8 36 de 3b
       -0.036607105 0.099040784 -0.03287179 0.006781433
0003f0 99 9a a4 bc 2c 66 d0 3d 74 22 b2 3c b4 d6 8e bd
       -0.02009325 0.10175738 0.021744944 -0.06974545

layers.1.a f4 [128]
000000 9b e2 78 3f 8d c8 53 3f d0 76 77 3f e6 90 f5 3e
       0.9722077 0.8272789 0.9666567 0.4796211
000010 43 8e e0 3e 20 62 e9 3e 1d 4e c0 3e f1 08 29 3f
       0.43858537 0.45582676 0.37559596 0.6602927
000020 4c b3 04 3f 89 97 27 3f 1f 1f ca 3e 93 dd dd 3e
       0.51836085 0.654656 0.3947687 0.4333311
000030 92 6a 00 3f c2 8c 01 3f 94 f0 08 3f b7 3b c3 3e
       0.50162613 0.50605404 0.53492093 0.38131496
000040 6b e0 f3 3e 43 55 c1 3e 8b b6 f6 3e 56 1c e1 3e
       0.47632155 0.37760362 0.48186144 0.4396693
000050 74 93 38 3f 10 7e 51 3f 0f e6 27 3f f5 5f f9 3e
       0.72099996 0.8183298 0.65585417 0.48706022
000060 3c 79 be 3e 3c d7 e9 3e e0 b9 f1 3e d0 2b ee 3e
       0.3720187 0.45672023 0.47212124 0.465178
000070 6a 92 e8 3e a0 05 10 3f 06 8c 0f 3f 3a 66 02 3f
       0.45424205 0.56258583 0.56073034 0.50937235
000080 1e 93 c7 3e 3f a8 16 3f b2 03 0f 3f e0 4d ab 3e
       0.3897943 0.58850473 0.55865014 0.3345785
000090 d2 2a f3 3e 39 7d a1 3e 6d b9 11 3f ac f6 fc 3e
       0.47493607 0.3154085 0.5692356 0.49406946
0000a0 7b 8b 03 3f 73 d9 76 3f d6 37 19 3f 95 b4 c2 3e
       0.51384705 0.9642555 0.59850824 0.38028398
0000b0 59 cf 04 3f a6 ee ff 3e 95 ed fc 3e fd 7e ff 3e
       0.5187889 0.49986762 0.4940001 0.49901572
0000c0 73 21 2b 3f 2e 91 37 3f 81 08 0c 3f 1c b3 10 3f
       0.66847914 0.717059 0.54700476 0.565233
0000d0 ec 72 23 3f c0 2a fd 3e f8 5b 2f 3f da c1 c4 3e
       0.6384723 0.49446678 0.6849971 0.38429147
0000e0 81 eb 02 3f c4 7c d8 3e d2 27 14 3f 94 e2 a5 3e
       0.511406 0.4228269 0.5787326 0.32399428
0000f0 7d 39 be 3e 63 e7 cd 3e f5 23 e0 3e 40 40 bd 3e
       0.37153235 0.40215597 0.43777433 0.3696308
000100 33 6f ea 3e 9e 4f 05 3f 46 5f ed 3e 95 97 bc 3e
       0.45787963 0.5207461 0.4636175 0.36834398
000110 47 30 25 3f 3e cd f0 3e 40 60 18 3f eb 45 fa 3e
       0.6452679 0.47031587 0.59521866 0.48881468
000120 3e 06 61 3e b6 fe 33 3f d1 45 f5 3e ce a7 27 3f
       0.21975037 0.70310533 0.47904828 0.65490425
000130 bc d7 00 3f c1 d7 d4 3e 69 08 36 3f 3a a3 e4 3e
       0.50329185 0.41570857 0.7110658 0.44655782
000140 e9 b9 08 3f a1 4b de 3e ba 4e 01 3f 2d bd 4b 3f
       0.53408676 0.43417075 0.5051075 0.79585534
000150 0e 89 01 3f a0 ee 20 3f ad 42 bc 3e 34 13 d3 3e
       0.50599754 0.6286411 0.3676962 0.41225588
000160 f1 64 09 3f 5f d0 fa 3e c2 30 07 3f 00 b6 0b 3f
       0.5366965 0.489871 0.52808774 0.54574585
000170 41 20 c9 3e 8c 30 cb 3e cc dc d4 3e f2 b0 1a 3f
       0.3928242 0.39685476 0.41574705 0.6042625
000180 f6 60 0a 3f 03 86 fa 3e 69 5e 0c 3f f2 88 15 3f
       0.540542 0.48930368 0.5483156 0.58412087
000190 e7 2d 1f 3f c1 a4 ef 3e 08 80 ad 3e 52 19 dd 3e
       0.62179416 0.46805385 0.33886743 0.4318338
0001a0 fc a9 f4 3e db 26 16 3f e5 f1 05 3f f0 0d f1 3e
       0.47785938 0.5865304 0.52322227 0.47080946
0001b0 ec 74 d7 3e af 57 d4 3e c7 c9 f0 3e af 9b e8 3e
       0.42081392 0.41473147 0.47028944 0.45431277
0001c0 22 fd 17 3f c7 39 17 3f 60 04 f6 3e db 68 a5 bd
       0.59370625 0.59072536 0.48050213 -0.0807664
0001d0 4d 54 ca 3e 0e ec a9 3e e0 1e f3 3e d6 c1 a3 3e
       0.3951744 0.33187908 0.47484493 0.31983823
0001e0 2a b1 46 3e 51 ad 0b 3f cc 55 02 3f 0e b6 06 3f
       0.1940352 0.54561335 0.50912166 0.52621543
0001f0 9e f5 8c 3e 32 e2 be 3e dc 35 f5 3e e7 5d 88 3e
       0.2753114 0.37281948 0.47892654 0.26634142

layers.1.b f4 [128]
000000 b7 73 91 3d ec fe 2c be 5d 8d 8d 3d a8 0a 83 be
       0.07102149 -0.1689412 0.069117285 -0.25594068
000010 65 b9 87 3e 53 83 2b 3e e5 f0 99 3e 74 51 2c 3e
       0.26508632 0.16749315 0.300666 0.16827947
000020 42 91 34 3e c8 db ea bd c8 30 76 3e 32 85 55 3e
       0.17633536 -0.11467701 0.24042046 0.20851591
000030 07 10 39 be 2a 11 66 be 29 0b 48 3e c1 e3 37 3e
       -0.1807252 -0.22467485 0.19535507 0.17957975
000040 09 7c 48 be 00 50 3f 3e a9 48 6a 3e 7a 6f 82 3e
       -0.19578566 0.18682861 0.2287928 0.25475675
000050 c8 1e 90 3e 7d 6b 04 be cf 8b 23 3e 07 dd 66 be
       0.28148484 -0.12931629 0.15971301 -0.22545253
000060 a3 0a 8b be da 63 4b 3e ef ec 33 3e 30 07 2d be
       -0.27156553 0.19862309 0.17570852 -0.16897273
000070 50 63 53 be 8b 97 4c 3e 8d 72 70 3e c8 c2 76 3e
       -0.20643353 0.19979684 0.23481198 0.2409774
000080 4a c6 3c 3e 62 bd 24 3e 9b 50 55 be 46 44 89 be
       0.18435016 0.16087869 -0.2083153 -0.268099
000090 13 fc 7a 3e c3 7c 15 3e 77 51 53 be 47 ad 57 3e
       0.24510221 0.14598374 -0.20636545 0.21062194
0000a0 0d 1b d0 3e 53 84 c4 bd 3a 1e 13 3e 8f 27 05 3e
       0.40645638 -0.09595551 0.14367 0.13003372
0000b0 7c 4d 10 be 6d 48 32 be 48 02 64 3e 07 93 47 be
       -0.14092058 -0.1741044 0.22266495 -0.1948968
0000c0 90 80 e7 3d af d9 86 3e ed ff 34 3e a1 da 47 be
       0.11303818 0.26337954 0.17675753 -0.19516994
0000d0 88 f5 24 be 30 25 4c be 3d 4a 3c 3e 89 04 50 3e
       -0.16109288 -0.19936061 0.18387695 0.2031423
0000e0 b7 af 3f be 61 47 5c 3e f3 a6 21 be 9c 3d 68 3e
       -0.18719374 0.21511604 -0.15786342 0.22679752
0000f0 ab cf 39 be 13 0a 4b 3e fb 0c 39 be a2 37 8f be
       -0.18145625 0.19828062 -0.18071358 -0.27972132
000100 e7 1d 40 3e 93 f2 52 3e 56 ba 52 be bd 31 65 3e
       0.18761407 0.20600347 -0.20578894 0.22382255
000110 0e 1c 6e be 66 17 6a be 98 40 50 be 77 41 35 be
       -0.2325289 -0.22860488 -0.2033714 -0.17700754
000120 0d 13 89 be 92 be 6c 3e b2 d7 79 be cd 0e 59 be
       -0.26772347 0.23119572 -0.24398687 -0.21197052
000130 eb a3 5b be 9b 59 28 be 14 5b e3 bd 83 b3 87 3e
       -0.21449248 -0.16440432 -0.11101356 0.26504144
000140 c3 18 7d 3e 8a 41 27 be 0a 8c 7a 3e 75 fe 72 3e
       0.24716477 -0.16333595 0.24467483 0.2372988
000150 8c 08 63 be d7 d0 35 be 7a ba 7d 3e ed 6f 2d be
       -0.22171229 -0.17755447 0.24778166 -0.16937228
000160 34 0c 8a 3e e0 f7 84 3e bd fb 05 3e 6c 46 17 be
       0.26962435 0.25970364 0.13084312 -0.14772958
000170 14 e8 3f be d2 77 5f 3e 22 79 47 be ba 50 18 3e
       -0.18740875 0.21823052 -0.19479802 0.14874545
000180 84 f6 63 3e a0 e9 aa be 62 8c 2b be 2d 4f 3c be
       0.22262007 -0.33381367 -0.1675277 -0.18389578
000190 bc ab 30 be df a4 1f be 29 73 6b 3e f4 36 21 be
       -0.17253011 -0.15590237 0.22993149 -0.15743619
0001a0 6d 4f 3d 3e ae dd 53 be 00 48 70 be 1e c7 5c 3e
       0.1848733 -0.20690033 -0.23464966 0.21560332
0001b0 94 16 88 be 44 99 78 be ea e4 53 be 01 e1 00 be
       -0.26579726 -0.24277216 -0.20692793 -0.12585832
0001c0 53 09 5a be f7 34 1f be 64 dc ac be 02 1a 08 3e
       -0.2129262 -0.15547548 -0.33761895 0.13291171
0001d0 db 77 7c 3e 15 6d 0c 3e b5 24 45 be b8 f4 87 3e
       0.24655096 0.13713486 -0.19252284 0.26553893
0001e0 a9 39 33 be c8 c1 34 be 01 3b 60 3e 6f 9b 3f 3e
       -0.17502464 -0.17652047 0.21897508 0.18711637
0001f0 83 1b 3e 3e 2a a4 61 be 0d ac 21 be f3 47 16 be
       0.18565182 -0.2203528 -0.15788288 -0.14675884

layers.1.c f4 [128]
000000 09 3e da bd 28 3d 40 3e ee db 1e be 7a b0 20 be
       -0.106563635 0.1877333 -0.15513584 -0.1569232
000010 5f fe fc bd 45 30 71 be 78 45 0d be 34 1d 30 be
       -0.12353205 -0.2355357 -0.13796031 -0.1719864
000020 86 1a 5e be 77 97 7c 3e 24 d0 1b 3e 67 59 45 be
       -0.21689805 0.24667154 0.15216118 -0.19272386
000030 ad 31 55 3e c2 58 37 3e 7f 4a 55 3e a9 06 3c 3e
       0.20819731 0.17904952 0.20829199 0.18361916
000040 5f ac 40 be ab d9 49 be b8 ab 25 be 83 cb 0d 3e
       -0.18815754 -0.1971194 -0.16178787 0.13847165
000050 65 b1 86 3e db 20 1a be b4 1b 44 3e d3 b1 1f 3e
       0.26307216 -0.15051596 0.19151193 0.15595178
000060 08 11 07 3e 04 6d 3c be 26 b4 3f 3e 1a c7 62 be
       0.1319009 -0.18400961 0.18721065 -0.22146264
000070 3c ff 62 3e ee 9c 70 3e 2e 35 06 3e cf a5 0f 3e
       0.22167677 0.23497364 0.13106224 0.14028095
000080 7d 46 39 be 12 0a 23 be 30 25 48 3e f8 4d 36 be
       -0.18093295 -0.1592181 0.19545436 -0.1780318
000090 9e f8 24 3e 3f a8 7c 3e e5 61 6b 3e d1 1b 51 be
       0.16110465 0.24673556 0.22986563 -0.20420767
0000a0 df cb a2 3e 62 3b 6e 3d b8 6f 9c be 8d 4b 9a be
       0.31796166 0.0581621 -0.30553985 -0.30135766
0000b0 ca 35 a1 3e 94 28 4d 3e 06 e1 33 3e 8f f9 93 3e
       0.3148635 0.2003501 0.17566308 0.28901336
0000c0 19 c3 89 be 35 b5 2a 3e 48 ac 45 be c8 2c 37 3e
       -0.2690666 0.16670687 -0.19304001 0.17888176
0000d0 32 9c 50 be ff f7 49 3e 78 48 30 be 04 4c 63 3e
       -0.20372084 0.19723509 -0.17215145 0.22196966
0000e0 66 84 77 be af 33 20 3e b5 e2 41 3e 78 7a 17 3e
       -0.241716 0.15644716 0.18934138 0.14792812
0000f0 b1 b3 6c 3e 58 82 28 be 10 9f 56 3e 79 20 1f 3e
       0.23115422 -0.16455972 0.20959115 0.15539731
000100 a4 fb 35 3e b2 39 76 be 4d 4b 22 be a6 ff 32 be
       0.17771775 -0.24045447 -0.15849037 -0.17480335
000110 64 1a 01 be 78 f1 0f 3e e0 1b 42 be 1b 4f 3b be
       -0.12607723 0.14056957 -0.18955946 -0.18291895
000120 3d 1e 01 3e 9a a3 f8 bd e8 48 0c be 3a 5b 43 3e
       0.12609191 -0.121405795 -0.13699687 0.19077769
000130 23 72 25 be a4 9b 4d 3e 4c 38 7d be 23 c6 0f 3e
       -0.16156821 0.20078903 -0.24728507 0.14040427
000140 a9 0a 1a 3e 60 cb 78 3e cb 3c 19 3e f9 90 80 be
       0.15043129 0.24296331 0.14964597 -0.25110605
000150 f2 0f 2c be 43 45 61 be 23 ca 17 be dd 56 4c 3e
       -0.16802958 -0.21999077 -0.14823203 0.1995501
000160 9a 6e 18 be 38 03 32 be 40 08 96 be f6 ab 5a 3e
       -0.14885941 -0.1738404 -0.2930317 0.2135466
000170 04 52 63 3e e2 7d 31 3e c7 84 4f 3e 2a bf 83 be
       0.22199255 0.17333177 0.20265494 -0.25731784
000180 b3 52 5f 3e 6b 09 f1 3d d3 ab 83 be fe ed 33 3e
       0.21808891 0.117693745 -0.2571703 0.17571256
000190 4f b6 6b be 1c 00 58 be cf 73 1d be cd 0f 70 be
       -0.23018764 -0.21093792 -0.15376209 -0.23443528
0001a0 e3 27 88 3e 15 07 40 be 0a d1 18 3e 86 74 46 3e
       0.2659293 -0.18752702 0.14923492 0.19380388
0001b0 34 fb 04 be dd e1 1c be 2e c5 14 3e c2 cc a5 be
       -0.12986451 -0.15320535 0.14528343 -0.3238278
0001c0 3a 3e 25 3e 3f 45 5f 3e 11 dc fa bd 4a c5 66 3e
       0.16137019 0.21803759 -0.122490056 0.22536197
0001d0 f1 06 3b be 3b 9c 9c 3e df dd 36 3e cc b3 b2 3e
       -0.18264367 0.30587944 0.17858075 0.349028
0001e0 bd f7 34 3e 93 36 28 be d1 49 22 3e 01 b7 67 3e
       0.1767263 -0.16427068 0.15848471 0.22628404
0001f0 af 2d 63 be a9 36 17 3e 2b 9c 74 be 79 5d 73 be
       -0.22185396 0.14766945 -0.23887698 -0.23766126
