diag-ssm-charlm/experiments/tiny/epoch_096_valppl_6.08_valacc_0.5068.pt (torch, 236577 bytes, 19 tensors)

emb.weight f4 [74, 64]
0.72324944 0.9751156 -1.3325983 -0.6219189 -0.7817769 -1.1182917 1.135735 -0.29817593
0.12615877 -0.48776317 0.7922584 2.5551617 1.0890186 -0.23772416 0.37095892 0.92261237
-0.13964249 0.08414438 -0.020906698 -0.9246852 -0.8698845 -0.63386613 0.8892286 1.4857892
0.2833608 0.5847885 -0.03426098 -1.1398747 0.17997672 0.34458375 0.22262995 1.380303
-1.0830026 -2.2689815 0.18879238 0.21130303 1.2380002 -0.7415751 -0.2547027 -0.80012983
0.29131252 -0.31963342 0.97513425 -0.41610563 -0.14120333 1.5496938 -0.2976067 0.114550106
-0.30306202 1.7560247 -0.7921592 0.1587754 -0.5342032 0.40354165 0.76645875 0.7407307
0.14949869 0.6523413 0.8850492 -0.72018754 0.7261966 -0.60106534 -0.6332995 1.6405231
0.4307336 -0.4372599 0.46778724 0.08150157 -0.13911061 2.0979073 -0.4202668 -1.33709
-0.18760812 1.812248 1.1856091 -0.3586532 -0.2938456 -0.6653714 0.6043217 -1.2376359
-0.11814945 -0.54378134 -0.59064215 0.18557762 0.5740342 1.0997894 -1.1778903 0.30157635
0.08576521 -0.38870525 -0.39562565 0.13938951 0.37718433 -0.023138644 -0.81322217 1.2999723
0.33054265 0.38216358 1.0300641 0.28447533 0.41750675 -0.6929073 0.049076356 0.636733
1.6240394 0.36328742 1.2859833 -0.64086735 0.74148095 0.102081895 1.0469551 -0.7301406
0.22811988 0.9415783 -0.3476865 1.6173775 -0.18566032 -0.35437194 -0.20654754 1.4951912
-1.628926 0.8367196 0.6875366 -1.4841889 -1.2599179 -0.38876474 -1.6728724 0.3901066
-0.79494345 -0.19940719 0.98380613 0.06664942 1.5040206 -0.20469251 0.42742133 0.051219203
-0.15916866 -0.0062750084 0.08931022 0.8744892 -1.285014 0.4666659 -0.7764142 -0.41504315
0.31639233 -0.4512911 2.176509 -0.4304346 -2.1642148 1.5027667 0.32226092 0.43063593
-1.0963116 0.00025456017 -0.97792166 0.72918385 0.30622268 -0.41369808 0.19733521 -1.4307022
-1.2765708 0.4446985 0.4960517 0.90527993 -0.7599995 -1.6869717 0.5403285 0.110333785
0.11659097 -1.1762912 -1.9807298 0.6134049 -2.1231787 0.57677567 1.1061434 -0.4098379
-1.6991115 -0.002330826 -0.08663394 -0.6625584 -1.2604027 -1.0412904 -1.9464581 -0.33657998
0.032078136 0.12140241 0.1343364 -0.84516424 0.65905654 -0.35182557 -1.7371148 -0.40491432
-1.0405217 -1.6245273 0.60514414 0.52853096 -0.80807215 -1.9331203 0.63297635 -0.8348868
-1.3781755 1.0287907 1.2787272 1.6400532 -0.3429644 2.235074 -0.8392499 0.77516127
2.5556803 1.3993748 0.11479475 1.8649747 -0.4442485 -1.8348334 0.9921038 0.7394918
-0.41817224 -3.1497605 -0.69925797 -0.36975676 2.6429355 -1.4160198 -1.4493424 -2.6676462
1.6573116 -1.5466297 0.389431 0.6237355 -0.062097114 0.384485 1.9930538 2.141546
3.0657814 -0.7585945 1.6211399 2.08433 -0.33591065 -2.9976304 2.294363 -1.1558466
-0.2002171 3.6141696 -1.5714995 0.37995654 -1.0879272 1.8566972 1.2140622 -3.0323508
-0.15998165 0.01243206 0.41343746 -1.0515866 0.86965775 -0.8635369 1.0840251 -1.8081894
00000000: e026 393f 2da1 793f 9592 aabf 1436 1fbf
00000010: 8822 48bf 2f24 8fbf c45f 913f 84aa 98be
00000020: c42f 013e 18bc f9be 72d1 4a3f c587 2340
00000030: f664 8b3f f66d 73be 54ee bd3e 5330 6c3f
00000040: 71fe 0ebe e453 ac3d 8644 abbc 2bb8 6cbf
00000050: c0b0 5ebf 0d45 22bf 7ca4 633f 572e be3f
00000060: ab14 913e b3b4 153f 3e55 0cbd 6ae7 91bf
00000070: d14b 383e 486d b03e 1bf9 633e c5ad b03f
00000080: d49f 8abf fe36 11c0 ca52 413e d25f 583e
00000090: ca76 9e3f ded7 3dbf 6468 82be 4fd5 4cbf
000000a0: ea26 953e fea6 a3be 66a2 793f cc0b d5be
000000b0: 9b97 10be 5e5c c63f e85f 98be 3f99 ea3d
000000c0: f22a 9bbe 6bc5 e03f f2ca 4abf 0596 223e
000000d0: 8ac1 08bf 039d ce3e a436 443f 87a0 3d3f
000000e0: 2f16 193e d7ff 263f 9692 623f 365e 38bf
000000f0: 05e8 393f 6bdf 19bf eb1f 22bf a9fc d13f
00000100: 1d89 dc3e 88e0 dfbe cf81 ef3e 4cea a63d
00000110: 0373 0ebe 1d44 0640 362d d7be c425 abbf
00000120: 581c 40be bef7 e73f 0ac2 973f 64a1 b7be
00000130: ee72 96be c855 2abf d4b4 1a3f da6a 9ebf
00000140: 57f8 f1bd 4135 0bbf 5334 17bf 0f08 3e3e
00000150: e8f3 123f e6c5 8c3f 1cc5 96bf 3768 9a3e
00000160: aca5 af3d 6004 c7be 728f cabe 20bc 0e3e
00000170: 4e1e c13e 418d bdbc 542f 50bf 7e65 a63f
00000180: e33c a93e f2aa c33e 24d9 833f c0a6 913e
00000190: 72c3 d53e 5f62 31bf 4a04 493d ef00 233f
000001a0: 86e0 cf3f cf00 ba3e 1a9b a43f e20f 24bf
000001b0: b2d1 3d3f 5010 d13d a002 863f 7fea 3abf
000001c0: 4298 693e 470b 713f f703 b2be 3a06 cf3f
000001d0: bd1d 3ebe 3d70 b5be 3381 53be 6d62 bf3f
000001e0: a680 d0bf 4133 563f 6602 303f e7f9 bdbf
000001f0: fd44 a1bf 2c0c c7be af20 d6bf 0dbc c73e
00000200: 6a81 4bbf 6631 4cbe b8da 7b3f 7e7f 883d
00000210: bf83 c03f ea9a 51be f8d6 da3e 3acb 513d
00000220: 1cfd 22be 969e cdbb 47e8 b63d 86de 5f3f
00000230: 577b a4bf d5ee ee3e 15c3 46bf 8980 d4be
00000240: 2dfe a13e a10f e7be ec4b 0b40 ed61 dcbe
00000250: 7f82 0ac0 a95a c03f 62ff a43e 507c dc3e
00000260: f053 8cbf 7d76 8539 1359 7abf cbab 3a3f
00000270: 38c9 9c3e 3cd0 d3be 3e12 4a3e 4021 b7bf
00000280: ac66 a3bf 86af e33e 7dfa fd3e 6dc0 673f
00000290: 548f 42bf b0ee d7bf f852 0a3f aef6 e13d
000002a0: 3fc7 ee3d b690 96bf 8e88 fdbf 1b08 1d3f
000002b0: 29e2 07c0 92a7 133f 1b96 8d3f 46d6 d1be
000002c0: 7c7c d9bf c5c0 18bb 236d b1bd 6d9d 29bf
000002d0: e054 a1bf 0149 85bf 8a25 f9bf 3654 acbe
000002e0: 5d64 033d d4a1 f83d 7b8f 093e af5c 58bf
000002f0: eeb7 283f 7b22 b4be c759 debf ee50 cfbe
00000300: d12f 85bf 83f0 cfbf baea 1a3f ce4d 073f
00000310: d1dd 4ebf 7c70 f7bf bd0a 223f 24bb 55bf
00000320: 0e68 b0bf 6aaf 833f 55ad a33f 43ed d13f
00000330: 0899 afbe 740b 0f40 15d9 56bf f870 463f
00000340: 4490 2340 b71e b33f 8319 eb3d 7eb7 ee3f
00000350: 8a74 e3be d2db eabf 84fa 7d3f 564f 3d3f
00000360: ac1a d6be ad95 49c0 9202 33bf c250 bdbe
00000370: db25 2940 2340 b5bf 0d84 b9bf b7ba 2ac0
00000380: c922 d43f f6f7 c5bf 8063 c73e 21ad 1f3f
00000390: 8b59 7ebd 38db c43e 631c ff3f 170f 0940
000003a0: c335 4440 4033 42bf 8381 cf3f aa65 0540
000003b0: 7bfc abbe 2dd9 3fc0 d8d6 1240 c8f2 93bf
000003c0: b605 4dbe 8e4e 6740 e526 c9bf aa89 c23e
000003d0: 3341 8bbf 41a8 ed3f 6466 9b3f 0912 42c0
000003e0: 3bd2 23be d7af 4b3c 13ae d33e 649a 86bf
000003f0: e4a1 5e3f c110 5dbf 56c1 8a3f c072 e7bf

input_proj.weight f4 [128, 64]
0.031184804 -0.10450889 0.012302512 -0.0723938 -0.027420161 0.13100882 -0.05937008 0.10045566
0.08290702 0.06414307 0.14034572 -0.11087375 0.045601238 0.010880088 -0.10000231 -0.03195722
0.0068120626 0.023709951 -0.08620513 0.097514644 -0.0386412 -0.011839634 -0.027789386 -0.10683045
0.033246145 -0.030015405 -0.049427174 -0.031238038 0.017966578 0.039035868 -0.149253 0.02586391
-0.11920242 -0.014365415 -0.007557698 -0.109096676 -0.1406309 0.01801021 0.021834506 0.1326975
0.06401802 0.06978176 -0.046511486 0.05972578 0.090904705 -0.11825909 -0.045847155 -0.06969923
-0.047174294 -0.039811905 0.04422917 -0.0018299412 -0.039372504 -0.045530416 0.01857322 -0.008303537
-0.119757116 -0.15729815 0.017233836 -0.12033648 0.11862624 -0.11268459 0.0739639 -0.09285619
0.0010853198 0.019924674 -0.00076122 0.021947015 -0.01227835 0.1727075 -0.17179191 -0.11757791
-0.056685776 0.044620737 0.020857403 -0.03470148 0.07206782 0.09410107 0.13561302 -0.12008879
0.1104898 0.0144220535 -0.04579675 -0.033065986 -0.037451588 -0.045087557 0.0061886786 -0.047759272
0.05655959 0.05124095 0.024974275 -0.011203088 0.12854701 0.118830636 -0.00030881946 0.09449629
-0.022756418 -0.051630124 0.09864907 0.0039468333 -0.12332415 -0.00812513 0.026618885 -0.105038166
0.007628386 -0.015815066 0.0047532865 -0.015838694 0.010204047 -0.12741618 0.045342475 0.06983046
-0.014770364 -0.14240503 -0.07431838 0.047164 -0.028781394 -0.07841096 0.0018579895 -0.0031724616
-0.029316977 -0.089484714 -0.03537162 -0.02791347 0.022601815 0.052646 0.0770067 0.021200169
0.16920787 0.048551105 0.0008517991 -0.00025265623 0.12414699 -0.06935197 -0.049628004 -0.009799981
-0.088971175 0.0075967433 -0.035211228 -0.03058523 -0.1808574 0.10069193 -0.027519085 -0.028933637
0.1547337 -0.05812873 0.10014873 -0.031305112 -0.020094657 0.015825447 -0.072735995 0.013938408
0.05716578 0.02351147 -0.036913607 0.04520992 0.10765841 -0.020994632 -0.027430458 -0.08893752
0.012681855 -0.041565962 0.0696531 0.12741113 -0.057296306 -0.0064493124 0.052772395 0.111399986
-0.012389343 -0.035258595 0.03355339 0.036858834 0.014605934 -0.040335722 0.117335364 -0.010383034
-0.1260316 -0.029040908 0.03246578 0.017213268 -0.03714644 0.009412298 -0.049081076 0.08807073
0.01495443 0.054534253 -0.021643654 -0.034398902 0.026076997 -0.0108907875 -0.064645015 -0.010525039
-0.041583523 -0.05895714 0.013462536 0.041328292 0.031616356 -0.05965794 -0.03083831 0.011023718
0.065495364 -0.028501058 0.090679094 0.03612487 -0.012727841 0.098898515 -0.021755582 0.013525272
-0.0013068629 -0.10070621 0.0002163539 -0.0025655744 -0.02351547 -0.030777358 0.021436376 -0.037372567
0.047212925 -0.037794117 -0.0054463674 0.022545584 0.013886149 -0.047526352 -0.0062845238 0.012388558
-0.07661061 -0.059736412 0.045461047 0.022199025 -0.07232191 -0.0011259299 -0.013368409 -0.08038296
0.019232817 0.012690766 0.04378995 -0.07730515 -0.032573942 0.053252365 0.051514775 0.018513985
0.0197042 -0.0075551826 -0.035302427 -0.022910926 -0.048646133 0.034288257 0.021849021 -0.015789526
-0.0070799203 0.004677467 -0.032640997 0.025858765 -0.039137956 0.015181465 0.04334399 0.0324236
00000000: 4677 ff3c c208 d6bd 7a90 493c 3343 94bd
00000010: 3fa0 e0bc 2d27 063e 0a2e 73bd b2bb cd3d
00000020: 28cb a93d 715d 833d cab6 0f3e c711 e3bd
00000030: 5dc8 3a3d 6642 323c 03ce ccbd 93e5 02bd
00000040: b937 df3b 5f3b c23c 518c b0bd c2b5 c73d
00000050: 3c46 1ebd 06fb 41bc 91a6 e3bc ecc9 dabd
00000060: 1c2d 083d dee2 f5bc 2674 4abd eae6 ffbc
00000070: a52e 933c 13e4 1f3d c7d5 18be 8de0 d33c
00000080: 6620 f4bd eb5c 6bbc 91a6 f7bb 146e dfbd
00000090: 8c01 10be 268a 933c 47de b23c dae1 073e
000000a0: e11b 833d bde9 8e3d d482 3ebd 05a3 743d
000000b0: 3f2c ba3d d231 f2bd 3aca 3bbd 78be 8ebd
000000c0: d539 41bd cf11 23bd a529 353d a3da efba
000000d0: 1045 21bd 1a7e 3abd de26 983c 8f0b 08bc
000000e0: 3843 f5bd c412 21be f92d 8d3c f972 f6bd
000000f0: 50f2 f23d 2ec7 e6bd 637a 973d 632b bebd
00000100: 4a41 8e3a 1239 a33c 9c8c 47ba 3aca b33c
00000110: 222b 49bc 3cda 303e 38ea 2fbe b0cc f0bd
00000120: 582f 68bd 3cc4 363d 25dd aa3c 2423 0ebd
00000130: 4b98 933d 10b8 c03d 24de 0a3e 1df1 f5bd
00000140: 7a48 e23d 7a4a 6c3c 5f95 3bbd 3370 07bd
00000150: d666 19bd bbad 38bd 66ca ca3b 3a9f 43bd
00000160: 07ab 673d 08e2 513d da96 cc3c 288d 37bc
00000170: d4a1 033e 7a5d f33d 0ce9 a1b9 4587 c13d
00000180: ab6b babc 1c7a 53bd 8608 ca3d 7054 813b
00000190: 5f91 fcbd 441f 05bc d90f da3c 401e d7bd
000001a0: 8af7 f93b 998e 81bc 75c1 9b3b 26c0 81bc
000001b0: e02e 273c 6379 02be 08b9 393d 4603 8f3d
000001c0: 66ff 71bc a0d2 11be 3c34 98bd 0a2f 413d
000001d0: f5c6 ebbc ed95 a0bd c887 f33a 13e9 4fbb
000001e0: 282a f0bc c343 b7bd d5e1 10bd caaa e4bc
000001f0: 7127 b93c 55a3 573d b0b5 9d3d faab ad3c
00000200: d444 2d3e 86dd 463d 454b 5f3a f276 84b9
00000210: c740 fe3d 6808 8ebd bc46 4bbd 1990 20bc
00000220: 8536 b6bd 1aee f83b a639 10bd e08d fabc
00000230: af32 39be 9237 ce3d b46f e1bc 3c06 edbc
00000240: 8372 1e3e 6418 6ebd c71a cd3d ca39 00bd
00000250: 8d9d a4bc 5ea4 813c 9cf6 94bd ec5d 643c
00000260: aa26 6a3d 209b c03c b932 17bd 092e 393d
00000270: 037c dc3d effc abbc d7b5 e0bc e024 b6bd
00000280: 8ec7 4f3c 1241 2abd 49a6 8e3d 1078 023e
00000290: 88af 6abd c154 d3bb de27 583d ad25 e43d
000002a0: acfc 4abc 516b 10bd 486f 093d 4af9 163d
000002b0: ba4d 6f3c 1237 25bd 864d f03d 9a1d 2abc
000002c0: 6e0e 01be 33e7 edbc d6fa 043d d702 8d3c
000002d0: de26 18bd 0a36 1a3c 3d09 49bd 6d5e b43d
000002e0: 6d03 753c 4f5f 5f3d 084e b1bc dde5 0cbd
000002f0: 6d9f d53c 466f 32bc 9b64 84bd 3771 2cbc
00000300: 7c53 2abd 0b7d 71bd f891 5c3c db47 293d
00000310: 2780 013d e25b 74bd a0a0 fcbc d39c 343c
00000320: 6f22 863d 0d7b e9bc f6b5 b93d acf7 133d
00000330: 6f88 50bc 4e8b ca3d c338 b2bc 1a99 5d3c
00000340: 0b4b abba 0f3f cebd 0fdd 6239 3223 28bb
00000350: 84a3 c0bc cc20 fcbc 579b af3c fa13 19bd
00000360: 5762 413d 01ce 1abd 7177 b2bb 84b1 b83c
00000370: bb82 633c feaa 42bd 68ee cdbb 61f9 4a3c
00000380: 06e6 9cbd 2bae 74bd 5d35 3a3d bbda b53c
00000390: 821d 94bd f093 93ba 2c07 5bbc d29f a4bd
000003a0: 248e 9d3c eeec 4f3c 175d 333d 2a52 9ebd
000003b0: 416c 05bd 271f 5a3d 2801 533d a4aa 973c
000003c0: b46a a13c 7791 f7bb 4799 10bd b2af bbbc
000003d0: 2b41 47bd d871 0c3d b8fc b23c 0959 81bc
000003e0: adfe e7bb 7045 993b 91b2 05bd c3d5 d33c
000003f0: 1f4f 20bd aebb 783c 7889 313d 9cce 043d

input_proj.bias f4 [128]
-0.04359949 0.15359634 -0.039075665 -0.013167645 0.0068897353 -0.112207785 0.011074988 0.11123028
0.002461837 -0.031488873 -0.009742943 -0.07706501 0.04148772 0.028207358 0.10504789 0.05047758
-0.029701317 -0.017144065 0.09699023 -0.042389885 0.02516354 -0.052833214 -0.059675265 -0.008930497
-0.13308041 0.062415317 -0.04467598 -0.011083409 -0.04231216 -0.06077469 0.0029719726 -0.032918897
-0.14276059 0.04963722 -0.024121216 -0.07651221 -0.14439507 0.04443232 -0.03442326 0.10359096
-0.11830401 -0.011671499 0.08565304 -0.07049331 0.0784128 -0.06661404 -0.11547048 0.098534025
0.17166401 -0.011376547 -0.09160762 -0.07248569 0.1153461 -0.0028234622 -0.22330765 0.03203591
-0.10269307 -0.08602396 0.19320828 -0.0984903 -0.09281165 -0.06625837 0.10783141 0.10548229
-0.16683172 0.05890427 -0.05090135 0.13100304 -0.03148605 0.010472011 0.021520978 0.030436698
-0.21525216 0.13441876 -0.11047482 0.05041136 0.026278278 -0.062062804 0.23339118 0.019488364
-0.089621 -0.11186333 0.018914519 0.15909326 0.05050266 0.056645706 -0.15220845 0.059633356
0.000108481145 0.11094698 0.017772034 0.045288485 -0.06362872 -0.08778976 -0.16392004 -0.086598314
0.009141436 -0.0012639866 0.0040629166 -0.10083354 0.014120447 -0.07979007 -0.16472776 -0.028975492
0.028087072 -0.046649262 -0.10459344 -0.056544416 -0.088259116 -0.12433246 -0.010804196 0.1315227
0.03136266 -0.078571856 0.03151619 0.012743155 -0.01269142 -0.19947436 0.17536484 0.06824129
-0.05245668 -0.100313425 -0.092556365 -0.07349988 -0.10115112 -0.042824045 -0.11114722 -0.09094488
00000000: 6195 32bd 5c48 1d3e ce0d 20bd 1bbd 57bc
00000010: 4ac3 e13b 32cd e5bd de73 353c b3cc e33d
00000020: c556 213b 7afa 00bd dda0 1fbc 43d4 9dbd
00000030: 07ef 293d 1e13 e73c 5923 d73d 94c1 4e3d
00000040: 2d50 f3bc b671 8cbc d0a2 c63d 04a1 2dbd
00000050: c523 ce3c a467 58bd 0d6e 74bd 3851 12bc
00000060: 3b46 08be 34a7 7f3d 29fe 36bd 3097 35bc
00000070: 844f 2dbd e2ee 78bd 6dc5 423b f7d5 06bd
00000080: d52f 12be 6650 4b3d db99 c5bc 6fb2 9cbd
00000090: 4ddc 13be aafe 353d 67ff 0cbd 7f27 d43d
000000a0: 5f49 f2bd d139 3fbc dc6a af3d cc5e 90bd
000000b0: e496 a03d f16c 88bd c97b ecbd 35cc c93d
000000c0: b1c8 2f3e b264 3abc c79c bbbd 6173 94bd
000000d0: 933a ec3d d609 39bb c3aa 64be 1638 033d
000000e0: bf50 d2bd 542d b0bd 64d8 453e 48b5 c9bd
000000f0: 0914 bebd 78b2 87bd b7d6 dc3d 1907 d83d
00000100: efd5 2abe 9b45 713d ef7d 50bd a925 063e
00000110: 84f7 00bd cc92 2b3c c34c b03c 6256 f93c
00000120: 106b 5cbe 12a5 093e 9f40 e2bd 247c 4e3d
00000130: 8b45 d73c 9135 7ebd 19fe 6e3e 10a6 9f3c
00000140: 378b b7bd 9a18 e5bd 9ff2 9a3c 58e9 223e
00000150: e1db 4e3d 5405 683d 88dc 1bbe 1b42 743d
00000160: 5f80 e338 2c38 e33d a896 913c 6b80 393d
00000170: c64f 82bd 1ecb b3bd a8da 27be 755a b1bd
00000180: f6c5 153c 5aac a5ba 3722 853b d181 cebd
00000190: 7359 673c fa68 a3bd 65ae 28be 035e edbc
000001a0: dc16 e63c 4c13 3fbd 1635 d6bd 1e9b 67bd
000001b0: 32c1 b4bd 04a2 febd 1504 31bc e3ad 063e
000001c0: 2276 003d 48ea a0bd 1f17 013d aac8 503c
000001d0: acef 4fbc 0243 4cbe d792 333e 17c2 8b3d
000001e0: d1dc 56bd 2071 cdbd 318e bdbd 1b87 96bd
000001f0: 5228 cfbd 4468 2fbd 27a1 e3bd 4f41 babd

layers.0.a f4 [128]
0.5630371 0.5605684 0.61365575 0.6667726 0.5582438 0.9690354 0.5668148 0.57691604
0.584643 0.53415346 0.57251644 0.71373004 0.5817906 0.5255666 0.5785292 0.5923763
0.5390002 0.56413823 0.53018934 0.5647316 0.9369571 0.5943486 0.6225743 0.61045694
0.42147943 0.62226236 0.4797435 0.56194276 0.54239523 0.5814827 0.5625864 0.57300663
0.47133696 0.5374244 0.6119277 0.5351829 0.5614694 0.51857704 0.5800995 0.549626
0.6899708 0.6112613 0.5742937 0.47359076 0.55958384 0.5255276 0.6236432 0.68257374
0.67486453 0.68609846 0.54945034 0.54520667 0.55872166 0.66490155 0.62182057 0.6655473
0.6162974 0.58263326 0.60004896 0.5146066 0.6126013 0.5195173 0.5315797 0.5922636
0.5530346 0.5343857 0.56381476 0.64636534 0.60568357 0.56557196 0.9856287 0.5226285
0.5642668 0.4789946 0.5713894 0.60435086 0.59974104 0.5923719 0.6276204 0.5549586
0.5446304 0.43785375 0.5745172 0.63997626 0.6425095 0.6696524 0.34897944 0.5094592
0.5234929 0.588227 0.56367725 0.46941227 0.5213955 0.522553 0.5902666 0.59494346
0.6277173 0.57488227 0.5696976 0.4747986 0.5984368 0.624831 0.5962137 0.5953189
0.6031111 0.59270644 0.5966556 0.56136084 0.5164777 0.5751737 0.59530693 0.57112604
0.6139989 0.57546693 0.5562392 0.5495031 0.50787354 0.51212955 0.6594832 0.5569122
0.5633238 0.49959746 0.4227234 0.5236714 0.5682171 0.56563073 0.5115185 0.5627448
00000000: 3323 103f 6981 0f3f 8b18 1d3f 9cb1 2a3f
00000010: 11e9 0e3f b412 783f c61a 113f c5b0 133f
00000020: 2aab 153f 48be 083f 7090 123f 03b7 363f
00000030: 3bf0 143f 888b 063f 7d1a 143f f9a5 173f
00000040: ebfb 093f 5d6b 103f 7dba 073f 4092 103f
00000050: 6cdc 6f3f 3b27 183f 0861 1f3f e846 1c3f
00000060: 27cc d73e 964c 1f3f f1a0 f53e 7bdb 0f3f
00000070: 6ada 0a3f 0ddc 143f aa05 103f 90b0 123f
00000080: 1453 f13e a594 093f 4ba7 1c3f bf01 093f
00000090: 75bc 0f3f 77c1 043f 6781 143f 4ab4 0c3f
000000a0: eda1 303f 9f7b 1c3f e904 133f 7d7a f23e
000000b0: e340 0f3f fa88 063f 15a7 1f3f 27bd 2e3f
000000c0: ecc3 2c3f 26a4 2f3f c7a8 0c3f aa92 0b3f
000000d0: 6208 0f3f fd36 2a3f a22f 1f3f 4f61 2a3f
000000e0: abc5 1d3f 7427 153f cf9c 193f 42bd 033f
000000f0: 70d3 1c3f 16ff 043f 9b15 083f 969e 173f
00000100: ad93 0d3f 80cd 083f 2a56 103f 3378 253f
00000110: 140e 1b3f 53c9 103f 2a52 7c3f fbca 053f
00000120: ca73 103f c83e f53e 9346 123f bdb6 1a3f
00000130: a188 193f afa5 173f bbab 203f c411 0e3f
00000140: e66c 0b3f 5e2e e03e 8f13 133f 7cd5 233f
00000150: 817b 243f 576e 2b3f 6fad b23e eb6b 023f
00000160: a103 063f 0b96 163f 274d 103f ce56 f03e
00000170: 2d7a 053f 09c6 053f b61b 173f 374e 183f
00000180: 15b2 203f 7c2b 133f b4d7 113f cd18 f33e
00000190: 2733 193f edf4 1f3f 76a1 183f d266 183f
000001a0: 7d65 1a3f 9cbb 173f 6cbe 183f 58b5 0f3f
000001b0: e237 043f 953e 133f 0966 183f 5135 123f
000001c0: 082f 1d3f cd51 133f b165 0e3f 3cac 0c3f
000001d0: 0004 023f ec1a 033f e4d3 283f cc91 0e3f
000001e0: fd35 103f 3dcb ff3e 346f d83e 540f 063f
000001f0: ad76 113f 2dcd 103f e0f2 023f 0b10 103f

layers.0.b f4 [128]
0.14656419 0.2702139 0.17115952 0.13990358 0.13108087 -0.025500806 -0.120000854 0.14114077
-0.17659014 -0.11987686 -0.14127773 -0.25855684 -0.16156317 0.20422737 -0.20530508 -0.22586891
0.24277563 -0.15621446 -0.27741012 0.18016003 -0.072665304 0.17040917 -0.20502587 0.25179738
-0.33903137 0.17817822 -0.17246835 0.17014912 0.13448632 -0.21644542 0.16971798 -0.14956872
0.14168833 -0.1474041 -0.32889783 -0.1797937 0.18024011 0.1481966 -0.17106886 -0.14284766
0.13098481 0.1928337 -0.3115094 0.21561922 0.12228527 -0.13225676 -0.212562 -0.19989868
0.24903435 0.2363569 -0.14318077 0.34130672 -0.13448454 -0.21607974 -0.12422212 0.17738307
-0.12469334 -0.2104545 0.17938152 -0.15595193 0.16897273 -0.1372689 0.19565833 -0.1334903
0.14534737 0.24311921 0.10052592 0.18015705 -0.11122964 -0.19925722 0.04891521 0.15102245
-0.16009593 0.15077493 -0.20247191 -0.16140398 0.10687281 0.25151595 0.13809258 0.18922804
0.14160116 -0.1362242 -0.18469939 0.17880619 -0.20596917 0.2191638 -0.36159837 0.2312491
-0.20652615 0.20376208 0.19961537 -0.16372286 -0.18034247 0.25189155 -0.21788698 -0.16414045
0.24051403 0.1440861 0.2980165 -0.27364793 -0.188863 0.16565792 0.15007386 0.1257332
-0.23518682 0.1894396 -0.21245523 -0.23427124 -0.14714877 0.15120167 -0.18914905 0.1418606
-0.1691924 -0.17805667 0.10499902 0.17704803 -0.18343201 0.2557111 0.200702 0.16420537
0.12681024 -0.24008195 0.16615047 0.24155785 0.1496625 0.18536165 -0.19321677 0.14756806
00000000: ec14 163e 7a59 8a3e 7144 2f3e e242 0f3e
00000010: 103a 063e 11e7 d0bc 02c3 f5bd 3587 103e
00000020: 0cd4 34be 0082 f5bd 1cab 10be 9061 84be
00000030: d170 25be fb20 513e 7f3b 52be 2e4a 67be
00000040: 2d9a 783e aff6 1fbe b308 8ebe df7b 383e
00000050: 8cd1 94bd be7f 2e3e 4df2 51be 96eb 803e
00000060: 8595 adbe 5a74 363e 8b9b 30be 923b 2e3e
00000070: c8b6 093e dea3 5dbe 8dca 2d3e 8b28 19be
00000080: bf16 113e 1af1 16be 4c65 a8be d71b 38be
00000090: dd90 383e d9c0 173e ad2c 2fbe a846 12be
000000a0: e220 063e 3376 453e 297e 9fbe 49cb 5c3e
000000b0: b370 fa3d 516e 07be daa9 59be 3db2 4cbe
000000c0: dc02 7f3e 8b07 723e fb9d 12be c1bf ae3e
000000d0: 51b6 09be 0244 5dbe 2b68 febd e8a3 353e
000000e0: 395f ffbd 6281 57be caaf 373e ddb1 1fbe
000000f0: 3007 2d3e 3890 0cbe a85a 483e aeb1 08be
00000100: f1d5 143e 3ef4 783e 89e0 cd3d 177b 383e
00000110: 5ecc e3bd 160a 4cbe 515b 483d a1a5 1a3e
00000120: 30f0 23be be64 1a3e cc54 4fbe 1647 25be
00000130: 22e0 da3d b3c6 803e 2468 0d3e ffc4 413e
00000140: e5ff 103e 5b7e 0bbe d621 3dbe f818 373e
00000150: 95e9 52be 7a6c 603e 6c23 b9be 90cc 6c3e
00000160: 977b 53be 02a7 503e f967 4c3e f7a6 27be
00000170: b2ab 38be eef7 803e c41d 5fbe 6f14 28be
00000180: 4f49 763e 4e8b 133e 9e95 983e 951b 8cbe
00000190: 4d65 41be 3ba2 293e f6ac 193e 34c0 003e
000001a0: d0d4 70be 74fc 413e dd8d 59be cde4 6fbe
000001b0: 2bae 16be 9cd4 1a3e 4ab0 41be e843 113e
000001c0: c640 2dbe 7d54 36be ba09 d73d 144c 353e
000001d0: 9ad5 3bbe 91ec 823e d384 4d3e 7425 283e
000001e0: 8bda 013e 0bd8 75be 5923 2a3e f15a 773e
000001f0: 2041 193e 72cf 3d3e 9eda 45be 151c 173e

layers.0.c f4 [128]
-0.20208289 0.16111378 -0.18654235 0.22968462 -0.21780148 -0.15648618 0.23843338 -0.26404762
0.16509166 0.26824206 -0.17541528 0.09190692 0.12613627 -0.13220377 -0.21074437 0.114135504
-0.11961297 -0.14956045 -0.114459336 0.12001162 -0.11457825 -0.2328661 0.14840816 0.13178264
-0.1465182 0.16026257 -0.14793096 0.17848007 -0.19626059 -0.14570737 -0.13288933 -0.19973126
0.25652966 -0.20406853 0.1017139 -0.15806505 0.13370454 0.16971481 0.15684906 0.28967467
-0.17786126 -0.16033988 0.13595197 -0.15940982 -0.26198748 -0.28243554 -0.15029268 0.16193934
0.115949154 0.15083699 -0.22972155 0.21335457 -0.26804292 -0.13237117 -0.145878 -0.16908787
-0.30987632 0.13656849 0.152531 -0.23404297 0.1259665 -0.18855914 -0.1317406 -0.2102144
-0.28110212 -0.1292708 0.27321324 -0.16428763 -0.24415323 0.13882057 0.09926128 -0.18836752
0.13889036 -0.18822266 -0.12972663 0.18167733 -0.24531598 -0.09614676 -0.26439628 -0.15570338
0.18480736 -0.23412563 0.15005918 -0.29818022 0.1427571 0.19780803 0.41566032 0.10701266
-0.13928822 -0.19716066 0.14545016 0.1999271 -0.20581654 -0.12015138 -0.18310978 0.17734545
0.22259416 -0.22389683 0.098095365 -0.091063544 -0.23299898 -0.14665885 0.15604432 0.16898751
-0.11603196 0.16970012 -0.15555224 -0.19653317 -0.2533194 0.26064506 -0.16907762 0.20697142
0.19420925 -0.20222852 -0.27968577 -0.15048936 0.13930218 -0.09914667 -0.10982902 -0.15229054
-0.21887992 0.16483015 -0.17289916 0.18130258 -0.18681166 -0.14258051 0.16722457 -0.1765139
00000000: d1ee 4ebe 03fb 243e f504 3fbe 7232 6b3e
00000010: 5a07 5fbe ea3d 20be e127 743e 4031 87be
00000020: ca0d 293e 0657 893e 10a0 33be b239 bc3d
00000030: de29 013e 6d60 07be 5fcd 57be e0bf e93d
00000040: a5f7 f4bd 6026 19be a869 eabd a7c8 f53d
00000050: 00a8 eabd 7374 6ebe 4ff8 173e 07f2 063e
00000060: de08 16be df1b 243e 377b 17be 7bc3 363e
00000070: 89f8 48be 5034 15be 2414 08be 5a86 4cbe
00000080: db57 833e 57f7 50be 614f d03d cedb 21be
00000090: d8e9 083e b8c9 2d3e 0a9d 203e 3d50 943e
000000a0: 4321 36be 2330 24be fe36 0b3e 543c 23be
000000b0: 3923 86be 649b 90be 53e6 19be 6dd3 253e
000000c0: c076 ed3d 0375 1a3e 203c 6bbe 9f79 5a3e
000000d0: ec3c 89be 4f8c 07be 0b61 15be 5f25 2dbe
000000e0: 1ca8 9ebe 9cd8 0b3e 1631 1c3e f6a8 6fbe
000000f0: 5dfd 003e a615 41be 02e7 06be 7242 57be
00000100: 9eec 8fbe 915f 04be 9be2 8b3e 043b 28be
00000110: 4e03 7abe fb26 0e3e 7f49 cb3d 6ae3 40be
00000120: 4639 0e3e 71bd 40be 0fd7 04be 9f09 3a3e
00000130: 1d34 7bbe 98e8 c4bd f35e 87be b570 1fbe
00000140: 243e 3d3e a1be 6fbe 1da9 193e 14ab 98be
00000150: eb2e 123e 308e 4a3e 6ed1 d43e 7429 db3d
00000160: 92a1 0ebe 7ce4 49be e3f0 143e b1b9 4c3e
00000170: 92c1 52be ed11 f6bd 2181 3bbe 0c9a 353e
00000180: b9ef 633e 3645 65be 39e6 c83d 867f babd
00000190: 4997 6ebe bd2d 16be 15ca 1f3e 100b 2d3e
000001a0: 2aa2 edbd dec5 2d3e 1649 1fbe fe3f 49be
000001b0: 15b3 81be 4573 853e af22 2dbe 51f0 533e
000001c0: cade 463e fe14 4fbe f932 8fbe e219 1abe
000001d0: 3ba5 0e3e 690d cbbd 0aee e0bd 0df2 1bbe
000001e0: 0f22 60be 3cc9 283e 7a0c 31be 62a7 393e
000001f0: 8e4b 3fbe a000 12be eb3c 2b3e 0fc0 34be

layers.0.out_bias f4 [128]
0.0022536465 0.015426348 0.00883131 0.007841487 -0.0082768155 0.008862314 0.00905725 -0.008873944
0.0018607178 -0.005885559 -0.0026444744 0.0032687723 0.0035975203 0.0073450305 0.0004598516 -0.00047106837
-0.0065351888 0.004646805 -0.01164661 -0.0046747667 0.00075614225 0.005849548 0.004803145 0.00292366
0.014085814 -0.0029930538 0.0017513303 -0.01433054 -0.0014110195 0.013238889 -0.002991721 -0.011271041
-0.0188996 -0.0017818923 -0.003725013 -0.0024392633 0.00583998 -0.00031287034 -0.002897896 0.003618795
0.032638695 -0.0028558553 0.00763093 -0.009957993 0.0028399185 -0.0043205894 0.0012142948 0.017713567
0.007861315 -0.0137667125 -0.019478848 0.020507032 -0.00097014493 -0.021482287 0.00796013 0.012673297
0.028166762 -0.0014311573 -0.0037489496 -0.0038183683 0.0038015533 0.001011197 0.005956125 0.0030580063
0.020361012 0.0023534147 0.007025342 0.0152773 0.023583177 0.0023484705 0.0057458794 -0.023611791
-0.00015288912 0.01538038 -0.007473398 -0.0122769335 0.0015696066 0.00828485 -0.022538023 -0.0007061591
0.007066589 0.00049862085 -0.00030702315 0.027979752 0.008542625 0.06336796 0.038613703 -0.0039619044
0.008113451 0.0051512667 0.0014206982 -0.020807408 -0.0014518162 -0.015869021 0.012184817 0.018602557
0.013346603 -0.009326334 -0.004127578 0.009540128 0.012223208 -0.0009700102 -0.0059965444 0.0006552014
0.0035433676 0.0013286715 -0.0009627118 0.026631592 0.0012288019 -0.006767736 -0.000507361 -0.00096310175
0.007955198 0.00044827606 -0.0036665308 -0.0021453483 0.007068073 -0.009895435 0.01306959 0.010008682
-0.001113028 -0.002334918 0.00751327 -0.013997801 0.011465635 -0.003317328 0.011324002 -0.003962822
00000000: eab1 133b cbbe 7c3c 33b1 103c 9579 003c
00000010: 7b9b 07bc 3d33 113c dc64 143c 0564 11bc
00000020: 54e3 f33a a6db c0bb eb4e 2dbb e638 563b
00000030: 60c4 6b3b 95ae f03b 3d18 f139 baf9 f6b9
00000040: 2325 d6bb 3a44 983b 6cd1 3ebc c92e 99bb
00000050: d937 463a 91ad bf3b b363 9d3b e09a 3f3b
00000060: 30c8 663c 1c27 44bb e58c e53a a4ca 6abc
00000070: f5f1 b8ba ede7 583c c010 44bb 2caa 38bc
00000080: 55d3 9abc 628e e9ba 591f 74bb 0cdc 1fbb
00000090: 4e5d bf3b bf08 a4b9 a1ea 3dbb 4e29 6d3b
000000a0: 27b0 053d 4d29 3bbb e10c fa3b da26 23bc
000000b0: ed1d 3a3b bb93 8dbb f928 9f3a 0b1c 913c
000000c0: bfcc 003c c78d 61bc 1b92 9fbc 5dfe a73c
000000d0: 5351 7eba 9ffb afbc 356b 023c a9a3 4f3c
000000e0: fbbd e63c ac95 bbba f0b0 75bb 973d 7abb
000000f0: 7b23 793b 248a 843a 992b c33b d568 483b
00000100: 23cc a63c bf3b 1a3b d734 e63b a44d 7a3c
00000110: 8231 c13c cce8 193b ee47 bc3b 846d c1bc
00000120: dc50 20b9 fdfd 7b3c 68e3 f4bb 3125 49bc
00000130: 42bb cd3a 2ebd 073c a9a1 b8bc 891d 39ba
00000140: d88e e73b e1b5 023a f3f7 a0b9 cb35 e53c
00000150: 5ef6 0b3c 10c7 813d 6729 1e3d ddd2 81bb
00000160: 48ee 043c f5cb a83b b936 ba3a 4c74 aabc
00000170: de4a beba c0ff 81bc d4a2 473c 6464 983c
00000180: b6ab 5a3c 7bcd 18bc a240 87bb 324e 1c3c
00000190: da43 483c 4848 7eba a97e c4bb d2c1 2b3a
000001a0: d837 683b d126 ae3a 7f5e 7cba 7f2a da3c
000001b0: c00f a13a e2c3 ddbb 6c00 05ba aa78 7cba
000001c0: 8556 023c 9806 eb39 2e4a 70bb f998 0cbb
000001d0: 4b9b e73b 7620 22bc d521 563c 74fb 233c
000001e0: 06e3 91ba 6c05 19bb e031 f63b 0857 65bc
000001f0: 5cda 3b3c 8767 59bb 4f88 393c 8fda 81bb

layers.0.in_proj.weight f4 [128, 128]
0.011457171 0.06488139 0.034115165 -0.06500444 0.045850776 -0.04568976 -0.09708768 0.099473275
0.021316882 -0.107744284 -0.03510849 -0.019801373 0.10849346 0.0044130743 -0.15180337 -0.16254498
0.030026972 0.05735879 0.13327372 0.008959513 -0.06423558 -0.21140376 0.096097864 0.023416804
-0.03357492 0.0072839023 0.0073836893 0.15631483 -0.24138016 -0.053677473 0.0072309086 0.14950508
-0.079343416 -0.20979322 -0.025310166 0.02447953 -0.03202363 0.05140183 0.13919549 -0.06204068
0.01924052 0.13995472 -0.023553928 0.03965757 -0.05869438 -0.024859414 -0.034660853 -0.07539275
0.034169193 -0.12520793 -0.09202057 -0.037537936 -0.010630178 -0.002602946 -0.028849198 -0.0677859
-0.122565344 0.032570686 -0.08933108 0.0073082466 0.030262029 -0.21745674 -0.19484626 -0.035040837
-0.12836038 0.036593422 -0.011032943 0.066450156 -0.24092452 0.012130354 0.14860536 0.0565454
-0.07642434 -0.11994329 -0.016109256 -0.018962286 0.0740293 -0.046057697 -0.18391229 -0.060542393
0.03539058 0.054978054 -0.03846607 -0.043256436 -0.0044197794 0.10826204 0.016329864 -0.047960613
0.06620578 0.028035725 0.0111029 0.04277507 -0.14530158 -0.16240242 -0.016053386 -0.008692629
0.05592984 0.12839106 -0.087933645 0.088110276 0.1563557 0.08589261 0.17550386 0.07040184
0.059598304 0.1988026 -0.038067747 0.01682217 0.09821317 -0.081387624 -0.00042674658 0.058898307
-0.026459033 0.0964574 -0.06855935 -0.019984433 0.14251776 -0.062380876 0.014700406 -0.13638246
0.116770834 -0.04302353 -0.036502194 0.0031491697 0.054620475 0.039645497 0.12385173 0.0477903
-0.069597736 0.08806841 0.014526276 0.072622634 -0.0065569365 -0.008749119 -0.1845439 -0.04448507
0.091359615 0.030659122 0.027360862 -0.10590326 -0.099797636 0.13990396 -0.0038158956 -0.10216375
0.21515004 -0.040198334 0.0055469214 0.045311306 -0.11021305 -0.0055873487 0.0896447 -0.010703955
0.085130624 0.11961547 0.107210346 0.1326014 0.01249954 0.0621135 -0.032503676 -0.08360084
-0.09923469 0.044268575 -0.026544783 -0.09701809 0.017305005 0.067290984 0.013496861 0.11204686
-0.09522557 0.08906647 -0.20941898 0.017956452 0.09811911 0.011621612 0.05481571 -0.014359919
-0.08740974 -0.10543374 0.038717672 0.20514706 -0.12637746 0.07378181 0.028117832 0.13410318
0.026273122 0.045332134 0.013532681 0.19524957 0.021271456 0.014125286 0.12592599 0.041820906
-0.10629091 0.006393169 0.20312053 0.012665996 0.00015417105 -0.015578881 -0.22931327 -0.08021724
0.09801693 0.062276304 -0.05546458 0.03358147 0.09238258 -0.060854997 0.021252947 0.03159471
-0.03969405 0.069335856 0.012369371 0.06793833 -0.08771274 -0.03962834 0.06188813 -0.04639741
-0.039141655 0.047931448 0.060410436 -0.08289887 -0.10137838 -0.02661145 -0.1693145 0.03260539
-0.03367535 -0.03711998 0.062491965 0.02732162 -0.084578305 -0.09748382 -0.05266329 0.027907932
0.09911155 -0.091611445 0.082911655 -0.025104968 0.116272844 -0.05571894 -0.11770506 -0.0752046
-0.06780576 0.0015543249 -0.06714295 -0.18451677 0.00080096576 0.04878708 -0.18987215 0.044558212
-0.036547653 0.09903813 -0.032876518 0.0068065217 -0.020077704 0.10174512 0.021760175 -0.069720566
00000000: dcb6 3b3c 89e0 843d 58bc 0b3d 0c21 85bd
00000010: 06ce 3b3d 3025 3bbd e8d5 c6bd a5b8 cb3d
00000020: bea0 ae3c 09a9 dcbd eccd 0fbd 7d36 a2bc
00000030: d231 de3d 8d9b 903b 5872 1bbe 3172 26be
00000040: 20fb f53c 0df1 6a3d e878 083e ecca 123c
00000050: f28d 83bd 3a7a 58be f5ce c43d 99d4 bf3c
00000060: db85 09bd cdad ee3b e0f2 f13b ff10 203e
00000070: 5c2c 77be e9dc 5bbd 42f1 ec3b dc17 193e
00000080: cd7e a2bd 09d4 56be 4457 cfbc 4c89 c83c
00000090: 362b 03bd ba8a 523d 4389 0e3e 5e1e 7ebd
000000a0: 4c9e 9d3c 4a50 0f3e 2bf4 c0bc fa6f 223d
000000b0: 8569 70bd f8a5 cbbc 8af8 0dbd 8467 9abd
000000c0: fff4 0b3d 8236 00be 4875 bcbd 61c1 19bd
000000d0: 332a 2ebc 3096 2abb 2755 ecbc 55d3 8abd
000000e0: 8a03 fbbd d768 053d 37f3 b6bd 047a ef3b
000000f0: 13e8 f73c fbac 5ebe c785 47be fb86 0fbd
00000100: e770 03be fce2 153d 84c3 34bc 0517 883d
00000110: ebb4 76be 64be 463c 012c 183e 269c 673d
00000120: 5d84 9cbd d4a4 f5bd 8ff7 83bc cc56 9bbc
00000130: ac9c 973d ffa6 3cbd 8153 3cbe 4dfb 77bd
00000140: b6f5 103d ab30 613d 998e 1dbd a92d 31bd
00000150: ccd3 90bb 7db8 dd3d 35c6 853c 5972 44bd
00000160: e596 873d 2dab e53c f0e8 353c e934 2f3d
00000170: f0c9 14be d24c 26be 6482 83bc 876b 0ebc
00000180: b016 653d f278 033e 8e16 b4bd 2973 b43d
00000190: b51b 203e 77e8 af3d 49b7 333e d72e 903d
000001a0: 5a1d 743d e992 4b3e edec 1bbd a6ce 893c
000001b0: fd23 c93d 8eae a6bd f5bc dfb9 5a3f 713d
000001c0: 9dc0 d8bc 758b c53d d868 8cbd 65b6 a3bc
000001d0: 2df0 113e 1783 7fbd f9d9 703c d8a7 0bbe
000001e0: 8c25 ef3d 7139 30bd 5383 15bd 4d62 4e3b
000001f0: b8b9 5f3d 5163 223d faa5 fd3d c3bf 433d
00000200: 4289 8ebd 365d b43d 9eff 6d3c 2dbb 943d
00000210: 92db d6bb 7758 0fbc 13f9 3cbe fa35 36bd
00000220: c01a bb3d d728 fb3c e323 e03c cfe3 d8bd
00000230: b462 ccbd fc42 0f3e 1b14 7abb 3a3b d1bd
00000240: 4b50 5c3e 02a7 24bd f3c2 b53b 5998 393d
00000250: 61b7 e1bd 1416 b7bb a497 b73d a45f 2fbc
00000260: f758 ae3d f5f8 f43d 1991 db3d a9c8 073e
00000270: dfca 4c3c ba6a 7e3d 9322 05bd eb36 abbd
00000280: 8f3b cbbd f752 353d 7274 d9bc 6cb1 c6bd
00000290: 3ac3 8d3c dbcf 893d f021 5d3c d378 e53d
000002a0: a005 c3bd 7b68 b63d ee71 56be 6919 933c
000002b0: acf2 c83d 9368 3e3c 7086 603d de45 6bbc
000002c0: e103 b3bd a5ed d7bd 6c96 1e3d 1212 523e
000002d0: 1869 01be eb1a 973d 5e57 e63c 5852 093e
000002e0: bb3a d73c 30ae 393d 2eb8 5d3c 81ef 473e
000002f0: 7a41 ae3c be6d 673c bef2 003e 664c 2b3d
00000300: 0caf d9bd ca7d d13b d4fe 4f3e 0a85 4f3c
00000310: faa8 2139 903e 7fbc 19d1 6abe f048 a4bd
00000320: 1abd c83d 7015 7f3d d42e 63bd b98c 093d
00000330: 1433 bd3d 1743 79bd a91a ae3c 7469 013d
00000340: 3a96 22bd f5ff 8d3d e7a8 4a3c 4023 8b3d
00000350: bda2 b3bd 5451 22bd 687e 7d3d 360b 3ebd
00000360: 0053 20bd c453 443d ef70 773d e2c6 a9bd
00000370: 789f cfbd 4100 dabc c860 2dbe 3b8d 053d
00000380: 2aef 09bd 1f0b 18bd 93f7 7f3d 97d1 df3c
00000390: 6437 adbd 99a5 c7bd 76b5 57bd 2d9f e43c
000003a0: fffa ca3d c89e bbbd 96cd a93d efa8 cdbc
000003b0: 7520 ee3d 8b39 64bd 5a0f f1bd df04 9abd
000003c0: bfdd 8abd 7dba cb3a 3e82 89bd f7f1 3cbe
000003d0: e7f7 513a f6d4 473d d86d 42be ac82 363d
000003e0: feb2 15bd 81d4 ca3d 87a9 06bd 3e09 df3b
000003f0: ff79 a4bc bf5f d03d 6542 b23c a8c9 8ebd

layers.1.a f4 [128]
0.97218186 0.82724404 0.96665186 0.4796205 0.4385843 0.45586905 0.37558764 0.6602768
0.5183435 0.654652 0.3947854 0.43333057 0.5016256 0.5060902 0.5349449 0.38136896
0.47626954 0.3776429 0.4819158 0.43963543 0.7209874 0.8183406 0.65587956 0.48710555
0.37198058 0.45670125 0.47212774 0.4651754 0.45424417 0.5625942 0.56072265 0.50941515
0.38977298 0.58848345 0.558679 0.33457685 0.47491246 0.31546015 0.5692162 0.494052
0.5138154 0.9642473 0.5984785 0.38026157 0.5187949 0.4998699 0.4940021 0.4990507
0.6685098 0.71705526 0.54701424 0.565211 0.6384818 0.49447376 0.68510807 0.3842808
0.5113653 0.42280224 0.57872903 0.32397678 0.37157393 0.4021543 0.4377375 0.36962646
0.45790142 0.5207495 0.46360794 0.368336 0.6452466 0.4703156 0.5952656 0.48883548
0.21973595 0.703143 0.47904748 0.65495056 0.50332576 0.4157391 0.7110223 0.44653496
0.53410965 0.4341759 0.50511336 0.79587996 0.5059972 0.6286739 0.36764997 0.4122503
0.5366827 0.48989016 0.52809316 0.5457453 0.39288458 0.39689085 0.4157883 0.6042591
0.5405516 0.48931822 0.5483533 0.5840829 0.62181634 0.46803665 0.33893058 0.43187892
0.47792506 0.5865285 0.5232498 0.47079742 0.42079204 0.41475454 0.47029367 0.4543498
0.59369314 0.5907669 0.48052022 -0.080791965 0.39516363 0.33186886 0.47484356 0.31985357
0.19407117 0.5456101 0.5091874 0.52625597 0.2753252 0.37277925 0.47892788 0.26631662
00000000: e9e0 783f 44c6 533f 7f76 773f d190 f53e
00000010: 1f8e e03e ab67 e93e 064d c03e e607 293f
00000020: 29b2 043f 4697 273f 5021 ca3e 81dd dd3e
00000030: 896a 003f 218f 013f 26f2 083f cb42 c33e
00000040: 9ad9 f33e 695a c13e abbd f63e e517 e13e
00000050: a192 383f c57e 513f b9e7 273f e665 f93e
00000060: 3d74 be3e bfd4 e93e baba f13e 782b ee3e
00000070: b192 e83e 2c06 103f 858b 0f3f 0869 023f
00000080: 5390 c73e daa6 163f 9605 0f3f a84d ab3e
00000090: ba27 f33e fe83 a13e 27b8 113f 62f4 fc3e
000000a0: 6889 033f e9d8 763f e335 193f a5b1 c23e
000000b0: becf 043f f3ee ff3e d8ed fc3e 9383 ff3e
000000c0: 7523 2b3f ef90 373f 2009 0c3f abb1 103f
000000d0: 8b73 233f aa2b fd3e 3e63 2f3f 74c0 c43e
000000e0: d6e8 023f 8979 d83e 9627 143f 49e0 a53e
000000f0: f03e be3e 2be7 cd3e 211f e03e ae3f bd3e
00000100: 0e72 ea3e d74f 053f 055e ed3e 8996 bc3e
00000110: e22e 253f 35cd f03e 5463 183f a548 fa3e
00000120: 7602 613e 2e01 343f b645 f53e d7aa 273f
00000130: f5d9 003f c1db d43e 8f05 363f 3ba0 e43e
00000140: 69bb 083f 4e4c de3e 1c4f 013f cabe 4b3f
00000150: 0889 013f c6f0 203f 9e3c bc3e 7912 d33e
00000160: 0a64 093f e2d2 fa3e 1d31 073f f7b5 0b3f
00000170: 2b28 c93e 4735 cb3e 34e2 d43e b9b0 1a3f
00000180: 9761 0a3f eb87 fa3e e260 0c3f 7586 153f
00000190: 5b2f 1f3f 80a2 ef3e 4f88 ad3e 3c1f dd3e
000001a0: 98b2 f43e bb26 163f b3f3 053f 5c0c f13e
000001b0: 0e72 d73e b55a d43e 55ca f03e 89a0 e83e
000001c0: 46fc 173f 803c 173f bf06 f63e 4276 a5bd
000001d0: e352 ca3e b7ea a93e b21e f33e d9c3 a33e
000001e0: 98ba 463e 1aad 0b3f 1b5a 023f b6b8 063f
000001f0: 6df7 8c3e ecdc be3e 0936 f53e a75a 883e

layers.1.b f4 [128]
0.070994414 -0.16887696 0.06911562 -0.25595963 0.26506338 0.16750455 0.3006772 0.16827665
0.17629969 -0.114659674 0.24045832 0.20850848 -0.18072528 -0.22468728 0.1953714 0.17958105
-0.19576855 0.18686028 0.22879568 0.25474355 0.28146905 -0.129303 0.15969798 -0.22547425
-0.2715797 0.1986298 0.1757039 -0.16898005 -0.20640998 0.19978477 0.23479484 0.24100353
0.184347 0.16086373 -0.20833424 -0.26808313 0.24508384 0.14599697 -0.20637092 0.21061705
0.40646163 -0.095957085 0.14364158 0.13000914 -0.14090957 -0.17413075 0.22266153 -0.19493662
0.11304392 0.2633613 0.17681387 -0.19520955 -0.1610592 -0.19937266 0.18388511 0.20312415
-0.18721612 0.21511573 -0.15786113 0.22676063 -0.18148617 0.19825718 -0.18069826 -0.279717
0.1876001 0.20597862 -0.20576388 0.22383855 -0.23251806 -0.22863036 -0.20335566 -0.17702344
-0.26771623 0.23120062 -0.24399213 -0.21197546 -0.21449801 -0.1643972 -0.110972635 0.26503378
0.24716032 -0.16332552 0.24467045 0.23728836 -0.22168009 -0.17755133 0.24777298 -0.16935591
0.26962474 0.25969055 0.13083458 -0.14771342 -0.18740547 0.21821104 -0.19481055 0.14876959
0.22259313 -0.33382058 -0.16749732 -0.18388107 -0.17255902 -0.15588555 0.22997825 -0.1574415
0.18485636 -0.20692103 -0.23466015 0.21562354 -0.2657651 -0.24278541 -0.20692413 -0.12587109
-0.21295652 -0.15549143 -0.33761236 0.13294971 0.24654488 0.13713531 -0.19251867 0.26551577
-0.17503965 -0.17653984 0.21901797 0.18710549 0.18562867 -0.22032845 -0.15784727 -0.14674965
00000000: 8565 913d 15ee 2cbe 7d8c 8d3d 240d 83be
00000010: 63b6 873e 5086 2b3e 5df2 993e b750 2c3e
00000020: e887 343e b1d2 eabd b53a 763e 3f83 553e
00000030: 0c10 39be 6c14 66be 710f 483e 18e4 373e
00000040: 8d77 48be 4d58 3f3e 6a49 6a3e bf6d 823e
00000050: b61c 903e 0168 04be de87 233e b9e2 66be
00000060: 7f0c 8bbe 9c65 4b3e b9eb 333e 1b09 2dbe
00000070: 235d 53be 6194 4c3e 0f6e 703e a1c9 763e
00000080: 76c5 3c3e 76b9 243e 9255 55be 3142 89be
00000090: 42f7 7a3e 3b80 153e e652 53be ffab 573e
000000a0: bd1b d03e 2685 c4bd c716 133e 1e21 053e
000000b0: 994a 10be 554f 32be 6201 643e 779d 47be
000000c0: 9283 e73d 4bd7 863e b20e 353e 03e5 47be
000000d0: b4ec 24be 5928 4cbe 614c 3c3e c7ff 4f3e
000000e0: 95b5 3fbe 4c47 5c3e 59a6 21be f033 683e
000000f0: 83d7 39be ee03 4b3e f708 39be 1137 8fbe
00000100: 3e1a 403e 0fec 523e c4b3 52be ef35 653e
00000110: 3719 6ebe 141e 6abe 773c 50be a245 35be
00000120: 1a12 89be dbbf 6c3e 13d9 79be 1810 59be
00000130: 5ea5 5bbe bd57 28be 9f45 e3bd 82b2 873e
00000140: 9817 7d3e ce3e 27be e48a 7a3e b8fb 723e
00000150: 1b00 63be 04d0 35be 33b8 7d3e a36b 2dbe
00000160: 410c 8a3e 29f6 843e 80f9 053e 3042 17be
00000170: 38e7 3fbe b772 5f3e 6b7c 47be 0e57 183e
00000180: 74ef 633e 88ea aabe 6b84 2bbe 524b 3cbe
00000190: 50b3 30be 76a0 1fbe 6b7f 6b3e 5838 21be
000001a0: fc4a 3d3e 1be3 53be c04a 70be 6bcc 5c3e
000001b0: 5d12 88be bd9c 78be ebe3 53be 5ae4 00be
000001c0: 4611 5abe 2539 1fbe 87db acbe f823 083e
000001d0: 4376 7c3e 336d 0c3e 9d23 45be aff1 873e
000001e0: 983d 33be dcc6 34be 3f46 603e 9598 3f3e
000001f0: 7115 3e3e c89d 61be b7a2 21be 8a45 16be

layers.1.c f4 [128]
-0.106536575 0.18766905 -0.15513386 -0.15694217 -0.123509295 -0.23554711 -0.13797162 -0.17198358
-0.21686238 0.24665429 0.15219904 -0.1927164 0.20819739 0.17906195 0.20830832 0.18362045
-0.18814044 -0.19715106 -0.16179074 0.13845868 0.26305637 -0.15050264 0.1914969 0.15597351
0.13191502 -0.18401633 0.18720603 -0.22146995 0.22165321 0.23496157 0.1310451 0.14030707
-0.1809298 -0.15920314 0.1954733 -0.17801598 0.16108628 0.2467488 0.2298711 -0.20420279
0.3179669 0.058163702 -0.30551136 -0.30133373 0.314853 0.20037645 0.17565966 0.2890529
-0.2690722 0.16668835 -0.19309635 0.17892137 -0.20368716 0.19724715 -0.1721596 0.22195151
-0.24173838 0.15644684 0.18933907 0.14789122 0.23118414 -0.16453628 0.20957583 0.15539263
0.17770378 -0.24042961 -0.15846531 -0.17481935 -0.1260664 0.14059503 -0.18954371 -0.18293485
0.12608477 -0.12141098 -0.13700211 0.19078264 -0.16157372 0.20078191 -0.24724409 0.14039667
0.15042683 0.24295287 0.14964159 -0.25109547 -0.16799738 -0.21998763 -0.14822333 0.19953375
-0.14885992 -0.17382708 -0.29302344 0.21353044 0.2219893 0.1733123 0.20266747 -0.25734237
0.21806197 0.11769987 -0.25713968 0.17569785 -0.23021655 -0.2109211 -0.15380883 -0.23444058
0.2659123 -0.18754771 0.1492454 0.1938241 -0.12983188 -0.1532186 0.14527963 -0.32384065
0.16140051 0.21805352 -0.12248307 0.22539997 -0.18263757 0.30587977 0.17857657 0.34900486
0.1767413 -0.16429006 0.1585276 0.22627315 -0.2218308 0.14764513 -0.23884138 -0.23765203
00000000: d92f dabd 512c 403e 69db 1ebe 73b5 20be
00000010: 71f2 fcbd 4333 71be 6f48 0dbe 771c 30be
00000020: 2c11 5ebe f192 7c3e 11da 1b3e 7357 45be
00000030: b231 553e 045c 373e c74e 553e 0007 3c3e
00000040: e3a7 40be f8e1 49be 79ac 25be 1dc8 0d3e
00000050: 53af 863e 5d1d 1abe c317 443e 85b7 1f3e
00000060: bb14 073e c76e 3cbe f0b2 3f3e 05c9 62be
00000070: 0ff9 623e c499 703e b030 063e a8ac 0f3e
00000080: a945 39be 2606 23be 272a 483e d249 36be
00000090: cdf3 243e b8ab 7c3e 5463 6b3e 891a 51be
000000a0: 8fcc a23e 103d 6e3d fc6b 9cbe 6a48 9abe
000000b0: 6a34 a13e 7c2f 4d3e 20e0 333e befe 933e
000000c0: d5c3 89be 5ab0 2a3e 0dbb 45be 2a37 373e
000000d0: 5e93 50be 28fb 493e 9b4a 30be 4247 633e
000000e0: 448a 77be 9a33 203e 1ae2 413e cc70 173e
000000f0: 89bb 6c3e 337c 28be 0c9b 563e 3f1f 1f3e
00000100: fbf7 353e 2e33 76be bb44 22be d803 33be
00000110: 8d17 01be 25f8 0f3e bf17 42be 4653 3bbe
00000120: 5e1c 013e 52a6 f8bd 484a 0cbe 865c 433e
00000130: 9573 25be c699 4d3e 8e2d 7dbe 25c4 0f3e
00000140: 7e09 1a3e a3c8 783e a53b 193e 968f 80be
00000150: 8107 2cbe 7044 61be dbc7 17be 9352 4c3e
00000160: bc6e 18be baff 31be 2b07 96be b9a7 5a3e
00000170: 2a51 633e c878 313e 1088 4f3e 61c2 83be
00000180: a34b 5f3e a10c f13d d0a7 83be 23ea 333e
00000190: e3bd 6bbe b3fb 57be 1080 1dbe 3111 70be
000001a0: a825 883e 820c 40be c9d3 183e d379 463e
000001b0: a6f2 04be 56e5 1cbe 2fc4 143e 71ce a5be
000001c0: 2d46 253e 6c49 5f3e 67d8 fabd 40cf 663e
000001d0: 5805 3bbe 469c 9c3e c7dc 363e c4b0 b23e
000001e0: acfb 343e a73b 28be 0f55 223e 26b4 673e
000001f0: 9d27 63be 4930 173e d692 74be 0e5b 73be

layers.1.out_bias f4 [128]
0.017587153 -0.0018653087 0.027242454 -0.010702086 -0.0061814343 0.01705448 -0.0066994145 0.0017151069
-0.010675309 0.005938784 7.9806225e-05 -0.015665162 0.005547504 0.010579364 0.0121718 0.0029197223
-0.012466885 -0.011558779 -0.008891568 -0.015754042 0.03880601 0.010911098 0.0036516858 0.004370642
0.015299127 0.003188208 -0.005184316 0.0043769134 0.018409234 -0.00681103 0.0008529326 -0.0040711607
-0.0036428792 0.0012129513 -0.0059422366 -0.021158628 -0.0056869746 -0.0079797935 -0.012667072 0.013197362
0.067432664 0.0057336483 0.026589671 0.0051572113 0.008525052 -0.0063018473 -0.010203397 0.020915518
0.012134959 -0.0059105274 0.00460309 0.0069601736 -0.0026310615 -0.0039924644 0.007313433 -0.012687517
0.012994062 -0.013884409 -0.0037173855 0.0004301736 0.011049942 -0.0061654793 -0.006518107 -0.012105094
0.0036563692 0.0039578876 0.00026089945 0.010877239 0.00607578 0.001831487 0.010680546 -0.011353715
-0.013354027 0.0075335074 0.00021343479 0.024465224 -0.005117162 0.00012915047 0.006267583 -0.006012194
-0.0054511344 -0.0048402403 -0.0004790323 0.1823221 0.0043273335 0.027700953 0.0005365968 0.002259583
-0.0069664996 0.010108562 0.0039996817 0.0040465645 0.0060829865 -0.012328537 -0.0033826826 -0.008075853
0.0125872195 -0.0071655493 0.0058150846 0.0053744186 0.010803196 -0.008578716 -0.0032109863 0.011070571
0.014414972 -0.0056836195 0.0063084215 0.006740553 -0.012340755 -0.0017275919 -0.0026773768 0.005983709
0.0018625964 -0.012054979 -0.016887235 0.0061367326 -2.0217192e-05 -0.009561918 -0.00011796049 0.034744743
0.016410338 -0.0006813765 -0.015022204 -0.0032556904 -0.00794186 -0.0031173062 0.0024433436 -0.0013664998
00000000: ef12 903c 607d f4ba 912b df3c cd57 2fbc
00000010: a18d cabb d6b5 8b3c c386 dbbb 70cd e03a
00000020: 7ee7 2ebc 229a c23b a45d a738 3a54 80bc
00000030: d6c7 b53b 1255 2d3c 3b6c 473c d058 3f3b
00000040: e841 4cbc 0861 3dbc f0ad 11bc 9f0e 81bc
00000050: 0df3 1e3d 76c4 323c 1f51 6f3b 9a37 8f3b
00000060: 31a9 7a3c 41f1 503b 32e1 a9bb 366c 8f3b
00000070: f6ce 963c 102f dfbb 5697 5f3a 5f67 85bb
00000080: 5fbd 6ebb e4fb 9e3a 18b7 c2bb dc54 adbc
00000090: cd59 babb aebd 02bc 8d89 4fbc c039 583c
000000a0: 231a 8a3d 54e1 bb3b 95d2 d93c d3fd a83b
000000b0: a9ac 0b3c ba7f cebb 262c 27bc 0557 ab3c
000000c0: b5d1 463c 19ad c1bb 85d5 963b 2b12 e43b
000000d0: e36d 2cbb 38d3 82bb 86a5 ef3b 4edf 4fbc
000000e0: 0ce5 543c 6f7b 63bc 619f 73bb ec88 e139
000000f0: d10a 353c ca07 cabb d895 d5bb 7254 46bc
00000100: b29f 6f3b 2bb1 813b 55c9 8839 7236 323c
00000110: 5617 c73b 820e f03a 75fd 2e3c ef04 3abc
00000120: d9ca 5abc a4db f63b 77cd 5f39 4b6b c83c
00000130: dead a7bb 916c 0739 4c60 cd3b f001 c5bb
00000140: 6e9f b2bb e19a 9ebb a026 fbb9 a5b2 3a3e
00000150: 4ecc 8d3b 1ced e23c 67aa 0c3a 8315 143b
00000160: 3c47 e4bb 629e 253c c30f 833b 0b99 843b
00000170: ca53 c73b a2fd 49bc ffaf 5dbb 9550 04bc
00000180: a03a 4e3c fccc eabb 778c be3b e41b b03b
00000190: e3ff 303c be8d 0cbc 696f 52bb 5761 353c
000001a0: c62c 6c3c a83d babb e0b6 ce3b dbdf dc3b
000001b0: e130 4abc 5d70 e2ba ee76 2fbb fd12 c43b
000001c0: 5d22 f43a 3f82 45bc 1957 8abc a516 c93b
000001d0: 1798 a9b7 97a9 1cbc 8e61 f7b8 8150 0e3d
000001e0: f96e 863c 679e 32ba b11f 76bc 6c5d 55bb
000001f0: 931e 02bc b84b 4cbb 8120 203b 201c b3ba
