diag-ssm-charlm/experiments/tiny/epoch_100_valppl_6.08_valacc_0.5065.pt (torch, 236577 bytes, 19 tensors)

emb.weight f4 [74, 64]
000000 e0 26 39 3f 2d a1 79 3f 95 92 aa bf 14 36 1f bf
       0.72324944 0.9751156 -1.3325983 -0.6219189
000010 88 22 48 bf 2f 24 8f bf c4 5f 91 3f 84 aa 98 be
       -0.7817769 -1.1182917 1.135735 -0.29817593
000020 c4 2f 01 3e 18 bc f9 be 72 d1 4a 3f c5 87 23 40
       0.12615877 -0.48776317 0.7922584 2.5551617
000030 f6 64 8b 3f f6 6d 73 be 54 ee bd 3e 53 30 6c 3f
       1.0890186 -0.23772416 0.37095892 0.92261237
000040 71 fe 0e be e4 53 ac 3d 86 44 ab bc 2b b8 6c bf
       -0.13964249 0.08414438 -0.020906698 -0.9246852
000050 c0 b0 5e bf 0d 45 22 bf 7c a4 63 3f 57 2e be 3f
       -0.8698845 -0.63386613 0.8892286 1.4857892
000060 ab 14 91 3e b3 b4 15 3f 3e 55 0c bd 6a e7 91 bf
       0.2833608 0.5847885 -0.03426098 -1.1398747
000070 d1 4b 38 3e 48 6d b0 3e 1b f9 63 3e c5 ad b0 3f
       0.17997672 0.34458375 0.22262995 1.380303
000080 d4 9f 8a bf fe 36 11 c0 ca 52 41 3e d2 5f 58 3e
       -1.0830026 -2.2689815 0.18879238 0.21130303
000090 ca 76 9e 3f de d7 3d bf 64 68 82 be 4f d5 4c bf
       1.2380002 -0.7415751 -0.2547027 -0.80012983
0000a0 ea 26 95 3e fe a6 a3 be 66 a2 79 3f cc 0b d5 be
       0.29131252 -0.31963342 0.97513425 -0.41610563
0000b0 9b 97 10 be 5e 5c c6 3f e8 5f 98 be 3f 99 ea 3d
       -0.14120333 1.5496938 -0.2976067 0.114550106
0000c0 f2 2a 9b be 6b c5 e0 3f f2 ca 4a bf 05 96 22 3e
       -0.30306202 1.7560247 -0.7921592 0.1587754
0000d0 8a c1 08 bf 03 9d ce 3e a4 36 44 3f 87 a0 3d 3f
       -0.5342032 0.40354165 0.76645875 0.7407307
0000e0 2f 16 19 3e d7 ff 26 3f 96 92 62 3f 36 5e 38 bf
       0.14949869 0.6523413 0.8850492 -0.72018754
0000f0 05 e8 39 3f 6b df 19 bf eb 1f 22 bf a9 fc d1 3f
       0.7261966 -0.60106534 -0.6332995 1.6405231
000100 1d 89 dc 3e 88 e0 df be cf 81 ef 3e 4c ea a6 3d
       0.4307336 -0.4372599 0.46778724 0.08150157
000110 03 73 0e be 1d 44 06 40 36 2d d7 be c4 25 ab bf
       -0.13911061 2.0979073 -0.4202668 -1.33709
000120 58 1c 40 be be f7 e7 3f 0a c2 97 3f 64 a1 b7 be
       -0.18760812 1.812248 1.1856091 -0.3586532
000130 ee 72 96 be c8 55 2a bf d4 b4 1a 3f da 6a 9e bf
       -0.2938456 -0.6653714 0.6043217 -1.2376359
000140 57 f8 f1 bd 41 35 0b bf 53 34 17 bf 0f 08 3e 3e
       -0.11814945 -0.54378134 -0.59064215 0.18557762
000150 e8 f3 12 3f e6 c5 8c 3f 1c c5 96 bf 37 68 9a 3e
       0.5740342 1.0997894 -1.1778903 0.30157635
000160 ac a5 af 3d 60 04 c7 be 72 8f ca be 20 bc 0e 3e
       0.08576521 -0.38870525 -0.39562565 0.13938951
000170 4e 1e c1 3e 41 8d bd bc 54 2f 50 bf 7e 65 a6 3f
       0.37718433 -0.023138644 -0.81322217 1.2999723
000180 e3 3c a9 3e f2 aa c3 3e 24 d9 83 3f c0 a6 91 3e
       0.33054265 0.38216358 1.0300641 0.28447533
000190 72 c3 d5 3e 5f 62 31 bf 4a 04 49 3d ef 00 23 3f
       0.41750675 -0.6929073 0.049076356 0.636733
0001a0 86 e0 cf 3f cf 00 ba 3e 1a 9b a4 3f e2 0f 24 bf
       1.6240394 0.36328742 1.2859833 -0.64086735
0001b0 b2 d1 3d 3f 50 10 d1 3d a0 02 86 3f 7f ea 3a bf
       0.74148095 0.102081895 1.0469551 -0.7301406
0001c0 42 98 69 3e 47 0b 71 3f f7 03 b2 be 3a 06 cf 3f
       0.22811988 0.9415783 -0.3476865 1.6173775
0001d0 bd 1d 3e be 3d 70 b5 be 33 81 53 be 6d 62 bf 3f
       -0.18566032 -0.35437194 -0.20654754 1.4951912
0001e0 a6 80 d0 bf 41 33 56 3f 66 02 30 3f e7 f9 bd bf
       -1.628926 0.8367196 0.6875366 -1.4841889
0001f0 fd 44 a1 bf 2c 0c c7 be af 20 d6 bf 0d bc c7 3e
       -1.2599179 -0.38876474 -1.6728724 0.3901066
000200 e4 80 4b bf 19 2c 4c be e8 d6 7b 3f 2a 80 88 3d
       -0.79493546 -0.19938697 0.98374796 0.0666507
000210 23 85 c0 3f 69 91 51 be cc d3 da 3e 75 b8 51 3d
       1.504063 -0.20465626 0.42739713 0.051201303
000220 a0 e7 22 be 9a 55 cd bb 88 02 b7 3d 18 dc 5f 3f
       -0.1590867 -0.006266308 0.0893603 0.8744521
000230 69 7a a4 bf 3b e6 ee 3e d2 c3 46 bf fe 7f d4 be
       -1.2849857 0.46660027 -0.7764255 -0.415039
000240 87 f9 a1 3e cc 06 e7 be 2f 4d 0b 40 d5 5b dc be
       0.31635687 -0.45122373 2.176586 -0.43038812
000250 9e 82 0a c0 7b 5b c0 3f 53 fe a4 3e f3 79 dc 3e
       -2.1642222 1.5027918 0.32225284 0.4306179
000260 ce 53 8c bf c7 ee 84 39 2f 57 7a bf e2 a7 3a 3f
       -1.0963075 0.00025354905 -0.9778928 0.7291242
000270 b5 c3 9c 3e 64 cd d3 be 49 16 4a 3e 84 20 b7 bf
       0.30618063 -0.41367638 0.19735064 -1.4306798
000280 a8 67 a3 bf 46 ae e3 3e b1 01 fe 3e 62 bd 67 3f
       -1.2766008 0.44468898 0.49610665 0.9052335
000290 da 8d 42 bf 00 ee d7 bf e2 52 0a 3f 05 cf e1 3d
       -0.759977 -1.6869507 0.5403272 0.11025814
0002a0 78 bd ee 3d 86 8f 96 bf 7c 8b fd bf 7c 06 1d 3f
       0.11657232 -1.176255 -1.9808192 0.6133802
0002b0 fb e2 07 c0 32 a7 13 3f 47 95 8d 3f b4 d6 d1 be
       -2.1232288 0.57676995 1.1061181 -0.40984118
0002c0 fb 7e d9 bf 40 d0 19 bb 72 4e b1 bd 58 9b 29 bf
       -1.6991876 -0.0023470074 -0.086575404 -0.6625266
0002d0 59 56 a1 bf 0a 48 85 bf ba 26 f9 bf 81 4f ac be
       -1.2604476 -1.041261 -1.9464943 -0.33654407
0002e0 79 7d 03 3d 9c a3 f8 3d e7 8e 09 3e 6c 59 58 bf
       0.032102082 0.12140581 0.13433419 -0.84511447
0002f0 f9 b7 28 3f 7a 1f b4 be 51 5a de bf bd 4e cf be
       0.6590572 -0.35180265 -1.7371312 -0.4048976
000300 d3 30 85 bf f4 f2 cf bf e1 e9 1a 3f 82 4b 07 3f
       -1.0405525 -1.6246018 0.6051312 0.5284959
000310 00 de 4e bf 7b 6e f7 bf 62 07 22 3f ed b9 55 bf
       -0.80807495 -1.9330591 0.63292515 -0.83486825
000320 9e 68 b0 bf 4b b1 83 3f 0d b0 a3 3f 4a ef d1 3f
       -1.3781927 1.028848 1.2788101 1.640115
000330 fc 91 af be 98 0c 0f 40 e4 da 56 bf be 70 46 3f
       -0.34291065 2.2351437 -0.8392775 0.7751578
000340 52 90 23 40 47 1f b3 3f 8f 1d eb 3d 38 b7 ee 3f
       2.5556836 1.399392 0.11480247 1.8649664
000350 1c 6c e3 be 76 e0 ea bf c1 f9 7d 3f 50 4c 3d 3f
       -0.44418418 -1.834975 0.9920922 0.7394457
000360 20 15 d6 be b2 96 49 c0 09 09 33 bf ef 51 bd be
       -0.41812992 -3.1498227 -0.6993566 -0.36976573
000370 89 26 29 40 1d 3e b5 bf 78 81 b9 bf 39 bb 2a c0
       2.642977 -1.415958 -1.4492636 -2.6676772
000380 fa 23 d4 3f 57 fb c5 bf cb 5d c7 3e 4c a8 1f 3f
       1.6573479 -1.5467328 0.38938746 0.62366176
000390 c8 47 7e bd 40 e1 c4 3e eb 1d ff 3f 66 0e 09 40
       -0.062080175 0.38453102 1.9931005 2.1415038
0003a0 4c 36 44 40 d8 32 42 bf cf 82 cf 3f eb 65 05 40
       3.065814 -0.7585883 1.6211795 2.0843456
0003b0 af f4 ab be 39 d9 3f c0 ea d8 12 40 44 f3 93 bf
       -0.33585116 -2.9976332 2.2944894 -1.1558614
0003c0 14 05 4d be ac 50 67 40 4e 26 c9 bf 91 8d c2 3e
       -0.20021468 3.6142988 -1.5714815 0.37998632
0003d0 79 3e 8b bf 48 aa ed 3f f8 67 9b 3f 37 11 42 c0
       -1.087844 1.8567591 1.2141104 -3.0323007
0003e0 89 cd 23 be 33 02 4b 3c 00 a3 d3 3e 5b 9a 86 bf
       -0.15996374 0.012390661 0.41335297 -1.0515856
0003f0 36 a3 5e 3f e8 0d 5d bf f4 c1 8a 3f 8a 70 e7 bf
       0.8696779 -0.86349344 1.084044 -1.8081219

input_proj.weight f4 [128, 64]
000000 42 68 ff 3c 67 f4 d5 bd de e6 49 3c 01 3a 94 bd
       0.031177644 -0.10447007 0.012323109 -0.07237626
000010 ae 51 e0 bc c4 30 06 3e 52 2e 73 bd 2d b7 cd 3d
       -0.027382698 0.1310454 -0.059370346 0.10044704
000020 a8 c4 a9 3d d3 5e 83 3d 80 bf 0f 3e c0 10 e3 bd
       0.08289462 0.06414571 0.14037895 -0.11087179
000030 33 9b 3a 3d 4d be 31 3c 46 c0 cc bd d1 fa 02 bd
       0.045558166 0.010848594 -0.09997611 -0.03197748
000040 a9 b0 de 3b 5b 31 c2 3c b2 81 b0 bd d0 ac c7 3d
       0.006795962 0.023705175 -0.086184874 0.09749758
000050 ac 67 1e bd 70 d9 40 bc e1 83 e3 bc b8 c6 da bd
       -0.038673088 -0.011770591 -0.027772846 -0.10682434
000060 b9 23 08 3d 28 58 f6 bc 47 5d 4a bd d5 c6 ff bc
       0.033237193 -0.030071333 -0.049405362 -0.03122274
000070 ae 10 93 3c f5 f9 1f 3d 88 db 18 be 1b d5 d3 3c
       0.01795229 0.039056737 -0.14927495 0.025858453
000080 4b 0d f4 bd 31 f0 6a bc b0 e1 f7 bb 47 67 df bd
       -0.11916598 -0.014339493 -0.007564746 -0.109083705
000090 b8 07 10 be 5f 98 93 3c 2a b1 b2 3c e1 d5 07 3e
       -0.14065444 0.018016992 0.021812994 0.13265182
0000a0 8e 1e 83 3d 7d d1 8e 3d 6f 7d 3e bd 93 4c 74 3d
       0.06402312 0.069735505 -0.04650634 0.05964334
0000b0 da 32 ba 3d 3c 33 f2 bd f8 b4 3b bd f4 bb 8e bd
       0.090917304 -0.118261784 -0.045826882 -0.06969443
0000c0 c7 3b 41 bd e4 fd 22 bd 14 3c 35 3d bc aa ee ba
       -0.04717615 -0.03979291 0.044246748 -0.0018208842
0000d0 8e 3e 21 bd 91 60 3a bd 1c e9 97 3c e7 3d 07 bc
       -0.039366297 -0.04550225 0.018543772 -0.008254505
0000e0 d1 3d f5 bd 9c 0e 21 be 5c 72 8d 3c fe 7e f6 bd
       -0.11974681 -0.1572823 0.017266445 -0.120359406
0000f0 e2 fa f2 3d 85 c3 e6 bd 3b 6f 97 3d 77 21 be bd
       0.11864258 -0.11267761 0.073942624 -0.09283727
000100 89 ab 8f 3a bd 4d a3 3c ca 47 49 ba 21 9f b3 3c
       0.0010961156 0.01993453 -0.0007678239 0.021926465
000110 89 eb 48 bc 99 dc 30 3e bc e9 2f be ca c5 f0 bd
       -0.012263187 0.17271651 -0.17179006 -0.11756475
000120 f6 44 68 bd 9f b3 36 3d 71 b1 aa 3c fc 19 0e bd
       -0.05670639 0.044604894 0.020836564 -0.03469275
000130 e8 94 93 3d 34 be c0 3d 48 de 0a 3e 8f f2 f5 bd
       0.07206136 0.09411278 0.13561356 -0.12009155
000140 48 3b e2 3d 53 70 6c 3c 80 8f 3b bd 4e 5c 07 bd
       0.11046463 0.014431077 -0.04579115 -0.033047013
000150 3b 4c 19 bd ea c1 38 bd 9c fc ca 3b ea a2 43 bd
       -0.037426215 -0.045106806 0.006194664 -0.04776279
000160 61 a1 67 3d c5 e3 51 3d 6b 4f cc 3c 8b 2b 37 bc
       0.056550387 0.05124261 0.024940213 -0.011179815
000170 0a 9f 03 3e d2 4e f3 3d 3a 1e 99 b9 f2 83 c1 3d
       0.12853637 0.11880268 -0.00029204955 0.09448995
000180 94 5f ba bc 6c 4c 53 bd 48 06 ca 3d 40 a1 81 3b
       -0.022750653 -0.051586553 0.09864479 0.00395599
000190 7c 72 fc bd 95 34 05 bc fc d4 d9 3c e3 24 d7 bd
       -0.12326524 -0.008130212 0.026590817 -0.105050825
0001a0 29 82 fa 3b f7 40 81 bc ae 23 9d 3b 28 96 81 bc
       0.007644911 -0.015778048 0.004795513 -0.01581867
0001b0 9a 1a 27 3c 67 6b 02 be cc 9c 39 3d 64 0e 8f 3d
       0.010199213 -0.12736283 0.04531555 0.06985167
0001c0 58 34 72 bc 8b d1 11 be 44 3a 98 bd 69 29 41 3d
       -0.014782988 -0.1424009 -0.07432988 0.047158632
0001d0 35 76 eb bc 18 91 a0 bd e3 ec f9 3a 66 e0 51 bb
       -0.028742889 -0.078401744 0.001906779 -0.003202462
0001e0 ca ed ef bc d3 3b b7 bd 53 d2 10 bd 49 79 e4 bc
       -0.029288191 -0.089469574 -0.03535683 -0.027889865
0001f0 12 76 b9 3c d8 9c 57 3d 26 a4 9d 3d 43 9f ad 3c
       0.022639308 0.052639812 0.076973245 0.021194106
000200 c2 3d 2d 3e ff b7 46 3d d5 bf 64 3a 1b bf 9b b9
       0.1691809 0.048515316 0.0008726095 -0.00029706288
000210 49 2e fe 3d 5f 0b 8e bd c8 68 4b bd b1 8f 20 bc
       0.12411172 -0.069357626 -0.049660474 -0.009799884
000220 d4 28 b6 bd 78 3b f8 3b 82 5e 10 bd 19 85 fa bc
       -0.08894506 0.0075754486 -0.03524638 -0.030581044
000230 35 33 39 be 35 27 ce 3d c6 3e e1 bc 20 16 ed bc
       -0.1808594 0.10066072 -0.027495753 -0.028941214
000240 ac 72 1e 3e ca e6 6d bd 60 1e cd 3d e3 42 00 bd
       0.15473431 -0.058081426 0.10015559 -0.03131379
000250 bb 5c a4 bc fe a5 81 3c d7 eb 94 bd 6f 78 64 3c
       -0.020063749 0.015826222 -0.072715454 0.013944729
000260 39 07 6a 3d 4b c2 c0 3c c3 29 17 bd 05 4b 39 3d
       0.057135794 0.023530146 -0.03690506 0.04523756
000270 80 73 dc 3d f1 ff ab bc 3e a4 e0 bc 40 32 b6 bd
       0.107642174 -0.020996066 -0.027422067 -0.08896303
000280 0c 80 4f 3c 67 16 2a bd d6 b9 8e 3d ef 7f 02 3e
       0.012664806 -0.04152527 0.06969039 0.12744115
000290 c4 dc 6a bd 37 7f d4 bb 27 2f 58 3d bd 19 e4 3d
       -0.057339445 -0.0064848918 0.052779343 0.11137722
0002a0 f6 16 4b bc 02 72 10 bd fa 4c 09 3d 07 ee 16 3d
       -0.012395611 -0.035264976 0.033520676 0.036848094
0002b0 13 a9 6f 3c a9 32 25 bd 95 58 f0 3d 07 c9 29 bc
       0.014627713 -0.040331516 0.11735646 -0.01036287
0002c0 9f 08 01 be 0f 35 ee bc bb 3a 05 3d 1b 0a 8d 3c
       -0.12600945 -0.029078035 0.032526713 0.017216733
0002d0 c1 38 18 bd ee 3a 1a 3c 19 19 49 bd 79 44 b4 3d
       -0.0371635 0.009413464 -0.0490962 0.088021226
0002e0 50 3c 75 3c 84 54 5f 3d ba 34 b1 bc 53 03 0d bd
       0.014967993 0.05452396 -0.021631587 -0.034427
0002f0 c2 d6 d5 3c 9b 43 33 bc 89 58 84 bd 71 e1 2b bc
       0.026103381 -0.010941411 -0.06462199 -0.010490761
000300 94 58 2a bd 41 86 71 bd cd 98 5c 3c 42 20 29 3d
       -0.04158838 -0.058965925 0.013464165 0.04129053
000310 f9 8f 01 3d ae 40 74 bd 85 fe fc bc e2 0e 35 3c
       0.031631444 -0.059631996 -0.030883083 0.011050912
000320 a1 0f 86 3d b3 96 e9 bc 32 b9 b9 3d 90 f0 13 3d
       0.0654595 -0.028514242 0.09068526 0.03611809
000330 bc 95 50 bc 34 8f ca 3d 42 9a b2 bc 50 41 5d 3c
       -0.012731012 0.09890595 -0.021802071 0.013504341
000340 1c 28 af ba a2 2f ce bd 62 87 89 39 e7 0f 26 bb
       -0.0013363394 -0.10067679 0.00026231544 -0.0025339068
000350 d8 9a c0 bc ba 0a fc bc 43 a3 af 3c ca 00 19 bd
       -0.023511335 -0.030766834 0.021440154 -0.037354268
000360 d9 5d 41 3d 26 ba 1a bd b4 45 b1 bb e9 f8 b8 3c
       0.04720864 -0.03777518 -0.0054099206 0.022579627
000370 35 5f 63 3c 35 ad 42 bd cb b1 d0 bb 42 4c 4b 3c
       0.01387768 -0.047528464 -0.006368851 0.012408318
000380 20 ed 9c bd fd 92 74 bd 89 27 3a 3d cc c5 b5 3c
       -0.076624155 -0.05971049 0.04544786 0.022189043
000390 64 1f 94 bd 53 22 91 ba 65 8e 5a bc c6 aa a4 bd
       -0.0723255 -0.0011072851 -0.013339614 -0.08040385
0003a0 23 71 9d 3c a6 04 50 3c cb 36 33 3d 7e 51 9e bd
       0.019218987 0.012696421 0.043753427 -0.07730387
0003b0 ed 6d 05 bd 4a 1b 5a 3d ff 00 53 3d 70 aa 97 3c
       -0.032575537 0.05324868 0.05151462 0.018513888
0003c0 9d 86 a1 3c be de f7 bb 10 9e 10 bd 16 b4 bb bc
       0.019717509 -0.0075643947 -0.03530699 -0.02291302
0003d0 47 1d 47 bd 7a 7d 0c 3d ba b9 b2 3c f9 64 81 bc
       -0.048611905 0.03429935 0.021817077 -0.015795218
0003e0 17 88 e7 bb 2e f5 99 3b d0 af 05 bd ab d9 d3 3c
       -0.0070657837 0.004698417 -0.03263837 0.025860628
0003f0 31 53 20 bd a1 c7 78 3c ec 6c 31 3d 46 ca 04 3d
       -0.039141838 0.015184314 0.043316767 0.032419465

input_proj.bias f4 [128]
000000 9a a3 32 bd 79 4e 1d 3e 1f 17 20 bd 21 4f 57 bc
       -0.043613054 0.15361966 -0.03908455 -0.013141424
000010 d8 79 e1 3b ed ce e5 bd df e7 34 3c cc da e3 3d
       0.00688098 -0.112211086 0.0110416105 0.111257166
000020 51 4d 20 3b ec fe 00 bd 60 ae 1f bc c5 d0 9d bd
       0.0024460147 -0.031493112 -0.009746164 -0.07705835
000030 b0 f2 29 3d 15 07 e7 3c e2 2b d7 3d 0e c6 4e 3d
       0.04149121 0.02820162 0.10506417 0.05048185
000040 c1 1c f3 bc 86 34 8c bc b5 a2 c6 3d 79 7e 2d bd
       -0.029676797 -0.017114889 0.09699003 -0.04235694
000050 d5 2b ce 3c 53 7f 58 bd 44 53 74 bd 7d 19 12 bc
       0.025167385 -0.0528558 -0.05964972 -0.00891721
000060 93 3c 08 be b4 c7 7f 3d b0 02 37 bd 6a a9 35 bc
       -0.13304357 0.06244631 -0.044680297 -0.011087755
000070 3b 35 2d bd fe db 78 bd c8 c6 43 3b eb c2 06 bd
       -0.042287093 -0.060756676 0.0029873122 -0.032900732
000080 4a 2b 12 be 98 53 4b 3d 96 f4 c5 bc 34 a5 9c bd
       -0.14274326 0.049640268 -0.02416448 -0.076486975
000090 99 e2 13 be aa 12 36 3d 5b e8 0c bd 86 30 d4 3d
       -0.14441909 0.044451393 -0.03440128 0.103608176
0000a0 83 3f f2 bd dc e3 3e bc 3b 6b af 3d 26 57 90 bd
       -0.1182852 -0.011651006 0.085653745 -0.07047872
0000b0 06 97 a0 3d ce 73 88 bd 99 84 ec bd e3 c4 c9 3d
       0.078413054 -0.06662713 -0.115487285 0.09852006
0000c0 4f c8 2f 3e 3d af 39 bc a1 a5 bb bd 60 6a 94 bd
       0.17166255 -0.011333284 -0.091624506 -0.07246852
0000d0 cf 39 ec 3d c9 55 39 bb fa a4 64 be 6d 39 03 3d
       0.115344636 -0.0028279892 -0.22328559 0.032037187
0000e0 1c 58 d2 bd 1a 19 b0 bd 46 d9 45 3e 1a b0 c9 bd
       -0.10270712 -0.08598538 0.19321164 -0.09848042
0000f0 7c 1e be bd 6b ba 87 bd 4c d2 dc 3d 63 08 d8 3d
       -0.09283158 -0.06627353 0.107822984 0.10548475
000100 41 d4 2a be 02 50 71 3d 71 a9 50 bd e8 30 06 3e
       -0.16682531 0.058914192 -0.050942842 0.13104594
000110 f7 f1 00 bd 72 53 2b 3c cd 4a b0 3c 27 51 f9 3c
       -0.031480756 0.010456907 0.021520043 0.030434204
000120 4a 6b 5c be 4c a5 09 3e 77 2c e2 bd 15 8e 4e 3d
       -0.21525303 0.13441962 -0.11043637 0.05042847
000130 d2 55 d7 3c 27 3a 7e bd 83 fa 6e 3e 70 d5 9f 3c
       0.02628604 -0.062067177 0.2333775 0.019510955
000140 31 8b b7 bd 53 12 e5 bd 4e 1d 9b 3c aa ed 22 3e
       -0.089620955 -0.11185136 0.018934872 0.15910974
000150 6e c6 4e 3d 9d 29 68 3d 40 d3 1b be 24 3a 74 3d
       0.050482206 0.05668031 -0.15217304 0.05962576
000160 66 ee d7 38 a0 40 e3 3d fb 9f 91 3c a4 85 39 3d
       0.00010296404 0.110963106 0.01777648 0.045293465
000170 47 4f 82 bd 0c cc b3 bd 29 d6 27 be 91 63 b1 bd
       -0.06362777 -0.08779153 -0.1639029 -0.08661569
000180 52 b8 15 3c dc 4a a2 ba 99 aa 85 3b 41 7d ce bd
       0.009138184 -0.0012381929 0.0040791747 -0.10082484
000190 20 91 67 3c 20 6c a3 bd 1a b0 28 be f2 57 ed bc
       0.014133722 -0.079796076 -0.16473427 -0.0289726
0001a0 5f fb e5 3c 0d 0d 3f bd 59 3b d6 bd 4a 7f 67 bd
       0.028073965 -0.046643306 -0.104605384 -0.056517877
0001b0 c6 b7 b4 bd db 9a fe bd 50 f5 2f bc ce ac 06 3e
       -0.088241145 -0.1243188 -0.010739639 0.13151857
0001c0 41 97 00 3d 24 d5 a0 bd 4c 1b 01 3d 0c d7 50 3c
       0.031394247 -0.07853153 0.031520173 0.012746584
0001d0 2f 0e 50 bc 8e 43 4c be 38 97 33 3e 23 b3 8b 3d
       -0.012698694 -0.19947645 0.17538154 0.06821277
0001e0 55 ca 56 bd 2a 64 cd bd 2b 97 bd bd 88 78 96 bd
       -0.052439053 -0.100288704 -0.092573486 -0.07347208
0001f0 0e 16 cf bd 52 66 2f bd 9a 98 e3 bd 9f 4a ba bd
       -0.101116285 -0.04282219 -0.11113091 -0.09096264

layers.0.a f4 [128]
000000 2b 22 10 3f 40 82 0f 3f b3 17 1d 3f b3 ae 2a 3f
       0.56302136 0.5605812 0.6136429 0.6667282
000010 bd e8 0e 3f 92 14 78 3f ae 1a 11 3f df b0 13 3f
       0.5582388 0.9690639 0.56681335 0.5769176
000020 d8 a7 15 3f cc bd 08 3f 68 91 12 3f 13 bb 36 3f
       0.58459234 0.5341461 0.5725312 0.713792
000030 81 f0 14 3f 25 8d 06 3f cf 1a 14 3f b8 a4 17 3f
       0.5817948 0.5255912 0.57853407 0.59235716
000040 e0 fb 09 3f ce 6b 10 3f 05 ba 07 3f 3a 92 10 3f
       0.53899956 0.56414497 0.5301822 0.56473124
000050 61 dc 6f 3f de 29 18 3f 84 5f 1f 3f 54 45 1c 3f
       0.93695647 0.59438884 0.6225512 0.61043286
000060 da ce d7 3e 5f 4b 1f 3f c4 9b f5 3e ee d9 0f 3f
       0.42150003 0.6222438 0.47970402 0.5619191
000070 45 dc 0a 3f e4 dc 14 3f c8 06 10 3f f0 b0 12 3f
       0.54242355 0.5814955 0.5626035 0.57301235
000080 4e 54 f1 3e 7e 98 09 3f 6e aa 1c 3f 04 00 09 3f
       0.47134632 0.5374831 0.61197555 0.5351565
000090 67 ba 0f 3f 77 c1 04 3f a2 85 14 3f ad b5 0c 3f
       0.561438 0.51857704 0.5801641 0.54964715
0000a0 04 9e 30 3f 8e 7b 1c 3f 53 05 13 3f c0 7d f2 3e
       0.6899111 0.6112603 0.5743 0.47361565
0000b0 f0 41 0f 3f 0e 89 06 3f 34 a8 1f 3f cc bd 2e 3f
       0.5595999 0.5255288 0.6236603 0.6825836
0000c0 a6 c4 2c 3f 60 a3 2f 3f 29 a7 0c 3f fd 94 0b 3f
       0.6748756 0.68608665 0.54942566 0.54524213
0000d0 65 06 0f 3f ec 35 2a 3f b0 2e 1f 3f 82 5f 2a 3f
       0.5586913 0.6648853 0.62180614 0.66551983
0000e0 bf c5 1d 3f d6 26 15 3f e4 9c 19 3f 08 bb 03 3f
       0.6162986 0.58262384 0.6000502 0.5145726
0000f0 ad d1 1c 3f 94 fd 04 3f 53 13 08 3f 2a 9e 17 3f
       0.6125744 0.5194943 0.53154486 0.59225714
000100 97 92 0d 3f a7 ce 08 3f 60 54 10 3f 7c 79 25 3f
       0.55301803 0.53440326 0.56378746 0.64638495
000110 13 0b 1b 3f c9 cb 10 3f 1f 53 7c 3f 72 c9 05 3f
       0.6056377 0.5656095 0.9856433 0.52260506
000120 7a 76 10 3f e4 3e f5 3e 41 46 12 3f be b3 1a 3f
       0.5643078 0.47899544 0.5713845 0.60430515
000130 b2 85 19 3f 8f a4 17 3f 31 aa 20 3f 13 11 0e 3f
       0.5996963 0.5923547 0.6275969 0.55494803
000140 a6 69 0b 3f f9 2a e0 3e 02 17 13 3f 8b d4 23 3f
       0.5445808 0.43782786 0.5745698 0.6399619
000150 cb 7a 24 3f bb 69 2b 3f 83 a7 b2 3e 64 6b 02 3f
       0.6424987 0.66958207 0.34893426 0.50945115
000160 a1 03 06 3f 04 97 16 3f 64 4d 10 3f a2 54 f0 3e
       0.5234929 0.5882418 0.5636809 0.4693957
000170 37 79 05 3f 19 c4 05 3f 79 1a 17 3f 9b 50 18 3f
       0.52138084 0.52252346 0.5902477 0.59497994
000180 92 b3 20 3f 97 2c 13 3f 3e d6 11 3f f1 16 f3 3e
       0.62774 0.57489914 0.5696753 0.4747844
000190 6d 30 19 3f bd f5 1f 3f 84 a1 18 3f 08 65 18 3f
       0.59839517 0.6248434 0.59621453 0.5952916
0001a0 c5 65 1a 3f b2 bb 17 3f 23 c1 18 3f 5b b4 0f 3f
       0.6031154 0.59270775 0.59669703 0.56134576
0001b0 b2 34 04 3f e8 3c 13 3f 80 67 18 3f 4e 35 12 3f
       0.51642907 0.5751481 0.5953293 0.57112586
0001c0 25 31 1d 3f 88 52 13 3f b7 65 0e 3f 65 ad 0c 3f
       0.61403114 0.5754781 0.55623955 0.5495208
0001d0 ce 00 02 3f c0 1b 03 3f 2f d6 28 3f 80 92 0e 3f
       0.5078248 0.5121422 0.6595182 0.5569229
0001e0 b4 33 10 3f 1d c8 ff 3e 1e 6d d8 3e 27 0e 06 3f
       0.5632889 0.49957362 0.4227075 0.52365345
0001f0 bc 75 11 3f ec ca 10 3f 9e f0 02 3f 2f 11 10 3f
       0.56820273 0.56559634 0.511484 0.5627622

layers.0.b f4 [128]
000000 9c 19 16 3e 2e 59 8a 3e f3 3b 2f 3e 96 3c 0f 3e
       0.14658207 0.27021164 0.17112713 0.13987955
000010 fa 3d 06 3e 9c 25 d1 bc de c2 f5 bd bc 83 10 3e
       0.1310958 -0.025530629 -0.120000586 0.14112753
000020 a7 ce 34 be 0b 83 f5 bd 40 aa 10 be d2 63 84 be
       -0.17656957 -0.11987885 -0.14127445 -0.25857407
000030 81 73 25 be 9a 21 51 3e 35 44 52 be 82 4d 67 be
       -0.16157342 0.20422974 -0.20533831 -0.2258816
000040 67 9a 78 3e 84 fa 1f be f1 08 8e be ca 76 38 3e
       0.2427765 -0.15622908 -0.27741197 0.18014064
000050 b7 dc 94 bd 41 87 2e 3e c4 f7 51 be 45 ea 80 3e
       -0.072686605 0.17043783 -0.20504671 0.25178733
000060 d8 96 ad be 1e 78 36 3e 5b 92 30 be 72 34 2e 3e
       -0.33904147 0.17819259 -0.1724333 0.17012194
000070 dc b5 09 3e 5a 9b 5d be c4 cc 2d 3e 8a 2a 19 be
       0.1344828 -0.21641293 0.16972643 -0.14957634
000080 7b 18 11 3e b9 f9 16 be 2d 68 a8 be 06 1a 38 be
       0.14169495 -0.14743699 -0.3289198 -0.17978677
000090 6c 86 38 3e a4 cc 17 3e 27 31 2f be 7d 49 12 be
       0.18020028 0.14824158 -0.17108594 -0.14285846
0000a0 23 25 06 3e 44 75 45 3e 7a 7e 9f be 68 d2 5c 3e
       0.13100104 0.19283015 -0.3115118 0.21564639
0000b0 c5 6d fa 3d b3 71 07 be 6f af 59 be 21 b9 4c be
       0.12227968 -0.13226967 -0.21258329 -0.19992496
0000c0 52 03 7f 3e 60 0b 72 3e d1 95 12 be e5 c4 ae 3e
       0.2490361 0.23637152 -0.14314963 0.34134594
0000d0 1f ae 09 be af 41 5d be e5 6b fe bd d7 9e 35 3e
       -0.13445328 -0.21607088 -0.12422923 0.17736374
0000e0 1b 56 ff bd b1 7d 57 be ea ad 37 3e 1b b0 1f be
       -0.12467595 -0.21044041 0.17937437 -0.15594523
0000f0 9f fe 2c 3e 94 8b 0c be 80 59 48 3e 77 a9 08 be
       0.16894005 -0.1372512 0.19565392 -0.13345896
000100 9e d4 14 3e f3 f1 78 3e c3 dc cd 3d c2 75 38 3e
       0.14534232 0.24311046 0.100518726 0.18013671
000110 63 c4 e3 bd a2 05 4c be be 64 48 3d 13 9e 1a 3e
       -0.11121442 -0.19924024 0.0489242 0.15099363
000120 cf ee 23 be 47 66 1a 3e b5 4d 4f be 0d 3b 25 be
       -0.16009067 0.15078078 -0.20244487 -0.16135807
000130 66 db da 3d 2b c4 80 3e 8a 5f 0d 3e 22 c9 41 3e
       0.10686378 0.25149664 0.13805977 0.18924382
000140 07 f2 10 3e 53 7e 0b be 91 1d 3d be 5f 19 37 3e
       0.14154826 -0.13622408 -0.1846831 0.17880772
000150 27 e9 52 be f1 6e 60 3e 32 24 b9 be 16 d8 6c 3e
       -0.20596753 0.21917321 -0.36160427 0.23129305
000160 12 78 53 be a5 a6 50 3e ce 6c 4c 3e 63 a7 27 be
       -0.20651272 0.2037607 0.1996338 -0.16372447
000170 96 a8 38 be 2a f6 80 3e d0 27 5f be 16 1c 28 be
       -0.1803306 0.25187808 -0.21792531 -0.16416964
000180 69 51 76 3e f2 8d 13 3e c3 96 98 3e 49 1b 8c be
       0.24054493 0.14409617 0.29802522 -0.27364567
000190 3c 64 41 be 65 a7 29 3e f1 ad 19 3e 85 be 00 3e
       -0.18885893 0.16567762 0.1500776 0.12572677
0001a0 1c cf 70 be 43 f2 41 3e 91 8f 59 be ad e6 6f be
       -0.23516506 0.18940072 -0.21246172 -0.2342784
0001b0 97 a4 16 be 59 d7 1a 3e f0 bb 41 be 82 45 11 3e
       -0.14711224 0.15121211 -0.18919349 0.14186671
0001c0 83 45 2d be 28 57 36 be a6 09 d7 3d 9f 52 35 3e
       -0.16921048 -0.17806685 0.10499887 0.17707299
0001d0 20 ce 3b be 40 ec 82 3e 62 87 4d 3e 77 27 28 3e
       -0.18340349 0.2557087 0.20071176 0.16421305
0001e0 d5 d7 01 3e 65 d9 75 be c7 1a 2a 3e 21 60 77 3e
       0.1267999 -0.2400871 0.16611777 0.24157764
0001f0 fb 38 19 3e 8e cc 3d 3e f3 d7 45 be 3c 19 17 3e
       0.14963143 0.18535063 -0.1932066 0.1475572

layers.0.c f4 [128]
000000 81 f3 4e be 3b fa 24 3e 77 fc 3e be 26 2c 6b 3e
       -0.20210077 0.1611108 -0.18650995 0.2296606
000010 44 0b 5f be b7 45 20 be d6 27 74 3e 7b 2f 87 be
       -0.21781641 -0.15651594 0.23843321 -0.26403412
000020 65 08 29 3e 4d 57 89 3e 34 9f 33 be e3 42 bc 3d
       0.16507109 0.26824418 -0.175412 0.09192445
000030 8e 2c 01 3e 0b 61 07 be 15 d6 57 be 8b c6 e9 3d
       0.12614653 -0.13220613 -0.2107776 0.11414822
000040 34 f8 f4 bd 35 2a 19 be 73 6a ea bd 91 be f5 3d
       -0.119614035 -0.14957507 -0.11446085 0.11999238
000050 2c b3 ea bd f7 7b 6e be c6 fd 17 3e 4c ef 06 3e
       -0.114599556 -0.23289476 0.148429 0.13177222
000060 9e 0b 16 be a3 1f 24 3e 08 72 17 be 5b bc 36 3e
       -0.14652869 0.16027693 -0.14789593 0.1784529
000070 9d f7 48 be cb 2b 15 be 5b 16 08 be 59 88 4c be
       -0.19625707 -0.14567487 -0.13289778 -0.19973888
000080 c6 58 83 3e f6 ff 50 be 14 5b d0 3d fd d9 21 be
       0.25653666 -0.20410141 0.10173622 -0.15805812
000090 67 df 08 3e 83 d5 2d 3e 84 a1 20 3e 98 51 94 3e
       0.13366471 0.1697598 0.15686613 0.289685
0000a0 86 25 36 be 34 2f 24 be 8e 37 0b 3e 74 43 23 be
       -0.17787752 -0.16033632 0.13595411 -0.159437
0000b0 80 22 86 be 0f 9d 90 be e7 eb 19 be 51 da 25 3e
       -0.26198196 -0.28244826 -0.15031396 0.16196562
0000c0 a8 77 ed 3d d8 78 1a 3e f6 33 6b be cf 83 5a 3e
       0.11595088 0.1508516 -0.2296904 0.21339343
0000d0 db 38 89 be fc 89 07 be e3 62 15 be 4e 20 2d be
       -0.2680119 -0.1323623 -0.14588504 -0.16906855
0000e0 e6 a5 9e be eb d4 0b 3e 36 2f 1c 3e 34 a7 6f be
       -0.30985945 0.1365544 0.15252385 -0.23403627
0000f0 cc f4 00 3e 02 11 41 be dc e5 06 be 3c 3a 57 be
       0.12593383 -0.18854144 -0.13173622 -0.21018308
000100 0a ec 8f be 46 5d 04 be a1 e1 8b 3e af 35 28 be
       -0.2810977 -0.12926206 0.2732058 -0.16426729
000110 5a ff 79 be 87 22 0e 3e 29 4e cb 3d dc db 40 be
       -0.24413815 0.13880359 0.09927017 -0.1883387
000120 e4 37 0e 3e fb be 40 be f8 cf 04 be 96 fd 39 3e
       0.13888508 -0.18822853 -0.12969959 0.18163142
000130 b8 31 7b be ab de c4 bd b7 5a 87 be d8 74 1f be
       -0.24530685 -0.09612783 -0.26436397 -0.15571916
000140 46 30 3d 3e 99 be 6f be d9 a4 19 3e 29 ab 98 be
       0.18475446 -0.23412551 0.1500429 -0.29818085
000150 7e 2e 12 3e a7 90 4a 3e 34 d2 d4 3e 94 40 db 3d
       0.14275548 0.19781743 0.41566622 0.10705677
000160 0c 9e 0e be 1f e4 49 be b8 f5 14 3e 1d ba 4c 3e
       -0.13927478 -0.19715928 0.1454686 0.19992872
000170 75 be 52 be 04 0b f6 bd 2d 8b 3b be b3 a1 35 3e
       -0.20580466 -0.1201382 -0.1831481 0.17737465
000180 d2 f7 63 3e da 47 65 be d3 ea c8 3d 70 7e ba bd
       0.22262505 -0.2239069 0.09810414 -0.09106147
000190 36 96 6e be e7 32 16 be 10 cb 1f 3e 60 09 2d 3e
       -0.23299488 -0.14667855 0.15604806 0.16898108
0001a0 a5 96 ed bd ad bb 2d 3e ca 4a 1f be de 41 49 be
       -0.11600999 0.16966124 -0.15555874 -0.19654033
0001b0 3b ae 81 be 9d 74 85 3e 55 2e 2d be eb f1 53 3e
       -0.2532824 0.2606553 -0.16912206 0.20697753
0001c0 87 e3 46 3e a9 17 4f be f5 32 8f be 6d 20 1a be
       0.19422732 -0.2022387 -0.27968565 -0.15051432
0001d0 bd 9d 0e 3e de 0b cb bd 46 f3 e0 bd 10 f4 1b be
       0.1392736 -0.09914373 -0.10983901 -0.15229821
0001e0 5b 1f 60 be 96 ca 28 3e e8 03 31 be 92 ac 39 3e
       -0.21886961 0.1648353 -0.17286646 0.18132237
0001f0 69 43 3f be bc fd 11 be 3f 3a 2b 3e 36 bd 34 be
       -0.18678059 -0.14256948 0.16721438 -0.17650303

layers.0.out_bias f4 [128]
000000 01 cd 14 3b 6a ba 7c 3c 4f 34 10 3c b9 4e 00 3c
       0.00227052 0.015425304 0.008801534 0.007831269
000010 6b 52 07 bc 7e 17 11 3c 3e 8b 14 3c 79 69 11 bc
       -0.008259396 0.008855699 0.009066401 -0.008875244
000020 46 f1 f1 3a 4e c9 c0 bb d0 d4 2b bb c6 8b 55 3b
       0.0018458746 -0.0058833724 -0.0026219375 0.0032584532
000030 ba 37 6d 3b 0f 19 f0 3b 7b 73 01 3a ef 76 f0 b9
       0.0036196546 0.007327206 0.00049381674 -0.0004586498
000040 a0 50 d6 bb 8e 93 98 3b 39 c8 3e bc eb 42 99 bb
       -0.006540373 0.0046562618 -0.0116444165 -0.0046771667
000050 ab 2b 46 3a e6 66 c0 3b 04 03 9f 3b aa 5e 3e 3b
       0.00075596076 0.0058716414 0.0048526544 0.0029048123
000060 53 38 67 3c a5 48 44 bb c1 2e e2 3a 66 11 6b bc
       0.01411255 -0.0029950526 0.0017256365 -0.01434741
000070 ed 19 b7 ba ef 65 58 3c 38 c2 43 bb f3 65 38 bc
       -0.0013969518 0.013207897 -0.0029870402 -0.011254775
000080 c1 b7 9a bc a4 24 e5 ba 19 8b 73 bb 8c d1 1e bb
       -0.018886449 -0.0017482233 -0.0037161766 -0.0024233786
000090 0f 3e bf 3b 3b e4 a0 b9 a9 7b 3e bb 69 9d 6d 3b
       0.0058362554 -0.00030687623 -0.0029065406 0.0036257154
0000a0 37 ce 05 3d c9 9e 3a bb 17 53 fa 3b 16 b9 22 bc
       0.032667365 -0.002847599 0.0076392996 -0.009931823
0000b0 0a 28 38 3b d9 43 8d bb e1 01 a1 3a 2b f4 90 3c
       0.0028100037 -0.0043110666 0.0012283885 0.017694553
0000c0 9e 09 01 3c 14 4a 61 bc 7d c8 9f bc e2 51 a8 3c
       0.007875828 -0.013750572 -0.01950478 0.020546857
0000d0 ef 28 82 ba f1 fa af bc 7b 4a 02 3c a7 61 4f 3c
       -0.0009930412 -0.021481963 0.007952328 0.0126575595
0000e0 8a b3 e6 3c 80 88 be ba 5a bd 75 bb a6 19 7a bb
       0.028161783 -0.001453653 -0.0037496896 -0.003816226
0000f0 2e 7d 78 3b 7f 59 85 3a 5f 3c c3 3b 46 3a 46 3b
       0.003791641 0.0010173767 0.0059581245 0.0030247136
000100 67 17 a7 3c ff ca 1b 3b cc c2 e5 3b 22 f7 79 3c
       0.020396901 0.0023772118 0.007011747 0.015256675
000110 62 66 c1 3c 16 17 19 3b 31 3f bc 3b 50 b1 c1 bc
       0.02360839 0.0023359708 0.0057448377 -0.02364412
000120 ab 27 20 b9 9d c9 7b 3c aa 1c f6 bb 6b ed 49 bc
       -0.00015273567 0.015367893 -0.0075107412 -0.012324671
000130 12 64 ce 3a e4 b6 07 3c 6c da b8 bc 22 87 32 ba
       0.0015746376 0.008283351 -0.02256509 -0.00068102975
000140 2a d9 e6 3b 09 f8 fd 39 88 d3 af b9 44 31 e5 3c
       0.007044931 0.0004844072 -0.00033536204 0.027977593
000150 35 7c 0c 3c c9 e1 81 3d 93 12 1e 3d bf 42 80 bb
       0.008574535 0.06341893 0.038591933 -0.0039142068
000160 d4 a5 04 3c 28 66 a9 3b 10 54 ba 3a 52 74 aa bc
       0.008096177 0.0051696487 0.0014215726 -0.020807419
000170 49 29 c0 ba ed 13 82 bc 13 a8 47 3c 21 42 98 3c
       -0.0014660741 -0.015878642 0.012186068 0.01858622
000180 92 e4 5a 3c d7 d6 18 bc dd 5e 87 bb a5 73 1c 3c
       0.0133601595 -0.009328566 -0.0041311816 0.009549056
000190 62 2f 48 3c 8b e0 7a ba 35 3f c4 bb f1 83 2a 3a
       0.012218328 -0.00095702027 -0.00598898 0.0006504646
0001a0 12 62 67 3b 27 d5 aa 3a f5 fc 81 ba 67 66 da 3c
       0.0035306257 0.0013033495 -0.0009917306 0.026660157
0001b0 1e ab 9d 3a 9b 4f dd bb 83 7c f8 b9 cf f2 7e ba
       0.0012029146 -0.0067538745 -0.00047395015 -0.00097255124
0001c0 28 cf 02 3c bd 1a ed 39 73 49 70 bb 23 01 0c bb
       0.00798396 0.00045224084 -0.0036664873 -0.0021362982
0001d0 01 1f e8 3b 67 16 22 bc 92 5f 56 3c c0 f5 23 3c
       0.007083774 -0.009893036 0.013084309 0.010007322
0001e0 6d 15 92 ba c4 c2 18 bb 7d c6 f5 3b 05 fb 64 bc
       -0.0011145301 -0.0023309449 0.0075004683 -0.013975863
0001f0 4a 6d 3c 3c b2 4c 5a bb 67 49 39 3c 91 cd 82 bb
       0.011500666 -0.0033309874 0.011309004 -0.0039917906

layers.0.in_proj.weight f4 [128, 128]
000000 f9 3f 3c 3c d9 e2 84 3d 56 c1 0b 3d 6e 1e 85 bd
       0.011489862 0.0648858 0.034119926 -0.064999446
000010 6d b1 3b 3d fd e9 3a bd c4 f4 c6 bd d6 d1 cb 3d
       0.045823503 -0.045633305 -0.09714654 0.099521324
000020 23 ba ae 3c 44 b8 dc bd b0 c7 0f bd f6 68 a2 bc
       0.021328991 -0.107773334 -0.035102546 -0.01982544
000030 c2 29 de 3d 1c ce 8f 3b 27 74 1b be 2a 6d 26 be
       0.108478084 0.004388584 -0.15181027 -0.1625258
000040 19 ed f5 3c 5c 0b 6b 3d ff 73 08 3e 74 7d 12 3c
       0.030020284 0.05738388 0.13325499 0.008941043
000050 f7 a5 83 bd 67 74 58 be 2c ce c4 3d ec ce bf 3c
       -0.0642814 -0.21138154 0.09609637 0.023414098
000060 37 a5 09 bd aa e8 ee 3b eb 3e f2 3b 3b 11 20 3e
       -0.033604827 0.0072909193 0.0073927543 0.15631573
000070 1b 36 77 be a3 e0 5b bd d3 c6 ec 3b 62 0c 19 3e
       -0.24141733 -0.053681027 0.00722585 0.1494613
000080 89 79 a2 bd 0c e2 56 be 3f 12 cf bc eb 97 c8 3c
       -0.07933337 -0.20984668 -0.025277255 0.024486503
000090 03 f5 02 bd 72 83 52 3d 85 8d 0e 3e f5 23 7e bd
       -0.031971943 0.051394887 0.13921173 -0.06204601
0000a0 ea 70 9d 3c 34 4c 0f 3e 26 fb c0 bc e3 6c 22 3d
       0.01921888 0.13993913 -0.023557257 0.039654624
0000b0 4c 3c 70 bd 13 a3 cb bc ec ca 0d bd f5 4f 9a bd
       -0.058651254 -0.024858033 -0.03461735 -0.07534782
0000c0 a0 d9 0b 3d 1c 2a 00 be 58 91 bc bd fd de 19 bd
       0.03414309 -0.12516063 -0.092074096 -0.037566174
0000d0 9e 10 2e bc 79 44 2d bb b3 37 ec bc 23 dd 8a bd
       -0.010624079 -0.0026438518 -0.028835153 -0.0678046
0000e0 71 0c fb bd df 6f 05 3d 17 02 b7 bd c4 41 ee 3b
       -0.122582324 0.03257739 -0.089359455 0.0072710235
0000f0 b8 31 f8 3c 03 b2 5e be bb 86 47 be da b3 0f bd
       0.030297145 -0.21747594 -0.1948499 -0.03508363
000100 82 6e 03 be f0 be 15 3d 48 b9 35 bc 62 0b 88 3d
       -0.12835124 0.036559045 -0.011091538 0.06642796
000110 bd bb 76 be 3b d5 46 3c 72 25 18 3e 78 af 67 3d
       -0.24095054 0.012135799 0.14858034 0.056563824
000120 5a 6c 9c bd 23 a9 f5 bd 1b 02 84 bc e2 a4 9b bc
       -0.07637854 -0.11995151 -0.016114285 -0.01899952
000130 dd 96 97 3d a1 8f 3c bd d4 59 3c be 61 ed 77 bd
       0.07401822 -0.046035413 -0.18393642 -0.060529117
000140 4e 29 11 3d ee 39 61 3d 8b 7d 1d bd c4 52 31 bd
       0.03543978 0.054986887 -0.038449805 -0.043291822
000150 3b 7f 91 bb de b6 dd 3d 21 c0 85 3c 80 7d 44 bd
       -0.004440216 0.10825895 0.016326966 -0.04797125
000160 e9 94 87 3d b8 fe e5 3c a7 43 36 3c 98 2c 2f 3d
       0.06620199 0.02807556 0.011124528 0.042767137
000170 d9 cc 14 be 56 45 26 be 4f 88 83 bc 45 a8 0e bc
       -0.14531268 -0.16237387 -0.016056208 -0.008707111
000180 2d fc 64 3d eb 76 03 3e 22 17 b4 bd cd 8f b4 3d
       0.055904556 0.12838332 -0.08793475 0.0881649
000190 c4 1f 20 3e 6c f3 af 3d dd bf 33 3e 37 36 90 3d
       0.15637118 0.08591351 0.17553659 0.07041591
0001a0 70 2b 74 3d c2 87 4b 3e 7f 21 1c bd 76 b8 89 3c
       0.059611738 0.19876006 -0.038117882 0.01681159
0001b0 ef 3e c9 3d 9f a0 a6 bd 82 17 f1 b9 b8 42 71 3d
       0.09826457 -0.08136105 -0.00045984617 0.05890152
0001c0 1e ac d8 bc 1e 85 c5 3d a2 5f 8c bd e6 eb a3 bc
       -0.02644926 0.09644531 -0.06854178 -0.020009946
0001d0 cb f8 11 3e 39 97 7f bd e7 1b 71 3c 33 9e 0b be
       0.14255063 -0.062400077 0.014716125 -0.13634567
0001e0 c4 2f ef 3d a4 40 30 bd b3 5f 15 bd 81 bd 51 3b
       0.116790324 -0.043030396 -0.03646822 0.0032003822
0001f0 e5 ab 5f 3d 53 6b 22 3d 6c a9 fd 3d 1b d7 43 3d
       0.05460729 0.039653134 0.1238583 0.047812562
000200 ac 91 8e bd 73 58 b4 3d 3b 46 6d 3c 99 b1 94 3d
       -0.069613785 0.08805933 0.014482076 0.072604366
000210 27 13 d6 bb 01 be 0f bc 27 f9 3c be 17 1a 36 bd
       -0.006533045 -0.008773328 -0.18454419 -0.044458475
000220 45 fb ba 3d 13 56 fb 3c 95 ad df 3c b7 d0 d8 bd
       0.09129957 0.030680692 0.02730445 -0.10586684
000230 cc 55 cc bd 76 43 0f 3e 64 98 79 bb c4 27 d1 bd
       -0.09977302 0.13990578 -0.0038085217 -0.10212663
000240 a9 53 5c 3e 6e a5 24 bd 96 98 b5 3b 47 ad 39 3d
       0.21516289 -0.04019683 0.0055418713 0.045331266
000250 e9 b3 e1 bd fe 9b b7 bb 72 a2 b7 3d c0 91 2f bc
       -0.11020643 -0.0056033125 0.08966531 -0.010715902
000260 d2 55 ae 3d 21 f4 f4 3d 7c 80 db 3d 62 d3 07 3e
       0.08512463 0.119606264 0.10717866 0.1326423
000270 73 9d 4c 3c 12 48 7e 3d ef 26 05 bd f2 37 ab bd
       0.012488711 0.06208045 -0.032507833 -0.0836028
000280 0a 3e cb bd 07 28 35 3d 19 63 d9 bc b4 b6 c6 bd
       -0.099239424 0.044227626 -0.026536511 -0.097028166
000290 c9 c0 8d 3c 12 ce 89 3d 69 ac 5c 3c a7 66 e5 3d
       0.017303841 0.06728758 0.01346884 0.1120122
0002a0 b9 14 c3 bd f6 65 b6 3d e3 75 56 be 51 1c 93 3c
       -0.09525437 0.08906166 -0.20943408 0.017957838
0002b0 a0 f2 c8 3d e0 5b 3e 3c 2d 98 60 3d 17 fb 6a bc
       0.09811902 0.011618584 0.054832626 -0.014342091
0002c0 03 0c b3 bd 12 e0 d7 bd e6 7b 1e 3d 9b 11 52 3e
       -0.087425254 -0.10540785 0.038692378 0.20514528
0002d0 8f 64 01 be 27 09 97 3d ce 47 e6 3c 1f 5b 09 3e
       -0.12636016 0.073747925 0.028110411 0.13413666
0002e0 6b 44 d7 3c 57 b4 39 3d ba ca 5d 3c f1 f1 47 3e
       0.026277741 0.045338 0.013537103 0.19525887
0002f0 d4 84 ae 3c 01 f0 67 3c 29 f1 00 3e 63 5f 2b 3d
       0.021303572 0.0141563425 0.12591995 0.041839015
000300 7e a8 d9 bd c8 6f d2 3b 8e 04 50 3e 10 37 4f 3c
       -0.106278405 0.006422017 0.20314237 0.012647405
000310 43 f2 d3 38 cb bc 7e bc e7 d3 6a be e0 47 a4 bd
       0.00010106389 -0.015547941 -0.22932397 -0.080215216
000320 04 bb c8 3d a6 05 7f 3d 27 3c 63 bd 8b bc 09 3d
       0.098012954 0.062261246 -0.055477288 0.033627074
000330 5f 1f bd 3d 25 27 79 bd 70 09 ae 3c c0 45 01 3d
       0.09234499 -0.060828347 0.021244735 0.03156066
000340 fb 8b 22 bd 67 0a 8e 3d 62 d5 4a 3c bd 0e 8b 3d
       -0.039684277 0.06935578 0.012379976 0.067899205
000350 28 a7 b3 bd 15 55 22 bd 89 8d 7d 3d d0 08 3e bd
       -0.08772117 -0.03963192 0.061902557 -0.046395123
000360 f9 4d 20 bd 25 55 44 3d 1d 73 77 3d 04 bf a9 bd
       -0.03913686 0.047932763 0.060412515 -0.082883865
000370 97 92 cf bd d2 26 da bc 1c 5d 2d be 87 a4 05 3d
       -0.10135382 -0.02662984 -0.1693005 0.03262761
000380 03 fe 09 bd 87 18 18 bd 48 16 80 3d 7b a7 df 3c
       -0.03368951 -0.037132766 0.0625425 0.02730154
000390 16 3f ad bd 67 a3 c7 bd ea de 57 bd 37 41 e4 3c
       -0.08459298 -0.097479634 -0.05270282 0.027863128
0003a0 1f f3 ca 3d d4 a6 bb bd 5c cf a9 3d ed cb cd bc
       0.09909653 -0.09162679 0.08291504 -0.025121653
0003b0 46 26 ee 3d d8 33 64 bd a1 11 f1 bd 48 f3 99 bd
       0.11628394 -0.055713505 -0.117709406 -0.07517105
0003c0 be d5 8a bd f2 ef cc 3a 1b 83 89 bd 1e f3 3c be
       -0.06779049 0.0015635474 -0.067144595 -0.18452117
0003d0 6e 8f 5a 3a 35 e4 47 3d 7b 74 42 be 13 b6 36 3d
       0.0008337413 0.04880162 -0.18989746 0.044607233
0003e0 c1 f3 15 bd 51 d3 ca 3d bb a8 06 bd 38 1c de 3b
       -0.036609415 0.09903587 -0.032875758 0.0067782663
0003f0 3c a0 a4 bc 84 63 d0 3d 40 23 b2 3c 2d d9 8e bd
       -0.020095937 0.10175231 0.021745324 -0.06975017

layers.1.a f4 [128]
000000 ad e2 78 3f 7e c8 53 3f c8 76 77 3f cf 90 f5 3e
       0.9722088 0.827278 0.9666562 0.47962043
000010 38 8e e0 3e 38 62 e9 3e 27 4e c0 3e e2 08 29 3f
       0.43858504 0.45582747 0.37559626 0.6602918
000020 68 b3 04 3f 69 97 27 3f bb 1e ca 3e 3f dd dd 3e
       0.5183625 0.6546541 0.3947657 0.4333286
000030 d4 6a 00 3f a7 8c 01 3f 7d f0 08 3f 83 3b c3 3e
       0.50163007 0.50605243 0.53491956 0.3813134
000040 7d e0 f3 3e 00 55 c1 3e 55 b6 f6 3e 44 1c e1 3e
       0.47632208 0.37760162 0.48185983 0.43966877
000050 a7 93 38 3f 02 7e 51 3f f2 e5 27 3f c7 5f f9 3e
       0.721003 0.818329 0.65585244 0.48705885
000060 31 79 be 3e 52 d7 e9 3e f2 b9 f1 3e e4 2b ee 3e
       0.37201837 0.4567209 0.47212178 0.4651786
000070 68 92 e8 3e 96 05 10 3f 17 8c 0f 3f 0f 66 02 3f
       0.454242 0.56258523 0.56073135 0.5093698
000080 14 93 c7 3e 55 a8 16 3f a7 03 0f 3f d4 4d ab 3e
       0.389794 0.58850604 0.5586495 0.33457816
000090 3a 2b f3 3e d4 7c a1 3e 7b b9 11 3f d9 f6 fc 3e
       0.47493917 0.3154055 0.56923646 0.4940708
0000a0 91 8b 03 3f 79 d9 76 3f ba 37 19 3f af b4 c2 3e
       0.51384836 0.96425587 0.59850657 0.38028476
0000b0 19 cf 04 3f b5 ee ff 3e 8f ed fc 3e 01 7f ff 3e
       0.51878506 0.49986807 0.49399993 0.49901584
0000c0 7e 21 2b 3f 41 91 37 3f 68 08 0c 3f 1e b3 10 3f
       0.6684798 0.71706015 0.54700327 0.5652331
0000d0 d9 72 23 3f a3 2a fd 3e da 5b 2f 3f c2 c1 c4 3e
       0.6384712 0.49446592 0.6849953 0.38429075
0000e0 92 eb 02 3f 56 7c d8 3e e0 27 14 3f c3 e2 a5 3e
       0.511407 0.4228236 0.57873344 0.32399568
0000f0 2d 39 be 3e 70 e7 cd 3e 15 24 e0 3e 41 40 bd 3e
       0.37152997 0.40215635 0.43777528 0.36963084
000100 14 6f ea 3e 80 4f 05 3f 40 5f ed 3e a1 97 bc 3e
       0.4578787 0.5207443 0.46361732 0.36834434
000110 47 30 25 3f 2c cd f0 3e 3f 60 18 3f 17 46 fa 3e
       0.6452679 0.47031534 0.5952186 0.488816
000120 40 06 61 3e 96 fe 33 3f 7c 45 f5 3e b1 a7 27 3f
       0.2197504 0.7031034 0.47904575 0.6549025
000130 b0 d7 00 3f 78 d7 d4 3e 4e 08 36 3f 5f a3 e4 3e
       0.50329113 0.4157064 0.7110642 0.44655892
000140 dd b9 08 3f ae 4b de 3e b9 4e 01 3f 38 bd 4b 3f
       0.53408605 0.43417114 0.50510746 0.795856
000150 f4 88 01 3f be ee 20 3f 20 43 bc 3e 12 13 d3 3e
       0.505996 0.6286429 0.36769962 0.41225487
000160 db 64 09 3f 22 d0 fa 3e ed 30 07 3f d6 b5 0b 3f
       0.5366952 0.48986918 0.5280903 0.54574335
000170 fe 1f c9 3e 63 30 cb 3e 9b dc d4 3e e5 b0 1a 3f
       0.3928222 0.39685354 0.4157456 0.6042617
000180 c8 60 0a 3f 12 86 fa 3e 53 5e 0c 3f 07 89 15 3f
       0.54053926 0.48930413 0.5483143 0.5841221
000190 ec 2d 1f 3f ac a4 ef 3e ae 7f ad 3e 37 19 dd 3e
       0.62179446 0.46805322 0.33886474 0.431833
0001a0 26 aa f4 3e c1 26 16 3f 01 f2 05 3f ef 0d f1 3e
       0.47786063 0.58652884 0.52322394 0.47080943
0001b0 15 75 d7 3e 88 57 d4 3e 9e c9 f0 3e 88 9b e8 3e
       0.42081514 0.4147303 0.47028822 0.4543116
0001c0 4a fd 17 3f b7 39 17 3f 2f 04 f6 3e 38 67 a5 bd
       0.59370863 0.5907244 0.48050067 -0.08076328
0001d0 23 54 ca 3e 12 ec a9 3e d4 1e f3 3e c4 c1 a3 3e
       0.39517316 0.3318792 0.47484457 0.3198377
0001e0 07 b2 46 3e 64 ad 0b 3f ee 55 02 3f d1 b5 06 3f
       0.1940385 0.5456145 0.5091237 0.5262118
0001f0 75 f5 8c 3e ef e1 be 3e be 35 f5 3e 92 5d 88 3e
       0.2753102 0.3728175 0.47892565 0.26633888

layers.1.b f4 [128]
000000 5d 73 91 3d d3 fe 2c be a8 8d 8d 3d 74 0a 83 be
       0.07102082 -0.16894083 0.069117844 -0.25593913
000010 69 b9 87 3e 36 83 2b 3e eb f0 99 3e 6b 51 2c 3e
       0.26508644 0.16749272 0.30066618 0.16827933
000020 0e 91 34 3e d3 db ea bd 39 30 76 3e 42 85 55 3e
       0.17633459 -0.114677094 0.24041833 0.20851615
000030 91 0f 39 be 0d 11 66 be 3b 0b 48 3e 1b e4 37 3e
       -0.18072344 -0.22467442 0.19535534 0.17958109
000040 ea 7b 48 be a9 4f 3f 3e 58 48 6a 3e 4a 6f 82 3e
       -0.1957852 0.18682732 0.2287916 0.25475532
000050 f1 1e 90 3e 1f 6c 04 be 9e 8b 23 3e 1d dd 66 be
       0.28148606 -0.1293187 0.15971228 -0.22545286
000060 81 0a 8b be c1 63 4b 3e 60 ed 33 3e 14 07 2d be
       -0.2715645 0.19862272 0.1757102 -0.16897231
000070 8e 62 53 be a6 97 4c 3e 08 72 70 3e b9 c2 76 3e
       -0.20643064 0.19979724 0.23481 0.24097718
000080 6b c6 3c 3e e8 bd 24 3e 40 50 55 be 35 44 89 be
       0.18435065 0.16088068 -0.20831394 -0.2680985
000090 bd fc 7a 3e a0 7c 15 3e 5f 51 53 be 0a ad 57 3e
       0.24510475 0.14598322 -0.2063651 0.21062103
0000a0 27 1b d0 3e a2 84 c4 bd 66 1e 13 3e 73 27 05 3e
       0.40645716 -0.0959561 0.14367065 0.1300333
0000b0 d6 4c 10 be 9e 48 32 be 24 03 64 3e 9a 93 47 be
       -0.1409181 -0.17410514 0.22266823 -0.194899
0000c0 4a 81 e7 3d cc d9 86 3e ab ff 34 3e 5d da 47 be
       0.11303957 0.2633804 0.17675655 -0.19516893
0000d0 89 f5 24 be c3 24 4c be 8d 4a 3c 3e b9 04 50 3e
       -0.16109289 -0.19935898 0.18387814 0.20314302
0000e0 63 af 3f be 5e 46 5c 3e 64 a6 21 be b4 3d 68 3e
       -0.18719248 0.21511218 -0.15786129 0.22679788
0000f0 f2 cf 39 be 1a 0a 4b 3e 5b 0d 39 be 04 38 8f be
       -0.18145731 0.19828072 -0.18071501 -0.27972424
000100 7d 1e 40 3e 79 f2 52 3e b9 ba 52 be ff 31 65 3e
       0.1876163 0.20600308 -0.20579042 0.22382353
000110 d6 1c 6e be 74 17 6a be 92 40 50 be d6 41 35 be
       -0.23253188 -0.22860509 -0.20337132 -0.17700896
000120 5f 13 89 be 33 bf 6c 3e 7d d7 79 be b5 0e 59 be
       -0.2677259 0.23119812 -0.24398609 -0.21197017
000130 3e a4 5b be 3b 59 28 be 4e 5b e3 bd b3 b3 87 3e
       -0.21449372 -0.16440289 -0.11101399 0.26504287
000140 2c 19 7d 3e a1 41 27 be 45 8c 7a 3e b5 fe 72 3e
       0.24716634 -0.16333629 0.24467571 0.23729976
000150 25 09 63 be 2f d1 35 be 36 bb 7d 3e 7d 6f 2d be
       -0.22171457 -0.17755578 0.24778447 -0.1693706
000160 19 0c 8a 3e a9 f7 84 3e 56 fb 05 3e 5c 46 17 be
       0.26962355 0.259702 0.13084158 -0.14772934
000170 36 e8 3f be a1 77 5f 3e c6 78 47 be 7d 50 18 3e
       -0.18740925 0.21822979 -0.19479665 0.14874454
000180 45 f6 63 3e d1 e9 aa be 05 8c 2b be 82 4f 3c be
       0.22261913 -0.33381513 -0.16752632 -0.18389705
000190 12 ab 30 be e0 a4 1f be e0 72 6b 3e 31 37 21 be
       -0.17252758 -0.15590239 0.2299304 -0.1574371
0001a0 91 4f 3d 3e 8e dd 53 be f1 47 70 be 29 c7 5c 3e
       0.18487383 -0.20689985 -0.23464943 0.21560349
0001b0 bb 16 88 be 6f 99 78 be f2 e4 53 be b3 e0 00 be
       -0.26579842 -0.2427728 -0.20692804 -0.12585716
0001c0 ba 08 5a be b3 34 1f be a3 dc ac be 81 19 08 3e
       -0.21292391 -0.15547447 -0.33762082 0.13290979
0001d0 38 78 7c 3e 7f 6c 0c 3e fc 24 45 be d3 f4 87 3e
       0.24655235 0.13713263 -0.1925239 0.26553974
0001e0 51 39 33 be 7f c2 34 be 94 3b 60 3e 70 9b 3f 3e
       -0.17502333 -0.1765232 0.21897727 0.18711638
0001f0 2f 1b 3e 3e b7 a3 61 be 35 ac 21 be 48 47 16 be
       0.18565057 -0.22035109 -0.15788348 -0.14675629

layers.1.c f4 [128]
000000 b0 3d da bd 0f 3d 40 3e 0d dc 1e be 11 b0 20 be
       -0.10656297 0.18773292 -0.1551363 -0.15692164
000010 7f fe fc bd 28 30 71 be 88 45 0d be 2b 1d 30 be
       -0.12353229 -0.23553526 -0.13796055 -0.17198627
000020 52 1a 5e be 7e 97 7c 3e 95 cf 1b 3e 77 59 45 be
       -0.21689728 0.24667165 0.15215905 -0.1927241
000030 37 31 55 3e a5 58 37 3e 91 4a 55 3e 03 07 3c 3e
       0.20819555 0.17904909 0.20829226 0.1836205
000040 40 ac 40 be 54 d9 49 be 67 ab 25 be 2d cb 0d 3e
       -0.18815708 -0.1971181 -0.16178666 0.13847037
000050 8e b1 86 3e 7e 21 1a be 83 1b 44 3e e9 b1 1f 3e
       0.26307338 -0.15051839 0.1915112 0.15595211
000060 d4 10 07 3e eb 6c 3c be 97 b4 3f 3e fe c6 62 be
       0.13190013 -0.18400924 0.18721233 -0.22146222
000070 7a fe 62 3e 09 9d 70 3e a9 34 06 3e c0 a5 0f 3e
       0.22167388 0.23497404 0.13106026 0.14028072
000080 9e 46 39 be 98 0a 23 be d5 24 48 3e d2 4d 36 be
       -0.18093345 -0.1592201 0.195453 -0.17803124
000090 48 f9 24 3e 1c a8 7c 3e cd 61 6b 3e 94 1b 51 be
       0.16110718 0.24673504 0.22986527 -0.20420676
0000a0 f9 cb a2 3e f8 3b 6e 3d c8 6f 9c be 7c 4b 9a be
       0.31796244 0.05816266 -0.30554032 -0.30135715
0000b0 75 35 a1 3e c5 28 4d 3e e2 e1 33 3e e1 f9 93 3e
       0.31486097 0.20035084 0.17566636 0.2890158
0000c0 4a c3 89 be 69 b5 2a 3e 06 ac 45 be 84 2c 37 3e
       -0.26906806 0.16670765 -0.19303903 0.17888075
0000d0 33 9c 50 be 92 f7 49 3e c8 48 30 be 34 4c 63 3e
       -0.20372085 0.19723347 -0.17215264 0.22197038
0000e0 12 84 77 be ac 32 20 3e 26 e2 41 3e 90 7a 17 3e
       -0.24171475 0.1564433 0.18933925 0.14792848
0000f0 f8 b3 6c 3e 5f 82 28 be 70 9f 56 3e 5e 21 1f 3e
       0.23115528 -0.16455983 0.20959258 0.15540072
000100 3a fc 35 3e 98 39 76 be b0 4b 22 be e8 ff 32 be
       0.17771998 -0.24045408 -0.15849185 -0.17480433
000110 2c 1b 01 be 86 f1 0f 3e da 1b 42 be 7a 4f 3b be
       -0.12608021 0.14056978 -0.18955937 -0.18292037
000120 e7 1e 01 3e dc a4 f8 bd b3 48 0c be 22 5b 43 3e
       0.12609445 -0.121408194 -0.13699608 0.19077733
000130 76 72 25 be 44 9b 4d 3e 5f 38 7d be 7e c6 0f 3e
       -0.16156945 0.2007876 -0.24728535 0.14040563
000140 12 0b 1a 3e 77 cb 78 3e 06 3d 19 3e 18 91 80 be
       0.15043285 0.24296366 0.14964685 -0.25110698
000150 8b 10 2c be 9b 45 61 be df ca 17 be 6d 56 4c 3e
       -0.16803186 -0.21999209 -0.14823483 0.19954844
000160 5f 6e 18 be d9 02 32 be 0c 08 96 be e6 ab 5a 3e
       -0.14885853 -0.17383899 -0.29303014 0.21354637
000170 26 52 63 3e b1 7d 31 3e 6b 84 4f 3e 12 bf 83 be
       0.22199306 0.17333104 0.20265357 -0.25731713
000180 74 52 5f 3e 46 0a f1 3d a5 ab 83 be 53 ee 33 3e
       0.21808797 0.11769538 -0.25716892 0.17571382
000190 a5 b5 6b be 1d 00 58 be 86 73 1d be 0a 10 70 be
       -0.2301851 -0.21093793 -0.153761 -0.23443618
0001a0 f8 27 88 3e f5 06 40 be fb d0 18 3e 91 74 46 3e
       0.26592994 -0.18752654 0.1492347 0.19380404
0001b0 8c fb 04 be 08 e2 1c be 36 c5 14 3e a9 cc a5 be
       -0.12986583 -0.15320599 0.14528355 -0.32382706
0001c0 a1 3d 25 3e fb 44 5f 3e fc dc fa bd c9 c4 66 3e
       0.16136791 0.21803658 -0.12249181 0.22536005
0001d0 4e 07 3b be f0 9b 9c 3e 26 de 36 3e e7 b3 b2 3e
       -0.18264505 0.3058772 0.1785818 0.3490288
0001e0 65 f7 34 3e 4a 37 28 be 64 4a 22 3e 02 b7 67 3e
       0.17672499 -0.16427341 0.1584869 0.22628406
0001f0 5b 2d 63 be 36 36 17 3e 53 9c 74 be ce 5c 73 be
       -0.2218527 0.14766774 -0.23887758 -0.23765871
