diag-ssm-charlm/experiments/tiny/epoch_098_valppl_6.08_valacc_0.5066.pt (torch, 236577 bytes, 19 tensors)

emb.weight f4 [74, 64]
000000 e0 26 39 3f 2d a1 79 3f 95 92 aa bf 14 36 1f bf
       0.72324944 0.9751156 -1.3325983 -0.6219189
000010 88 22 48 bf 2f 24 8f bf c4 5f 91 3f 84 aa 98 be
       -0.7817769 -1.1182917 1.135735 -0.29817593
000020 c4 2f 01 3e 18 bc f9 be 72 d1 4a 3f c5 87 23 40
       0.12615877 -0.48776317 0.7922584 2.5551617
000030 f6 64 8b 3f f6 6d 73 be 54 ee bd 3e 53 30 6c 3f
       1.0890186 -0.23772416 0.37095892 0.92261237
000040 71 fe 0e be e4 53 ac 3d 86 44 ab bc 2b b8 6c bf
       -0.13964249 0.08414438 -0.020906698 -0.9246852
000050 c0 b0 5e bf 0d 45 22 bf 7c a4 63 3f 57 2e be 3f
       -0.8698845 -0.63386613 0.8892286 1.4857892
000060 ab 14 91 3e b3 b4 15 3f 3e 55 0c bd 6a e7 91 bf
       0.2833608 0.5847885 -0.03426098 -1.1398747
000070 d1 4b 38 3e 48 6d b0 3e 1b f9 63 3e c5 ad b0 3f
       0.17997672 0.34458375 0.22262995 1.380303
000080 d4 9f 8a bf fe 36 11 c0 ca 52 41 3e d2 5f 58 3e
       -1.0830026 -2.2689815 0.18879238 0.21130303
000090 ca 76 9e 3f de d7 3d bf 64 68 82 be 4f d5 4c bf
       1.2380002 -0.7415751 -0.2547027 -0.80012983
0000a0 ea 26 95 3e fe a6 a3 be 66 a2 79 3f cc 0b d5 be
       0.29131252 -0.31963342 0.97513425 -0.41610563
0000b0 9b 97 10 be 5e 5c c6 3f e8 5f 98 be 3f 99 ea 3d
       -0.14120333 1.5496938 -0.2976067 0.114550106
0000c0 f2 2a 9b be 6b c5 e0 3f f2 ca 4a bf 05 96 22 3e
       -0.30306202 1.7560247 -0.7921592 0.1587754
0000d0 8a c1 08 bf 03 9d ce 3e a4 36 44 3f 87 a0 3d 3f
       -0.5342032 0.40354165 0.76645875 0.7407307
0000e0 2f 16 19 3e d7 ff 26 3f 96 92 62 3f 36 5e 38 bf
       0.14949869 0.6523413 0.8850492 -0.72018754
0000f0 05 e8 39 3f 6b df 19 bf eb 1f 22 bf a9 fc d1 3f
       0.7261966 -0.60106534 -0.6332995 1.6405231
000100 1d 89 dc 3e 88 e0 df be cf 81 ef 3e 4c ea a6 3d
       0.4307336 -0.4372599 0.46778724 0.08150157
000110 03 73 0e be 1d 44 06 40 36 2d d7 be c4 25 ab bf
       -0.13911061 2.0979073 -0.4202668 -1.33709
000120 58 1c 40 be be f7 e7 3f 0a c2 97 3f 64 a1 b7 be
       -0.18760812 1.812248 1.1856091 -0.3586532
000130 ee 72 96 be c8 55 2a bf d4 b4 1a 3f da 6a 9e bf
       -0.2938456 -0.6653714 0.6043217 -1.2376359
000140 57 f8 f1 bd 41 35 0b bf 53 34 17 bf 0f 08 3e 3e
       -0.11814945 -0.54378134 -0.59064215 0.18557762
000150 e8 f3 12 3f e6 c5 8c 3f 1c c5 96 bf 37 68 9a 3e
       0.5740342 1.0997894 -1.1778903 0.30157635
000160 ac a5 af 3d 60 04 c7 be 72 8f ca be 20 bc 0e 3e
       0.08576521 -0.38870525 -0.39562565 0.13938951
000170 4e 1e c1 3e 41 8d bd bc 54 2f 50 bf 7e 65 a6 3f
       0.37718433 -0.023138644 -0.81322217 1.2999723
000180 e3 3c a9 3e f2 aa c3 3e 24 d9 83 3f c0 a6 91 3e
       0.33054265 0.38216358 1.0300641 0.28447533
000190 72 c3 d5 3e 5f 62 31 bf 4a 04 49 3d ef 00 23 3f
       0.41750675 -0.6929073 0.049076356 0.636733
0001a0 86 e0 cf 3f cf 00 ba 3e 1a 9b a4 3f e2 0f 24 bf
       1.6240394 0.36328742 1.2859833 -0.64086735
0001b0 b2 d1 3d 3f 50 10 d1 3d a0 02 86 3f 7f ea 3a bf
       0.74148095 0.102081895 1.0469551 -0.7301406
0001c0 42 98 69 3e 47 0b 71 3f f7 03 b2 be 3a 06 cf 3f
       0.22811988 0.9415783 -0.3476865 1.6173775
0001d0 bd 1d 3e be 3d 70 b5 be 33 81 53 be 6d 62 bf 3f
       -0.18566032 -0.35437194 -0.20654754 1.4951912
0001e0 a6 80 d0 bf 41 33 56 3f 66 02 30 3f e7 f9 bd bf
       -1.628926 0.8367196 0.6875366 -1.4841889
0001f0 fd 44 a1 bf 2c 0c c7 be af 20 d6 bf 0d bc c7 3e
       -1.2599179 -0.38876474 -1.6728724 0.3901066
000200 d9 80 4b bf 04 2d 4c be 75 d7 7b 3f b5 80 88 3d
       -0.7949348 -0.19939047 0.98375636 0.06665174
000210 ef 84 c0 3f b1 92 51 be b8 d4 da 3e 9d bd 51 3d
       1.5040568 -0.20466115 0.42740417 0.05120622
000220 ed eb 22 be fa 6d cd bb 22 03 b7 3d f9 dc 5f 3f
       -0.15910311 -0.0062692137 0.089361444 0.8744655
000230 60 7a a4 bf cc e6 ee 3e e2 c3 46 bf a7 80 d4 be
       -1.2849846 0.4666046 -0.77642643 -0.41504404
000240 a2 f9 a1 3e 43 08 e7 be 16 4d 0b 40 33 5c dc be
       0.31635767 -0.4512349 2.17658 -0.43039092
000250 98 82 0a c0 20 5b c0 3f a7 fe a4 3e e7 7a dc 3e
       -2.1642208 1.5027809 0.32225534 0.43062517
000260 da 53 8c bf d0 6e 81 39 e2 57 7a bf e1 a7 3a 3f
       -1.096309 0.0002468736 -0.9779035 0.7291241
000270 18 c4 9c 3e 56 ce d3 be 56 16 4a 3e 74 20 b7 bf
       0.30618358 -0.4136836 0.19735083 -1.4306779
000280 33 67 a3 bf 9c ae e3 3e d5 00 fe 3e e7 bc 67 3f
       -1.2765869 0.44469154 0.4961001 0.9052262
000290 c8 8d 42 bf dc ed d7 bf ff 52 0a 3f 90 d1 e1 3d
       -0.7599759 -1.6869464 0.5403289 0.11026299
0002a0 df bc ee 3d bc 8f 96 bf d3 8a fd bf 30 07 1d 3f
       0.11657118 -1.1762614 -1.9807991 0.6133909
0002b0 cb e2 07 c0 88 a7 13 3f 66 95 8d 3f 04 d7 d1 be
       -2.1232173 0.5767751 1.1061218 -0.40984356
0002c0 a2 7e d9 bf 64 7c 19 bb ad 4e b1 bd b1 9b 29 bf
       -1.699177 -0.002342009 -0.08657584 -0.6625319
0002d0 24 56 a1 bf 4c 48 85 bf 6e 26 f9 bf a8 4f ac be
       -1.2604413 -1.0412688 -1.9464853 -0.33654523
0002e0 34 75 03 3d 22 a4 f8 3d b6 8e 09 3e a9 59 58 bf
       0.032094195 0.12140681 0.13433346 -0.8451181
0002f0 2d b8 28 3f e3 1f b4 be 5b 5a de bf 33 4f cf be
       0.6590603 -0.35180578 -1.7371324 -0.40490112
000300 a0 30 85 bf cc f2 cf bf f5 ea 1a 3f fd 4b 07 3f
       -1.0405464 -1.6245971 0.60514766 0.52850324
000310 b6 dd 4e bf ce 6e f7 bf 9f 07 22 3f 17 ba 55 bf
       -0.80807054 -1.933069 0.6329288 -0.83487076
000320 75 68 b0 bf 15 b1 83 3f 8e af a3 3f 47 ef d1 3f
       -1.3781878 1.0288416 1.278795 1.6401147
000330 25 92 af be 80 0c 0f 40 47 da 56 bf 6b 70 46 3f
       -0.34291187 2.235138 -0.83926815 0.77515286
000340 49 90 23 40 82 1f b3 3f 4a 20 eb 3d 35 b7 ee 3f
       2.5556815 1.399399 0.11480768 1.864966
000350 78 6d e3 be 8a df ea bf fe f9 7d 3f 13 4d 3d 3f
       -0.44419456 -1.8349469 0.9920958 0.7394573
000360 50 16 d6 be 88 96 49 c0 7d 08 33 bf 46 51 bd be
       -0.41813898 -3.1498127 -0.6993483 -0.3697607
000370 62 26 29 40 66 3e b5 bf cb 81 b9 bf 2a bb 2a c0
       2.6429677 -1.4159667 -1.4492735 -2.6676736
000380 cf 23 d4 3f a3 fa c5 bf 12 5e c7 3e 69 a9 1f 3f
       1.6573428 -1.5467113 0.38938957 0.62367874
000390 82 4e 7e bd 4b de c4 3e 52 1d ff 3f 51 0e 09 40
       -0.06208659 0.38450846 1.9930823 2.1414988
0003a0 55 36 44 40 dd 32 42 bf a1 82 cf 3f e8 65 05 40
       3.0658162 -0.7585886 1.621174 2.0843449
0003b0 d3 f4 ab be 5a d9 3f c0 a1 d8 12 40 51 f3 93 bf
       -0.33585224 -2.997641 2.294472 -1.1558629
0003c0 a5 06 4d be 78 50 67 40 5e 26 c9 bf a6 8b c2 3e
       -0.20022066 3.6142864 -1.5714834 0.37997168
0003d0 f8 3e 8b bf dc a9 ed 3f 91 67 9b 3f 56 11 42 c0
       -1.0878592 1.8567462 1.2140981 -3.032308
0003e0 15 cd 23 be 9c 40 4b 3c c5 a4 d3 3e 6a 9a 86 bf
       -0.15996201 0.012405541 0.41336647 -1.0515873
0003f0 82 a3 5e 3f 48 0e 5d bf c9 c1 8a 3f 06 71 e7 bf
       0.86968243 -0.86349916 1.0840389 -1.8081367

input_proj.weight f4 [128, 64]
000000 6b 5c ff 3c 3f f6 d5 bd 0f d5 49 3c 81 3e 94 bd
       0.031171998 -0.10447358 0.0123188635 -0.07238484
000010 34 51 e0 bc 7b 30 06 3e 11 23 73 bd de b7 cd 3d
       -0.02738247 0.13104431 -0.059359614 0.100448355
000020 e7 c5 a9 3d a0 67 83 3d e3 c2 0f 3e 86 12 e3 bd
       0.082897 0.06416249 0.14039187 -0.110875174
000030 ee 97 3a 3d 4d e6 31 3c 1b c3 cc bd c9 f2 02 bd
       0.045555048 0.010858131 -0.09998151 -0.03196982
000040 24 b6 de 3b 4e 17 c2 3c 2a 81 b0 bd e4 b1 c7 3d
       0.006796615 0.023692753 -0.08618386 0.09750727
000050 f5 74 1e bd 0d d1 40 bc 7c 8a e3 bc 9c ca da bd
       -0.038685758 -0.011768592 -0.027775995 -0.10683176
000060 d3 1d 08 3d 8b 41 f6 bc 5e 59 4a bd ab c5 ff bc
       0.033231568 -0.03006055 -0.049401633 -0.031222185
000070 9f fb 92 3c 3a f0 1f 3d 21 dc 18 be c3 c3 d3 3c
       0.017942248 0.039047457 -0.14927723 0.025850182
000080 e7 11 f4 bd f8 f9 6a bc af a6 f7 bb 80 68 df bd
       -0.11917477 -0.014341824 -0.007557712 -0.10908604
000090 16 07 10 be 1f 91 93 3c b2 a8 b2 3c b8 d8 07 3e
       -0.14065203 0.018013535 0.021808956 0.13266265
0000a0 ee 1a 83 3d 28 cd 8e 3d 9f 86 3e bd db 56 74 3d
       0.06401621 0.06972724 -0.046515103 0.059653144
0000b0 8e 30 ba 3d 18 34 f2 bd 5b b8 3b bd e0 be 8e bd
       0.09091292 -0.11826342 -0.045830112 -0.0697
0000c0 b8 43 41 bd 54 f9 22 bd 45 3a 35 3d c9 4b ef ba
       -0.047183722 -0.03978856 0.044245023 -0.0018256839
0000d0 ca 42 21 bd d9 69 3a bd 6f df 97 3c 4d 6a 07 bc
       -0.039370336 -0.0455111 0.018539159 -0.00826509
0000e0 99 3d f5 bd 18 10 21 be 1b 83 8d 3c 24 7f f6 bd
       -0.119746394 -0.15728796 0.01727443 -0.12035969
0000f0 1d fc f2 3d 76 c6 e6 bd af 6e 97 3d 3d 1f be bd
       0.11864493 -0.11268322 0.07394158 -0.09283302
000100 b8 90 90 3a bc 4f a3 3c 31 26 49 ba 44 ad b3 3c
       0.0011029458 0.019935481 -0.00076732325 0.021933205
000110 b8 be 48 bc 36 dd 30 3e 27 e9 2f be e5 c8 f0 bd
       -0.012252502 0.17271885 -0.17178784 -0.117570676
000120 92 50 68 bd 71 b8 36 3d 4c b1 aa 3c 84 1e 0e bd
       -0.056717463 0.04460949 0.020836495 -0.03469707
000130 62 98 93 3d 51 bc c0 3d 24 de 0a 3e 25 f0 f5 bd
       0.07206799 0.094109185 0.13561302 -0.120086946
000140 56 3e e2 3d 18 72 6c 3c 2f 89 3b bd 3d 5b 07 bd
       0.11047046 0.014431499 -0.045785125 -0.033045996
000150 34 59 19 bd c3 c8 38 bd ea cd ca 3b e6 a0 43 bd
       -0.037438586 -0.045113336 0.0061890977 -0.047760867
000160 a2 a6 67 3d 92 eb 51 3d b9 59 cc 3c d1 4d 37 bc
       0.056555398 0.051250048 0.024945127 -0.0111879865
000170 67 9e 03 3e e0 54 f3 3d b5 c9 97 b9 21 84 c1 3d
       0.12853394 0.11881423 -0.00028951248 0.0944903
000180 bc 5f ba bc 82 59 53 bd 8e 08 ca 3d f9 cb 81 3b
       -0.022750728 -0.051599033 0.09864913 0.003961083
000190 7f 74 fc bd 3f 2a 05 bc 26 d0 d9 3c c8 21 d7 bd
       -0.12326907 -0.008127748 0.02658851 -0.1050449
0001a0 e0 ac fa 3b fa 53 81 bc 43 0a 9d 3b f0 83 81 bc
       0.007650003 -0.015787113 0.004792483 -0.015809983
0001b0 3e 12 27 3c 02 6b 02 be 75 9c 39 3d 78 07 8f 3d
       0.01019722 -0.12736133 0.045315225 0.069838464
0001c0 bf 5e 72 bc a2 d0 11 be a8 3a 98 bd c2 24 41 3d
       -0.014793097 -0.14239743 -0.07433063 0.047154196
0001d0 eb 79 eb bc 16 91 a0 bd e2 4a f9 3a 33 40 51 bb
       -0.028744658 -0.07840173 0.0019019509 -0.0031929135
0001e0 3e 00 f0 bc 46 39 b7 bd 78 ce 10 bd c1 6d e4 bc
       -0.02929699 -0.08946471 -0.035353154 -0.027884366
0001f0 9f 73 b9 3c b9 9f 57 3d 0b a8 9d 3d 48 94 ad 3c
       0.02263814 0.052642558 0.07698067 0.02118887
000200 b5 3c 2d 3e 67 ba 46 3d 8b b8 64 3a 3b 6f 9f b9
       0.16917689 0.04851761 0.0008725009 -0.00030409716
000210 92 33 fe 3d bf 09 8e bd 2a 6d 4b bd a9 a6 20 bc
       0.1241218 -0.06935453 -0.049664654 -0.00980536
000220 00 24 b6 bd 25 f7 f7 3b 68 5b 10 bd 32 84 fa bc
       -0.08893585 0.0075673037 -0.03524342 -0.030580614
000230 f2 35 39 be 23 25 ce 3d a8 3a e1 bc 7a 29 ed bc
       -0.18086985 0.10065677 -0.02749379 -0.028950442
000240 0d 73 1e 3e 1e f2 6d bd c7 1d cd 3d 8a 46 00 bd
       0.15473576 -0.05809223 0.10015445 -0.03131727
000250 1d 60 a4 bc a9 b4 81 3c df f1 94 bd bf 5c 64 3c
       -0.020065362 0.015833216 -0.07272696 0.013938128
000260 30 00 6a 3d ae b9 c0 3c ac 31 17 bd ff 4a 39 3d
       0.057129085 0.023526039 -0.036912605 0.045237537
000270 71 78 dc 3d 03 fc ab bc c1 97 e0 bc 3f 31 b6 bd
       0.1076516 -0.020994192 -0.027416112 -0.08896112
000280 c6 93 4f 3c 16 15 2a bd 22 b8 8e 3d 0f 80 02 3e
       0.012669509 -0.041524015 0.06968714 0.12744163
000290 bd e1 6a bd 6c 86 d4 bb 49 30 58 3d 2b 1b e4 3d
       -0.057344187 -0.006485751 0.052780423 0.111379944
0002a0 ee 04 4b bc 06 72 10 bd 3d 54 09 3d 66 ea 16 3d
       -0.012391312 -0.03526499 0.0335276 0.036844634
0002b0 a6 b5 6f 3c d5 38 25 bd b9 59 f0 3d 7e b6 29 bc
       0.014630711 -0.040337402 0.11735863 -0.010358451
0002c0 c8 09 01 be 58 3c ee bc 30 3d 05 3d 71 20 8d 3c
       -0.12601388 -0.029081509 0.032529056 0.017227383
0002d0 8b 3d 18 bd 64 58 1a 3c 88 1a 49 bd 3a 4b b4 3d
       -0.037168067 0.009420488 -0.049097568 0.08803411
0002e0 8c 60 75 3c 1e 58 5f 3d a7 35 b1 bc 92 fd 0c bd
       0.014976632 0.054527394 -0.021632029 -0.03442151
0002f0 14 e3 d5 3c 75 48 33 bc fa 5c 84 bd ab 0b 2c bc
       0.026109256 -0.010942568 -0.06463046 -0.010500829
000300 1a 53 2a bd 81 87 71 bd 73 88 5c 3c de 24 29 3d
       -0.041583158 -0.058967117 0.013460266 0.041294925
000310 b7 88 01 3d 82 4b 74 bd b8 fb fc bc 02 ef 34 3c
       0.031624522 -0.059642322 -0.030881748 0.011043312
000320 34 12 86 3d a6 9d e9 bc d2 b3 b9 3d 22 f0 13 3d
       0.06546441 -0.028517555 0.09067501 0.03611768
000330 33 c0 50 bc e7 93 ca 3d d9 9e b2 bc 53 51 5d 3c
       -0.012741136 0.098914914 -0.02180426 0.013508159
000340 be 6b ae ba 1b 31 ce bd a9 03 87 39 29 56 26 bb
       -0.0013307256 -0.1006796 0.00025751934 -0.0025380945
000350 93 a0 c0 bc 11 13 fc bc d2 9d af 3c 3d 02 19 bd
       -0.023514068 -0.03077081 0.02143756 -0.03735565
000360 9d 62 41 3d 7f be 1a bd c8 86 b1 bb 8c f2 b8 3c
       0.047213186 -0.037779327 -0.0054176785 0.022576593
000370 76 53 63 3c fa b4 42 bd e6 9d d0 bb 87 43 4b 3c
       0.013874879 -0.047535874 -0.006366479 0.0124062365
000380 8a ea 9c bd 61 94 74 bd 10 20 3a 3d 1e b9 b5 3c
       -0.07661922 -0.059711818 0.045440733 0.022182997
000390 f3 1c 94 bd 56 f4 90 ba d2 a6 5a bc bc a7 a4 bd
       -0.07232084 -0.0011059146 -0.013345437 -0.08039805
0003a0 3d 77 9d 3c 60 0d 50 3c 60 3e 33 3d cb 4e 9e bd
       0.019221896 0.012698501 0.043760657 -0.07729872
0003b0 7a 76 05 bd 3e 23 5a 3d eb 05 53 3d d4 9d 97 3c
       -0.03258369 0.053256266 0.051519316 0.018507876
0003c0 7e 82 a1 3c 23 aa f7 bb be a2 10 bd ef b0 bb bc
       0.019715544 -0.0075581237 -0.035311453 -0.022911517
0003d0 d3 20 47 bd de 80 0c 3d 0c d0 b2 3c 79 5a 81 bc
       -0.048615288 0.034302585 0.02182772 -0.015790211
0003e0 d2 5b e7 bb 4f e1 99 3b 2a b8 05 bd a1 cb d3 3c
       -0.0070605064 0.0046960483 -0.032646336 0.025853934
0003f0 8c 52 20 bd 56 e9 78 3c 90 6e 31 3d 30 c9 04 3d
       -0.039141223 0.01519235 0.04331833 0.03241843

input_proj.bias f4 [128]
000000 28 9b 32 bd 3a 4c 1d 3e 3e 1d 20 bd b0 7a 57 bc
       -0.043605 0.1536111 -0.039090388 -0.01315181
000010 90 58 e1 3b fb d2 e5 bd 79 f9 34 3c d8 d8 e3 3d
       0.0068770126 -0.11221882 0.011045807 0.11125344
000020 a9 9c 20 3b 16 03 01 bd 74 d7 1f bc 77 d1 9d bd
       0.002450744 -0.031497084 -0.009755958 -0.07705968
000030 c6 ee 29 3d 1a 10 e7 3c 02 27 d7 3d e3 bb 4e 3d
       0.041487478 0.02820592 0.10505487 0.05047215
000040 9e 1e f3 bc 15 2e 8c bc 62 a2 c6 3d 72 8b 2d bd
       -0.029677685 -0.017111817 0.09698941 -0.042369314
000050 ad 2d ce 3c 28 82 58 bd de 4d 74 bd c9 05 12 bc
       0.025168264 -0.0528585 -0.059644572 -0.008912512
000060 8e 3b 08 be 5f cf 7f 3d 68 f3 36 bd 76 b4 35 bc
       -0.13303968 0.062453624 -0.044665724 -0.0110903885
000070 de 2c 2d bd bd da 78 bd 73 d8 43 3b 84 c0 06 bd
       -0.042279117 -0.06075548 0.0029883652 -0.03289844
000080 d2 2b 12 be 0a 50 4b 3d 39 e4 c5 bc b6 a6 9c bd
       -0.14274529 0.049636878 -0.024156677 -0.07648985
000090 49 e0 13 be 8c 0a 36 3d 9c e8 0c bd 9e 30 d4 3d
       -0.14441027 0.044443652 -0.03440152 0.103608355
0000a0 1a 40 f2 bd f5 e9 3e bc 8c 67 af 3d d2 5c 90 bd
       -0.11828633 -0.011652459 0.08564672 -0.07048954
0000b0 38 98 a0 3d d1 73 88 bd 5e 86 ec bd 10 cc c9 3d
       0.078415334 -0.06662715 -0.11549066 0.09853375
0000c0 fe c7 2f 3e ee c5 39 bc 8b a1 bb bd f2 69 94 bd
       0.17166135 -0.011338694 -0.09161671 -0.0724677
0000d0 7c 3a ec 3d a6 e0 38 bb 07 a3 64 be b0 3a 03 3d
       0.115345925 -0.0028210073 -0.22327815 0.03203839
0000e0 fe 52 d2 bd 1a 18 b0 bd c1 da 45 3e 2a b0 c9 bd
       -0.10269736 -0.08598347 0.19321729 -0.09848054
0000f0 a9 21 be bd bb b9 87 bd a6 d5 dc 3d b7 08 d8 3d
       -0.09283764 -0.06627222 0.10782938 0.10548537
000100 c3 d3 2a be 44 4d 71 3d d2 a9 50 bd 68 2f 06 3e
       -0.16682343 0.058911577 -0.050943203 0.13104022
000110 3f 00 01 bd 76 54 2b 3c ac 40 b0 3c b5 45 f9 3c
       -0.031494375 0.010457149 0.021515213 0.030428747
000120 6a 6b 5c be 00 a4 09 3e 7d 27 e2 bd df 8f 4e 3d
       -0.2152535 0.13441467 -0.11042688 0.050430175
000130 12 57 d7 3c 0e 34 7e bd a9 f9 6e 3e 6b d1 9f 3c
       0.026286636 -0.062061362 0.23337425 0.019509038
000140 26 8a b7 bd 5e 14 e5 bd 43 20 9b 3c 02 ed 22 3e
       -0.089618966 -0.11185525 0.018936282 0.15910724
000150 4c c9 4e 3d 95 22 68 3d 09 d4 1b be cd 35 74 3d
       0.05048494 0.056673605 -0.15217604 0.05962162
000160 90 15 dc 38 f0 40 e3 3d b8 8a 91 3c d2 8b 39 3d
       0.00010494434 0.1109637 0.017766342 0.04529936
000170 bc 51 82 bd 24 c9 b3 bd d8 d5 27 be 95 60 b1 bd
       -0.06363246 -0.08778599 -0.16390169 -0.08661
000180 e8 c7 15 3c 13 02 a2 ba 8e 97 85 3b 6d 7e ce bd
       0.0091419 -0.0012360237 0.0040769046 -0.100827076
000190 46 73 67 3c 77 6f a3 bd 91 af 28 be 13 5e ed bc
       0.014126604 -0.079802446 -0.16473223 -0.028975522
0001a0 5e fc e5 3c ab 18 3f bd a8 38 d6 bd b4 7f 67 bd
       0.02807444 -0.046654385 -0.10460025 -0.05651827
0001b0 e0 b5 b4 bd 8e 99 fe bd f0 16 30 bc 7c a9 06 3e
       -0.088237524 -0.12431632 -0.010747656 0.1315059
0001c0 5a 8f 00 3d 17 da a0 bd ac 22 01 3d 62 f1 50 3c
       0.03138671 -0.07854097 0.031527206 0.012752863
0001d0 79 f6 4f bc ca 44 4c be ba 95 33 3e e6 b5 8b 3d
       -0.012693041 -0.19948116 0.17537585 0.06821804
0001e0 24 cb 56 bd 46 65 cd bd 3b 94 bd bd 93 76 96 bd
       -0.052439824 -0.10029082 -0.09256788 -0.07346835
0001f0 12 17 cf bd 52 6c 2f bd c1 98 e3 bd 2a 49 ba bd
       -0.10111822 -0.04282791 -0.1111312 -0.09095986

layers.0.a f4 [128]
000000 89 22 10 3f d9 81 0f 3f ec 17 1d 3f b1 ae 2a 3f
       0.56302696 0.56057507 0.61364627 0.6667281
000010 d0 e8 0e 3f 60 14 78 3f 4a 1a 11 3f 33 b1 13 3f
       0.55823994 0.9690609 0.5668074 0.5769226
000020 4c a8 15 3f 94 bd 08 3f 30 91 12 3f 18 bb 36 3f
       0.58459926 0.53414273 0.5725279 0.7137923
000030 c7 f0 14 3f 02 8d 06 3f 27 1a 14 3f 1e a5 17 3f
       0.581799 0.5255891 0.57852405 0.59236324
000040 23 fc 09 3f 6a 6b 10 3f d4 b9 07 3f 7d 91 10 3f
       0.53900355 0.564139 0.53017926 0.56472
000050 ad dc 6f 3f de 29 18 3f 49 5f 1f 3f e9 45 1c 3f
       0.936961 0.59438884 0.6225477 0.61044174
000060 a9 cf d7 3e 72 4b 1f 3f fd 9d f5 3e 55 da 0f 3f
       0.4215062 0.62224495 0.47972098 0.56192523
000070 26 dc 0a 3f d0 dc 14 3f 76 06 10 3f 18 b1 12 3f
       0.5424217 0.58149433 0.5625986 0.57301474
000080 de 53 f1 3e b0 98 09 3f 38 aa 1c 3f b3 00 09 3f
       0.47134298 0.5374861 0.61197233 0.5351669
000090 50 bb 0f 3f 88 c1 04 3f 7c 85 14 3f c3 b5 0c 3f
       0.5614519 0.51857805 0.5801618 0.54964846
0000a0 a6 9e 30 3f 96 7c 1c 3f 01 05 13 3f 72 7e f2 3e
       0.6899208 0.61127603 0.5742951 0.47362095
0000b0 49 41 0f 3f a7 88 06 3f 35 a8 1f 3f a6 bd 2e 3f
       0.5595899 0.52552265 0.6236604 0.6825813
0000c0 bf c4 2c 3f 5b a3 2f 3f 2e a7 0c 3f 28 95 0b 3f
       0.6748771 0.68608636 0.54942596 0.5452447
0000d0 33 06 0f 3f e2 36 2a 3f 7e 2e 1f 3f ab 5f 2a 3f
       0.55868834 0.66489995 0.62180316 0.6655223
0000e0 fd c5 1d 3f 03 27 15 3f 8a 9c 19 3f fe ba 03 3f
       0.6163023 0.5826265 0.60004485 0.514572
0000f0 d3 d1 1c 3f 3d fe 04 3f c8 13 08 3f 9e 9d 17 3f
       0.61257666 0.51950437 0.53155184 0.5922488
000100 da 92 0d 3f 84 ce 08 3f 04 55 10 3f 48 7a 25 3f
       0.553022 0.5344012 0.56379724 0.6463971
000110 79 0b 1b 3f 70 cb 10 3f 63 53 7c 3f 37 c9 05 3f
       0.6056438 0.5656042 0.9856474 0.52260154
000120 69 76 10 3f 04 3e f5 3e 03 46 12 3f 9f b3 1a 3f
       0.5643068 0.47898877 0.5713808 0.6043033
000130 26 86 19 3f 05 a5 17 3f 07 aa 20 3f 92 10 0e 3f
       0.5997032 0.59236175 0.6275944 0.55494034
000140 2b 6a 0b 3f 6a 2a e0 3e fe 16 13 3f aa d4 23 3f
       0.54458874 0.4378236 0.5745696 0.63996375
000150 2b 7b 24 3f 8b 6a 2b 3f c5 a6 b2 3e eb 6a 02 3f
       0.6425044 0.66959447 0.3489286 0.50944394
000160 18 04 06 3f bd 97 16 3f 99 4d 10 3f e0 53 f0 3e
       0.52349997 0.58825284 0.56368405 0.46938992
000170 60 79 05 3f 5e c4 05 3f 77 1a 17 3f 25 50 18 3f
       0.5213833 0.5225276 0.5902476 0.5949729
000180 d0 b2 20 3f 6f 2c 13 3f 67 d6 11 3f d3 17 f3 3e
       0.62772846 0.57489675 0.56967777 0.47479114
000190 1c 30 19 3f ac f5 1f 3f 96 a1 18 3f 52 65 18 3f
       0.59839034 0.6248424 0.5962156 0.595296
0001a0 fe 65 1a 3f f2 bb 17 3f 4a c1 18 3f 32 b5 0f 3f
       0.6031188 0.59271157 0.59669936 0.5613586
0001b0 c7 34 04 3f 6d 3c 13 3f 32 67 18 3f 64 35 12 3f
       0.5164303 0.5751408 0.59532464 0.5711272
0001c0 e1 30 1d 3f 46 52 13 3f 42 65 0e 3f 44 ad 0c 3f
       0.6140271 0.57547414 0.5562326 0.5495188
0001d0 95 00 02 3f 2e 1b 03 3f d3 d5 28 3f 5e 93 0e 3f
       0.5078214 0.5121335 0.6595127 0.55693614
0001e0 64 33 10 3f f5 c6 ff 3e 06 6c d8 3e 4c 0e 06 3f
       0.56328416 0.4995648 0.42269915 0.52365565
0001f0 84 75 11 3f 39 ca 10 3f ea f0 02 3f d4 10 10 3f
       0.5681994 0.5655857 0.51148856 0.5627568

layers.0.b f4 [128]
000000 7f 1a 16 3e 5a 58 8a 3e 74 3c 2f 3e 18 3d 0f 3e
       0.14658545 0.27020532 0.17112905 0.13988149
000010 e4 3d 06 3e 44 1f d1 bc cc c9 f5 bd 0c 85 10 3e
       0.13109547 -0.025527604 -0.1200138 0.14113253
000020 ad d2 34 be 5c 81 f5 bd 7d a9 10 be eb 62 84 be
       -0.17658491 -0.11987564 -0.14127155 -0.25856718
000030 3c 74 25 be e7 22 51 3e 1b 40 52 be 95 4e 67 be
       -0.16157621 0.2042347 -0.20532267 -0.2258857
000040 6a 9c 78 3e fa fa 1f be 3e 08 8e be 28 75 38 3e
       0.24278417 -0.15623084 -0.27740663 0.18013442
000050 42 dc 94 bd ab 87 2e 3e 21 f6 51 be 6e eb 80 3e
       -0.07268573 0.1704394 -0.20504047 0.2517962
000060 f3 96 ad be 98 77 36 3e 3c 96 30 be 81 36 2e 3e
       -0.33904228 0.17819059 -0.1724481 0.17012979
000070 5b b6 09 3e 19 9c 5d be eb c9 2d 3e 0b 2a 19 be
       0.1344847 -0.21641578 0.16971557 -0.14957444
000080 e3 16 11 3e 7c fa 16 be a3 67 a8 be ee 19 38 be
       0.14168887 -0.1474399 -0.3289157 -0.17978641
000090 09 86 38 3e e0 cc 17 3e 25 31 2f be a3 4a 12 be
       0.1801988 0.14824247 -0.17108591 -0.14286284
0000a0 9f 26 06 3e 44 78 45 3e b5 7e 9f be 41 d2 5c 3e
       0.1310067 0.19284159 -0.31151357 0.2156458
0000b0 a8 6c fa 3d e9 71 07 be b9 ad 59 be 81 b6 4c be
       0.12227756 -0.13227047 -0.21257676 -0.19991495
0000c0 e0 02 7f 3e d7 0b 72 3e f0 95 12 be 64 c5 ae 3e
       0.2490344 0.23637329 -0.14315009 0.34134972
0000d0 0b ae 09 be c2 44 5d be 49 6c fe bd c3 9d 35 3e
       -0.13445298 -0.2160826 -0.124229975 0.17735963
0000e0 55 5a ff bd 64 7e 57 be 40 ad 37 3e 06 b1 1f be
       -0.12468401 -0.21044308 0.17937183 -0.15594873
0000f0 d8 ff 2c 3e cf 8f 0c be e0 58 48 3e f3 aa 08 be
       0.16894472 -0.13726734 0.19565153 -0.13346462
000100 2f d8 14 3e 5c f1 78 3e 8f dd cd 3d 50 77 38 3e
       0.14535592 0.24310821 0.100520246 0.18014264
000110 94 c6 e3 bd c3 07 4c be b7 68 48 3d 49 9d 1a 3e
       -0.1112186 -0.19924836 0.04892799 0.15099062
000120 27 ee 23 be c7 64 1a 3e 1a 4c 4f be ba 3b 25 be
       -0.16008817 0.15077506 -0.20243874 -0.16136065
000130 a6 de da 3d 2b c4 80 3e bd 5d 0d 3e 72 c6 41 3e
       0.10686998 0.25149664 0.1380529 0.18923357
000140 99 f2 10 3e 39 7d 0b be e3 1c 3d be c5 18 37 3e
       0.14155044 -0.13621987 -0.1846805 0.17880543
000150 8e e8 52 be eb 6e 60 3e 29 23 b9 be a3 d6 6c 3e
       -0.20596525 0.21917312 -0.36159638 0.23128752
000160 1e 78 53 be a1 a6 50 3e 3e 6d 4c 3e 22 a6 27 be
       -0.2065129 0.20376064 0.19963548 -0.16371968
000170 88 a5 38 be bf f6 80 3e 62 26 5f be d1 1a 28 be
       -0.18031895 0.25188252 -0.21791986 -0.1641648
000180 87 51 76 3e ba 8e 13 3e 15 97 98 3e 92 1c 8c be
       0.24054538 0.14409915 0.29802766 -0.27365547
000190 b1 62 41 be cf a6 29 3e 32 ad 19 3e bc bf 00 3e
       -0.18885304 0.16567539 0.15007475 0.12573141
0001a0 33 cf 70 be 2a f0 41 3e 3d 8f 59 be ef e7 6f be
       -0.2351654 0.18939272 -0.21246047 -0.2342832
0001b0 b6 a4 16 be 33 d6 1a 3e 4a bc 41 be 95 44 11 3e
       -0.1471127 0.15120773 -0.18919483 0.14186318
0001c0 b5 43 2d be 10 55 36 be 87 08 d7 3d 6a 52 35 3e
       -0.1692036 -0.17805886 0.10499673 0.1770722
0001d0 49 ce 3b be 86 eb 82 3e b5 87 4d 3e bc 29 28 3e
       -0.1834041 0.25570315 0.200713 0.1642217
0001e0 fe d8 01 3e 0b d9 75 be 9e 19 2a 3e 39 5d 77 3e
       0.12680432 -0.24008577 0.16611335 0.24156655
0001f0 9d 37 19 3e 4c ca 3d 3e 8d d7 45 be 72 18 17 3e
       0.14962621 0.18534201 -0.19320507 0.14755419

layers.0.c f4 [128]
000000 64 f4 4e be a9 f8 24 3e f8 fc 3e be a8 2c 6b 3e
       -0.20210415 0.16110481 -0.18651187 0.22966254
000010 2e 0b 5f be e6 44 20 be 49 2b 74 3e 2a 30 87 be
       -0.21781608 -0.15651283 0.23844637 -0.26403934
000020 6b 0c 29 3e e2 56 89 3e 71 9e 33 be 47 3f bc 3d
       0.16508643 0.268241 -0.1754091 0.09191757
000030 49 2d 01 3e 59 62 07 be fb d1 57 be a4 c8 e9 3d
       0.12614931 -0.1322111 -0.21076195 0.11415222
000040 27 fc f4 bd ab 2a 19 be d3 67 ea bd 36 bb f5 3d
       -0.11962157 -0.14957683 -0.11445584 0.11998598
000050 b7 b2 ea bd 61 7c 6e be 23 fc 17 3e b5 f1 06 3e
       -0.114598684 -0.23289634 0.14842276 0.13178141
000060 c3 0b 16 be 1d 1f 24 3e e9 75 17 be 6a be 36 3e
       -0.14652924 0.16027494 -0.14791073 0.17846075
000070 1c f8 48 be 8b 2c 15 be 82 13 08 be da 87 4c be
       -0.19625896 -0.14567773 -0.13288692 -0.19973698
000080 f3 57 83 3e b9 00 51 be f7 58 d0 3d e5 d9 21 be
       0.25653037 -0.20410432 0.10173219 -0.15805776
000090 04 df 08 3e bf d5 2d 3e 82 a1 20 3e 3d 52 94 3e
       0.13366324 0.16976069 0.1568661 0.28968993
0000a0 02 27 36 be 34 32 24 be 13 38 0b 3e 4d 43 23 be
       -0.17788318 -0.16034776 0.1359561 -0.15943642
0000b0 37 22 86 be 28 9d 90 be 31 ea 19 be b1 d7 25 3e
       -0.2619798 -0.282449 -0.15030743 0.16195561
0000c0 ac 76 ed 3d 4f 79 1a 3e 15 34 6b be e9 84 5a 3e
       0.115949005 0.15085338 -0.22969086 0.21339764
0000d0 d0 38 89 be 0f 8d 07 be 17 63 15 be 3a 1f 2d be
       -0.26801157 -0.13237403 -0.14588581 -0.16906443
0000e0 e7 a6 9e be 9e d5 0b 3e 8c 2e 1c 3e 1f a8 6f be
       -0.3098671 0.13655707 0.15252131 -0.23403977
0000f0 05 f6 00 3e 3d 15 41 be 3c e5 06 be b8 3b 57 be
       0.12593849 -0.18855758 -0.13173383 -0.21018875
000100 ce ed 8f be af 5c 04 be d8 e1 8b 3e 3d 37 28 be
       -0.28111118 -0.12925981 0.27320743 -0.16427322
000110 71 00 7a be a8 24 0e 3e 2c 50 cb 3d 12 db 40 be
       -0.24414231 0.13881171 0.09927401 -0.18833569
000120 3c 37 0e 3e 7b bd 40 be 5d ce 04 be 43 fe 39 3e
       0.13888258 -0.18822281 -0.12969346 0.181634
000130 58 33 7b be cb de c4 bd c7 59 87 be 28 72 1f be
       -0.24531305 -0.09612807 -0.26435682 -0.15570891
000140 d8 30 3d 3e 7f bd 6f be 2b a4 19 3e f2 aa 98 be
       0.18475664 -0.23412131 0.15004031 -0.2981792
000150 e5 2d 12 3e a1 90 4a 3e 2b d1 d4 3e 92 3d db 3d
       0.1427532 0.19781734 0.41565832 0.10705103
000160 18 9e 0e be 1b e4 49 be 28 f6 14 3e dc b8 4c 3e
       -0.13927495 -0.19715922 0.14547026 0.19992393
000170 67 bb 52 be 4e 0d f6 bd bf 89 3b be 6e a0 35 3e
       -0.20579301 -0.120142564 -0.18314265 0.1773698
000180 f0 f7 63 3e a2 48 65 be 16 ec c8 3d 76 83 ba bd
       0.2226255 -0.22390988 0.09810655 -0.091071054
000190 ab 94 6e be 51 32 16 be 51 ca 1f 3e 97 0a 2d 3e
       -0.232989 -0.14667632 0.15604521 0.16898571
0001a0 d0 96 ed bd 94 b9 2d 3e 76 4a 1f be 20 43 49 be
       -0.11601031 0.16965324 -0.15555748 -0.19654512
0001b0 4f ae 81 be 0e 74 85 3e af 2e 2d be fe f0 53 3e
       -0.253283 0.26065105 -0.1691234 0.206974
0001c0 b9 e1 46 3e 91 15 4f be ad 32 8f be 38 20 1a be
       0.19422044 -0.2022307 -0.2796835 -0.15051353
0001d0 e7 9d 0e 3e 0f 09 cb bd d6 f3 e0 bd 55 f6 1b be
       0.13927422 -0.09913837 -0.10984008 -0.15230687
0001e0 83 20 60 be 3c ca 28 3e bf 02 31 be aa a9 39 3e
       -0.21887402 0.16483396 -0.17286204 0.18131128
0001f0 0b 42 3f be 7a fb 11 be d9 39 2b 3e 6c bc 34 be
       -0.18677537 -0.14256087 0.16721286 -0.17650002

layers.0.out_bias f4 [128]
000000 20 24 15 3b 25 b4 7c 3c 98 3e 10 3c ff 5c 00 3c
       0.0022757128 0.015423809 0.008803986 0.007834672
000010 eb 54 07 bc 7a 1a 11 3c ac c6 14 3c 2a 4f 11 bc
       -0.008259992 0.00885641 0.00908057 -0.008868972
000020 af b6 f3 3a db ec c0 bb bc d3 2b bb d1 49 55 3b
       0.0018593873 -0.0058876104 -0.0026218733 0.0032545219
000030 61 cb 6d 3b 5e 6f f0 3b cf 9c fb 39 9e 30 ec b9
       0.0036284553 0.0073374948 0.00047991282 -0.0004504965
000040 a9 36 d6 bb f8 74 98 3b 16 d1 3e bc e2 95 99 bb
       -0.0065372777 0.0046526156 -0.01164653 -0.004687057
000050 a2 74 47 3a a3 58 c0 3b 40 c5 9e 3b fe 01 3f 3b
       0.0007608627 0.0058699413 0.0048452914 0.0029145475
000060 0d 5a 67 3c 08 6b 44 bb 13 f1 e3 3a 72 eb 6a bc
       0.014120591 -0.0029971022 0.0017390571 -0.014338361
000070 64 91 b6 ba 02 85 58 3c 15 2a 44 bb 5b 71 38 bc
       -0.0013928828 0.013215305 -0.002993231 -0.011257495
000080 a5 c3 9a bc 2f 37 e5 ba 3c d0 73 bb 1f 1d 1f bb
       -0.018892119 -0.001748776 -0.0037202975 -0.0024278832
000090 b4 df be 3b a7 43 a0 b9 3b 37 3e bb c4 e6 6d 3b
       0.0058250073 -0.00030567983 -0.002902462 0.0036300877
0000a0 95 cf 05 3d 46 f2 39 bb 9a 43 fa 3b c7 af 22 bc
       0.03266867 -0.0028373166 0.0076374533 -0.009929604
0000b0 71 f2 37 3b 06 15 8d bb de 5e a0 3a 37 ee 90 3c
       0.002806809 -0.0043054847 0.0012235304 0.017691715
0000c0 2c 0f 01 3c fb 30 61 bc 22 c9 9f bc f0 65 a8 3c
       0.007877152 -0.013744588 -0.019505087 0.02055642
0000d0 0f 4d 82 ba fc e7 af bc 1a 55 02 3c 80 61 4f 3c
       -0.0009941178 -0.021472923 0.00795486 0.012657523
0000e0 df bb e6 3c 3f c8 bd ba 25 39 76 bb cc eb 79 bb
       0.028165756 -0.0014479234 -0.0037570682 -0.003813493
0000f0 35 e6 78 3b b6 59 87 3a ea 1a c3 3b 07 b1 46 3b
       0.003797901 0.0010326419 0.005954136 0.003031792
000100 a1 0d a7 3c 5c 55 1b 3b 92 a9 e5 3b 72 ff 79 3c
       0.020392241 0.0023702001 0.0070087397 0.015258657
000110 34 59 c1 3c a0 90 19 3b 9e 2f bc 3b b3 b1 c1 bc
       0.023602106 0.002343215 0.005742981 -0.023644304
000120 72 74 24 b9 f0 a2 7b 3c 2a 54 f6 bb 51 de 49 bc
       -0.00015683638 0.015358672 -0.0075173574 -0.012321071
000130 b9 e2 cf 3a 36 a4 07 3c c3 e7 b8 bc 69 54 36 ba
       0.0015860415 0.008278897 -0.02257145 -0.0006955327
000140 49 e4 e6 3b 22 b0 fa 39 a5 c2 b1 b9 09 38 e5 3c
       0.0070462567 0.00047814945 -0.00033905092 0.027980821
000150 00 77 0c 3c 84 e4 81 3d 44 0a 1e 3d 0a 81 80 bb
       0.008573294 0.06342414 0.03858401 -0.0039216327
000160 16 9b 04 3c c2 40 a9 3b fe ac ba 3a 5b 7e aa bc
       0.008093616 0.0051651904 0.001424223 -0.020812204
000170 c9 a3 c1 ba 4d 16 82 bc 48 af 47 3c 53 4f 98 3c
       -0.0014773543 -0.015879774 0.012187786 0.018592512
000180 3f c6 5a 3c 01 c0 18 bc 29 4c 87 bb 45 88 1c 3c
       0.01335293 -0.009323121 -0.004128952 0.009553974
000190 1d 29 48 3c 85 b3 7d ba 8b 58 c4 bb 8e 4e 2d 3a
       0.012216833 -0.00096779346 -0.0059920005 0.0006611132
0001a0 3e b1 67 3b 4e 04 a9 3a ba 4f 82 ba a2 66 da 3c
       0.0035353447 0.001289496 -0.0009941973 0.026660267
0001b0 10 a7 9c 3a 1b 62 dd bb d8 43 f5 b9 d1 c1 7e ba
       0.0011951644 -0.00675608 -0.0004678059 -0.0009718212
0001c0 84 b2 02 3c 73 94 e9 39 0c 2a 70 bb 6b 19 0c bb
       0.007977132 0.00044551826 -0.0036646156 -0.0021377455
0001d0 26 31 e8 3b fa 2e 22 bc c3 51 56 3c a9 11 24 3c
       0.007085937 -0.009898895 0.013081017 0.010013976
0001e0 4a 2b 91 ba 18 e9 18 bb 35 aa f5 3b f7 28 65 bc
       -0.0011075523 -0.0023332294 0.007497097 -0.013986818
0001f0 5c 4b 3c 3c e4 ca 5a bb a6 52 39 3c f9 d9 82 bb
       0.011492576 -0.0033385092 0.011311209 -0.0039932695

layers.0.in_proj.weight f4 [128, 128]
000000 c9 56 3c 3c 95 e7 84 3d 7a c6 0b 3d e0 1e 85 bd
       0.011495301 0.06489483 0.03412483 -0.065000296
000010 7b bb 3b 3d 1b e4 3a bd f4 ef c6 bd 55 cd cb 3d
       0.045833092 -0.045627695 -0.09713736 0.09951273
000020 2e be ae 3c ed b7 dc bd c2 c7 0f bd a8 61 a2 bc
       0.02133092 -0.107772686 -0.035102613 -0.019821957
000030 a0 2b de 3d bb c4 8f 3b 03 74 1b be e2 6d 26 be
       0.108481646 0.004387466 -0.15180974 -0.16252854
000040 29 ef f5 3c 4a 08 6b 3d 95 74 08 3e d9 70 12 3c
       0.030021267 0.057380952 0.13325723 0.008938038
000050 18 a4 83 bd 12 77 58 be 73 ce c4 3d bd cd bf 3c
       -0.06427783 -0.21139172 0.096096896 0.023413533
000060 b4 9a 09 bd 71 02 ef 3b 66 5a f2 3b 3a 12 20 3e
       -0.033594802 0.007293992 0.0073960302 0.15631953
000070 31 36 77 be f4 da 5b bd 97 d4 ec 3b 74 0d 19 3e
       -0.24141766 -0.053675607 0.007227491 0.14946538
000080 8f 7a a2 bd 24 e3 56 be 16 1d cf bc 4f 9c c8 3c
       -0.079335324 -0.20985085 -0.025282424 0.024488596
000090 cc ee 02 bd e2 86 52 3d 72 8d 0e 3e df 28 7e bd
       -0.031966016 0.051398166 0.13921145 -0.062050696
0000a0 ce 6b 9d 3c 15 4d 0f 3e ae f0 c0 bc e7 6e 22 3d
       0.019216444 0.13994248 -0.023552265 0.039656546
0000b0 b4 3d 70 bd 78 9c cb bc 2c cb 0d bd 14 50 9a bd
       -0.058652595 -0.024854884 -0.034617588 -0.07534805
0000c0 c0 dd 0b 3d dc 29 00 be fb 8e bc bd 8f d4 19 bd
       0.034147024 -0.12515968 -0.09206959 -0.037556227
0000d0 77 12 2e bc 53 6e 2d bb 98 29 ec bc d7 d9 8a bd
       -0.01062452 -0.0026463463 -0.028828427 -0.06779831
0000e0 f8 0b fb bd 61 74 05 3d ad 04 b7 bd 57 56 ee 3b
       -0.12258142 0.03258169 -0.08936439 0.007273476
0000f0 e9 2d f8 3c 2c b2 5e be 17 87 47 be 71 b7 0f bd
       0.03029533 -0.21747655 -0.19485126 -0.035087053
000100 cf 6d 03 be 84 c4 15 3d 91 d0 35 bc fc 09 88 3d
       -0.12834857 0.036564365 -0.011097089 0.06642529
000110 7b bb 76 be 14 ee 46 3c 30 27 18 3e 58 b2 67 3d
       -0.24094956 0.012141723 0.14858699 0.056566566
000120 24 6b 9c bd e9 ab f5 bd f8 fd 83 bc bb ab 9b bc
       -0.07637623 -0.1199568 -0.016112313 -0.019002786
000130 71 95 97 3d ed 8b 3c bd 23 5b 3c be 4e f3 77 bd
       0.074015506 -0.04603188 -0.18394141 -0.060534768
000140 d6 31 11 3d 70 3b 61 3d 34 80 1d bd 55 55 31 bd
       0.035447918 0.054988325 -0.038452342 -0.04329427
000150 f4 b1 91 bb 45 b6 dd 3d 8b d5 85 3c 5f 82 44 bd
       -0.0044462625 0.10825781 0.016337177 -0.047975894
000160 ea 95 87 3d 6d fa e5 3c a3 52 36 3c 45 34 2f 3d
       0.06620391 0.028073514 0.011128101 0.042774457
000170 04 cc 14 be a9 45 26 be 9d 82 83 bc 35 9b 0e bc
       -0.14530951 -0.1623751 -0.016053492 -0.008703996
000180 5d f4 64 3d 6d 78 03 3e 6e 1b b4 bd d9 8e b4 3d
       0.055897105 0.12838908 -0.08794294 0.088163085
000190 c3 1f 20 3e 73 f3 af 3d 01 bf 33 3e 19 3a 90 3d
       0.15637116 0.08591356 0.17553331 0.07042331
0001a0 88 26 74 3d ba 87 4b 3e b4 1a 1c bd 8d c9 89 3c
       0.05960706 0.19875994 -0.038111404 0.01681974
0001b0 7b 3d c9 3d d7 a2 a6 bd 93 23 ef b9 a5 42 71 3d
       0.098261796 -0.08136528 -0.00045612137 0.058901448
0001c0 31 ba d8 bc 90 84 c5 3d c1 5a 8c bd 42 e9 a3 bc
       -0.02645597 0.09644425 -0.068532474 -0.020008687
0001d0 87 f8 11 3e 8b 90 7f bd 73 f2 70 3c 58 9d 0b be
       0.14254962 -0.062393706 0.014706242 -0.1363424
0001e0 36 2e ef 3d 29 3d 30 bd a6 62 15 bd 48 73 51 3b
       0.11678736 -0.043027077 -0.03647103 0.0031959582
0001f0 23 ae 5f 3d e1 6e 22 3d 84 aa fd 3d 5c dc 43 3d
       0.05460943 0.039656524 0.12386039 0.047817573
000200 d1 92 8e bd 1c 5b b4 3d 6b 58 6d 3c 52 ac 94 3d
       -0.06961597 0.0880644 0.0144864125 0.0725943
000210 29 43 d6 bb 01 b3 0f bc 68 f8 3c be a7 1a 36 bd
       -0.006538768 -0.008770705 -0.18454134 -0.04445901
000220 c1 f8 ba 3d 76 43 fb 3c df a5 df 3c 28 ce d8 bd
       0.09129477 0.030671816 0.027300773 -0.10586196
000230 63 5e cc bd 93 44 0f 3e 3c b9 79 bb a4 25 d1 bd
       -0.0997894 0.13991003 -0.0038104793 -0.102122575
000240 96 55 5c 3e b4 a6 24 bd 50 3e b5 3b 5e b9 39 3d
       0.21517023 -0.040198043 0.00553111 0.045342796
000250 d1 b3 e1 bd 18 59 b7 bb fc a6 b7 3d a4 99 2f bc
       -0.110206254 -0.0055953376 0.089673966 -0.010717783
000260 4d 56 ae 3d b1 ef f4 3d 5e 7c db 3d 19 d1 07 3e
       0.08512554 0.1195978 0.107170805 0.13263358
000270 51 bc 4c 3c 1d 54 7e 3d 74 20 05 bd 2f 35 ab bd
       0.01249607 0.062091935 -0.032501653 -0.08359753
000280 38 3a cb bd d5 2f 35 3d ea 57 d9 bc cf b8 c6 bd
       -0.09923214 0.04423507 -0.026531179 -0.09703218
000290 0f b4 8d 3c 1f c8 89 3d 35 cf 5c 3c 43 68 e5 3d
       0.017297773 0.06727623 0.013477136 0.11201527
0002a0 ca 15 c3 bd dc 64 b6 3d 80 75 56 be a6 0e 93 3c
       -0.0952564 0.08905956 -0.2094326 0.01795132
0002b0 7f f2 c8 3d b1 5f 3e 3c 7d 98 60 3d cc f0 6a bc
       0.098118775 0.011619494 0.054832924 -0.014339637
0002c0 ee 0a b3 bd 81 dd d7 bd ed 7d 1e 3d c4 0f 52 3e
       -0.08742319 -0.105402954 0.03869431 0.20513827
0002d0 ef 63 01 be de 0d 97 3d 0b 56 e6 3c 70 5a 09 3e
       -0.12635778 0.07375692 0.0281172 0.13413405
0002e0 ec 4a d7 3c eb af 39 3d 42 c7 5d 3c 52 f1 47 3e
       0.026280843 0.045333784 0.013536276 0.1952565
0002f0 7c 86 ae 3c e9 d2 67 3c bd ef 00 3e 2f 63 2b 3d
       0.021304362 0.014149406 0.12591453 0.041842636
000300 c3 a7 d9 bd 6f 50 d2 3b 1f 02 50 3e 33 42 4f 3c
       -0.10627701 0.00641828 0.20313309 0.0126500605
000310 30 42 df 38 67 f9 7e bc 7f d1 6a be 4f 46 a4 bd
       0.00010645797 -0.015562392 -0.22931479 -0.08021223
000320 30 bc c8 3d f7 03 7f 3d e7 3d 63 bd 74 ba 09 3d
       0.09801519 0.06225964 -0.055478957 0.03362508
000330 03 21 bd 3d b1 29 79 bd a9 04 ae 3c 8d 4d 01 3d
       0.09234812 -0.060830776 0.021242457 0.0315681
000340 e9 90 22 bd 66 09 8e 3d b3 ce 4a 3c 79 12 8b 3d
       -0.03968898 0.06935386 0.0123783825 0.06790633
000350 8b a8 b3 bd 8a 54 22 bd d5 8c 7d 3d 14 13 3e bd
       -0.087723814 -0.039631404 0.061901886 -0.046404913
000360 e0 4c 20 bd 85 51 44 3d 84 7a 77 3d d2 c4 a9 bd
       -0.039135814 0.047929306 0.060419574 -0.082894936
000370 d7 91 cf bd 41 15 da bc 3c 5c 2d be 4c 9d 05 3d
       -0.101352386 -0.026621463 -0.16929716 0.032620713
000380 e7 f9 09 bd 3c 1e 18 bd 9b 15 80 3d aa a7 df 3c
       -0.03368559 -0.03713821 0.06254121 0.027301628
000390 bc 40 ad bd 2e a2 c7 bd 02 df 57 bd 25 42 e4 3c
       -0.08459613 -0.0974773 -0.05270291 0.027863571
0003a0 09 f0 ca 3d 1a a2 bb bd 88 cd a9 3d 83 b2 cd bc
       0.09909064 -0.09161778 0.08291155 -0.025109535
0003b0 3f 2a ee 3d 84 35 64 bd 04 16 f1 bd 1e f6 99 bd
       0.116291516 -0.0557151 -0.11771777 -0.07517646
0003c0 a6 d5 8a bd 6b 19 cd 3a 48 83 89 bd 49 f4 3c be
       -0.067790315 0.0015647834 -0.06714493 -0.18452562
0003d0 df bd 58 3a 37 e1 47 3d eb 72 42 be 6d b2 36 3d
       0.0008268039 0.048798766 -0.1898915 0.044603754
0003e0 04 ef 15 bd 93 d3 ca 3d 87 a4 06 bd e4 50 de 3b
       -0.036604896 0.09903636 -0.03287175 0.0067845453
0003f0 e4 ac a4 bc 67 5e d0 3d 6a 1a b2 3c 04 d7 8e bd
       -0.020101972 0.10174256 0.02174111 -0.06974605

layers.1.a f4 [128]
000000 00 e3 78 3f f5 c8 53 3f 2a 76 77 3f 43 91 f5 3e
       0.97221375 0.8272851 0.9666468 0.47962388
000010 cb 8e e0 3e 01 63 e9 3e 0c 4e c0 3e e9 08 29 3f
       0.43858942 0.45583346 0.37559545 0.6602922
000020 4d b3 04 3f ce 97 27 3f c4 1f ca 3e 4d dd dd 3e
       0.5183609 0.6546601 0.3947736 0.43332902
000030 19 6a 00 3f fe 8c 01 3f 42 f0 08 3f d5 3a c3 3e
       0.5016189 0.5060576 0.53491604 0.38130823
000040 c5 e0 f3 3e 7e 55 c1 3e 4e b7 f6 3e ed 1c e1 3e
       0.47632423 0.37760538 0.48186725 0.4396738
000050 62 93 38 3f d8 7d 51 3f 5b e6 27 3f 02 60 f9 3e
       0.7209989 0.8183265 0.6558587 0.4870606
000060 83 79 be 3e 5e d6 e9 3e e0 b9 f1 3e 74 2b ee 3e
       0.3720208 0.45671362 0.47212124 0.46517527
000070 7c 91 e8 3e 0a 06 10 3f 28 8c 0f 3f a5 65 02 3f
       0.45423496 0.56259215 0.56073236 0.5093635
000080 5c 92 c7 3e 16 a8 16 3f a6 03 0f 3f 2f 4d ab 3e
       0.3897885 0.5885023 0.5586494 0.33457324
000090 a0 2b f3 3e b7 7e a1 3e 8e b9 11 3f 1c f7 fc 3e
       0.4749422 0.31541988 0.5692376 0.4940728
0000a0 57 8b 03 3f 50 d9 76 3f 7a 38 19 3f ac b4 c2 3e
       0.5138449 0.9642534 0.598518 0.38028467
0000b0 51 cf 04 3f 00 ef ff 3e a5 ee fc 3e 44 7f ff 3e
       0.5187884 0.4998703 0.4940082 0.49901783
0000c0 32 21 2b 3f 8a 91 37 3f 04 09 0c 3f 61 b3 10 3f
       0.6684753 0.7170645 0.54701257 0.5652371
0000d0 44 73 23 3f ef 2b fd 3e 84 5c 2f 3f f4 c2 c4 3e
       0.63847756 0.4944758 0.6850054 0.38429987
0000e0 e7 ea 02 3f 4a 7c d8 3e db 27 14 3f 85 e1 a5 3e
       0.5113968 0.42282325 0.57873315 0.3239862
0000f0 fe 39 be 3e 48 e7 cd 3e d1 23 e0 3e c4 40 bd 3e
       0.3715362 0.40215516 0.43777326 0.36963475
000100 09 70 ea 3e 7e 4f 05 3f 38 60 ed 3e 1f 97 bc 3e
       0.457886 0.5207442 0.46362472 0.36834046
000110 06 30 25 3f 3e cd f0 3e 38 60 18 3f 8f 45 fa 3e
       0.645264 0.47031587 0.5952182 0.48881194
000120 21 07 61 3e 90 fe 33 3f 04 47 f5 3e e1 a7 27 3f
       0.21975376 0.70310307 0.47905743 0.6549054
000130 af d7 00 3f 63 d8 d4 3e e4 07 36 3f 12 a3 e4 3e
       0.5032911 0.4157134 0.7110579 0.44655663
000140 a2 b9 08 3f 3c 4b de 3e 0f 4f 01 3f 2f bd 4b 3f
       0.53408253 0.43416774 0.5051126 0.79585546
000150 a0 89 01 3f 44 ee 20 3f 36 42 bc 3e 69 12 d3 3e
       0.50600624 0.62863564 0.36769265 0.41224983
000160 74 65 09 3f bb d0 fa 3e 15 31 07 3f ef b5 0b 3f
       0.5367043 0.48987374 0.5280927 0.54574484
000170 92 21 c9 3e 63 31 cb 3e 09 dc d4 3e 54 b1 1a 3f
       0.39283425 0.39686117 0.41574124 0.6042683
000180 ce 60 0a 3f 68 86 fa 3e 6a 5e 0c 3f c3 88 15 3f
       0.5405396 0.4893067 0.54831564 0.58411807
000190 c6 2d 1f 3f ef a3 ef 3e a8 80 ad 3e 9a 19 dd 3e
       0.6217922 0.4680476 0.3388722 0.43183595
0001a0 a1 aa f4 3e 03 27 16 3f 38 f2 05 3f 7d 0e f1 3e
       0.4778643 0.5865328 0.5232272 0.47081366
0001b0 2d 75 d7 3e 04 58 d4 3e d8 c9 f0 3e f9 9b e8 3e
       0.42081586 0.414734 0.47028995 0.45431498
0001c0 d9 fc 17 3f c6 39 17 3f f4 03 f6 3e 56 62 a5 bd
       0.5937019 0.5907253 0.4804989 -0.08075397
0001d0 b0 54 ca 3e e1 eb a9 3e 60 1f f3 3e 2e c2 a3 3e
       0.39517736 0.33187774 0.47484875 0.31984085
0001e0 89 b2 46 3e 29 ad 0b 3f 66 56 02 3f cb b6 06 3f
       0.19404043 0.54561096 0.50913084 0.5262267
0001f0 de f4 8c 3e 6a e1 be 3e b8 36 f5 3e c4 5e 88 3e
       0.2753057 0.37281352 0.4789331 0.266348

layers.1.b f4 [128]
000000 95 74 91 3d da fd 2c be e5 8a 8d 3d 91 0a 83 be
       0.071023144 -0.16893712 0.06911258 -0.25594
000010 bf b9 87 3e 54 83 2b 3e 86 f0 99 3e 73 50 2c 3e
       0.265089 0.16749316 0.30066317 0.16827564
000020 c7 8f 34 3e f6 db ea bd 77 33 76 3e 25 83 55 3e
       0.17632972 -0.114677355 0.2404307 0.20850809
000030 5c 11 39 be 16 0e 66 be b3 0a 48 3e 63 e3 37 3e
       -0.18073028 -0.22466311 0.19535331 0.17957835
000040 9f 7c 48 be a0 50 3f 3e 70 46 6a 3e 2a 6f 82 3e
       -0.19578789 0.186831 0.22878432 0.25475436
000050 ec 1d 90 3e 82 6a 04 be 58 8a 23 3e ef de 66 be
       0.2814783 -0.12931255 0.15970743 -0.2254598
000060 dc 0b 8b be a3 63 4b 3e 97 ee 33 3e 8d 06 2d be
       -0.27157485 0.19862227 0.17571484 -0.1689703
000070 d4 60 53 be 19 98 4c 3e 6e 71 70 3e f1 bf 76 3e
       -0.20642406 0.19979896 0.2348077 0.24096657
000080 e3 c7 3c 3e 54 bd 24 3e df 50 55 be f5 43 89 be
       0.18435626 0.16087848 -0.20831631 -0.2680966
000090 94 fc 7a 3e 38 7d 15 3e 01 51 53 be a0 b0 57 3e
       0.24510413 0.14598548 -0.2063637 0.21063471
0000a0 d8 1a d0 3e f4 82 c4 bd 80 1d 13 3e a9 26 05 3e
       0.4064548 -0.0959529 0.14366722 0.13003029
0000b0 00 4d 10 be 56 48 32 be 06 03 64 3e b7 93 47 be
       -0.14091873 -0.17410406 0.22266778 -0.19489942
0000c0 f4 7c e7 3d 94 d9 86 3e 90 ff 34 3e 4f da 47 be
       0.1130313 0.26337874 0.17675614 -0.19516872
0000d0 df f3 24 be 99 24 4c be 7c 49 3c 3e 19 07 50 3e
       -0.16108654 -0.19935836 0.18387407 0.20315208
0000e0 fd ad 3f be ca 48 5c 3e 34 a6 21 be 74 3c 68 3e
       -0.18718715 0.21512142 -0.15786058 0.22679311
0000f0 04 d0 39 be 1a 0a 4b 3e 32 0e 39 be 15 38 8f be
       -0.18145758 0.19828072 -0.18071821 -0.27972475
000100 d8 1e 40 3e 12 f2 52 3e 2e b9 52 be 8a 31 65 3e
       0.18761766 0.20600155 -0.20578453 0.22382179
000110 2a 1b 6e be a5 15 6a be 83 41 50 be 4b 3f 35 be
       -0.2325255 -0.22859819 -0.2033749 -0.17699926
000120 d3 13 89 be cc bd 6c 3e d9 d8 79 be 70 0d 59 be
       -0.26772937 0.23119277 -0.24399127 -0.21196532
000130 b9 a4 5b be 74 5a 28 be 72 5c e3 bd 80 b3 87 3e
       -0.21449555 -0.16440755 -0.11101617 0.26504135
000140 96 17 7d 3e 34 43 27 be 7b 8c 7a 3e 65 fd 72 3e
       0.24716029 -0.1633423 0.24467652 0.23729475
000150 cf 07 63 be 9e cf 35 be a3 bb 7d 3e 57 6d 2d be
       -0.22170947 -0.17754981 0.24778609 -0.16936241
000160 b4 0c 8a 3e dc f7 84 3e 8c fa 05 3e d4 45 17 be
       0.26962817 0.25970352 0.13083857 -0.14772731
000170 9e e7 3f be 82 78 5f 3e 3d 77 47 be 0e 53 18 3e
       -0.18740699 0.21823314 -0.1947908 0.14875433
000180 23 f6 63 3e 28 ea aa be a6 8f 2b be 0c 4f 3c be
       0.22261862 -0.33381772 -0.16754016 -0.18389529
000190 5d ae 30 be db a4 1f be 76 71 6b 3e 9a 37 21 be
       -0.17254014 -0.15590231 0.229925 -0.15743867
0001a0 c1 4f 3d 3e dc dd 53 be c9 48 70 be 43 c8 5c 3e
       0.18487455 -0.20690101 -0.23465265 0.21560769
0001b0 c8 16 88 be 10 98 78 be 1d e4 53 be 57 e1 00 be
       -0.2657988 -0.24276757 -0.20692487 -0.1258596
0001c0 02 0b 5a be 71 35 1f be 79 db ac be 98 1c 08 3e
       -0.21293262 -0.1554773 -0.33761194 0.13292158
0001d0 72 78 7c 3e ca 6b 0c 3e a4 23 45 be 4d f4 87 3e
       0.24655321 0.13712993 -0.19251877 0.26553574
0001e0 d4 38 33 be 7f bf 34 be 76 3b 60 3e 0c 9c 3f 3e
       -0.17502147 -0.17651175 0.21897683 0.18711871
0001f0 28 1e 3e 3e c3 a2 61 be 70 ab 21 be 98 47 16 be
       0.18566191 -0.22034745 -0.15788054 -0.14675748

layers.1.c f4 [128]
000000 e9 3e da bd 16 3c 40 3e ab da 1e be 44 b0 20 be
       -0.106565304 0.18772921 -0.15513103 -0.1569224
000010 c5 ff fc bd 46 30 71 be af 44 0d be 33 1c 30 be
       -0.12353472 -0.23553571 -0.13795732 -0.17198257
000020 0b 19 5e be 8d 97 7c 3e d3 d2 1b 3e 5a 57 45 be
       -0.2168924 0.24667187 0.15217142 -0.19271603
000030 03 33 55 3e ae 55 37 3e 09 4a 55 3e 4b 06 3c 3e
       0.2082024 0.17903778 0.20829023 0.18361776
000040 f5 ac 40 be 4b da 49 be 7f a9 25 be e5 ca 0d 3e
       -0.18815978 -0.19712178 -0.16177939 0.1384693
000050 89 b0 86 3e df 1f 1a be 3d 1a 44 3e bb b3 1f 3e
       0.2630656 -0.1505122 0.19150634 0.15595905
000060 7c 13 07 3e ce 6c 3c be ce b5 3f 3e 77 c6 62 be
       0.13191026 -0.1840088 0.18721697 -0.22146021
000070 c0 fc 62 3e 7c 9d 70 3e 0f 34 06 3e f8 a2 0f 3e
       0.22166729 0.23497576 0.13105796 0.14027011
000080 16 48 39 be 04 0a 23 be 74 25 48 3e 58 4d 36 be
       -0.18093905 -0.1592179 0.19545537 -0.17802942
000090 1f f9 24 3e b4 a8 7c 3e 6f 61 6b 3e 2a 1f 51 be
       0.16110657 0.2467373 0.22986387 -0.20422044
0000a0 aa cb a2 3e b2 38 6e 3d 5f 6f 9c be 1a 4b 9a be
       0.31796008 0.058159538 -0.3055372 -0.30135423
0000b0 92 35 a1 3e 7d 28 4d 3e c4 e1 33 3e e7 f9 93 3e
       0.31486183 0.20034976 0.17566592 0.28901598
0000c0 26 c2 89 be 07 b5 2a 3e eb ab 45 be 76 2c 37 3e
       -0.26905936 0.16670619 -0.19303863 0.17888054
0000d0 89 9a 50 be 68 f7 49 3e b7 47 30 be 94 4e 63 3e
       -0.2037145 0.19723284 -0.17214857 0.22197944
0000e0 ac 82 77 be 18 35 20 3e f6 e1 41 3e 50 79 17 3e
       -0.24170941 0.15645254 0.18933854 0.14792371
0000f0 0a b4 6c 3e 5f 82 28 be 47 a0 56 3e 52 21 1f 3e
       0.23115554 -0.16455983 0.20959578 0.15540054
000100 95 fc 35 3e 31 39 76 be 25 4a 22 be 73 ff 32 be
       0.17772134 -0.24045254 -0.15848596 -0.17480259
000110 80 19 01 be b7 ef 0f 3e cb 1c 42 be ef 4c 3b be
       -0.12607384 0.14056288 -0.18956296 -0.18291067
000120 cc 1f 01 3e 0f a2 f8 bd 0f 4a 0c be dd 59 43 3e
       0.12609786 -0.12140285 -0.13700126 0.19077249
000130 f1 72 25 be 7d 9c 4d 3e f8 38 7d be 33 c6 0f 3e
       -0.16157128 0.20079227 -0.24728763 0.14040451
000140 7c 09 1a 3e 0a cd 78 3e 3c 3d 19 3e 77 90 80 be
       0.1504268 0.24296966 0.14964765 -0.25110218
000150 35 0f 2c be 0a 44 61 be 4c cb 17 be 47 54 4c 3e
       -0.16802676 -0.21998611 -0.14823645 0.19954024
000160 ad 6f 18 be 2e 03 32 be b2 07 96 be 5e ab 5a 3e
       -0.14886351 -0.17384025 -0.29302746 0.21354434
000170 8e 51 63 3e 92 7e 31 3e e2 82 4f 3e 55 c0 83 be
       0.2219908 0.17333439 0.20264772 -0.25732675
000180 52 52 5f 3e 5a 0b f1 3d 6f ad 83 be dd ed 33 3e
       0.21808746 0.11769743 -0.25718257 0.17571206
000190 f0 b8 6b be 18 00 58 be 1c 72 1d be 73 10 70 be
       -0.23019767 -0.21093786 -0.1537556 -0.23443775
0001a0 08 28 88 3e 43 07 40 be d3 d1 18 3e ab 75 46 3e
       0.2659304 -0.1875277 0.14923792 0.19380824
0001b0 91 fb 04 be a9 e0 1c be 61 c4 14 3e ec cc a5 be
       -0.1298659 -0.15320076 0.14528038 -0.32382905
0001c0 e9 3f 25 3e b9 45 5f 3e 5e d8 fa bd df c7 66 3e
       0.16137661 0.21803941 -0.122483 0.22537182
0001d0 88 07 3b be 93 9b 9c 3e ce dc 36 3e 61 b3 b2 3e
       -0.18264592 0.30587444 0.17857668 0.3490248
0001e0 e8 f6 34 3e 4a 34 28 be 46 4a 22 3e 9e b7 67 3e
       0.17672312 -0.16426197 0.15848646 0.22628638
0001f0 54 30 63 be 43 35 17 3e 8e 9b 74 be 1e 5d 73 be
       -0.22186404 0.14766411 -0.23887464 -0.2376599
